model_checkpoints/model_epoch_100.pth (torch, 233384 bytes, 9 tensors)

lstm.weight_ih_l0 f4 [256, 28]
00000000: 8a8d a1be 6717 203e aa42 6bbe 889b c53d
00000010: d7e6 8b3e dc3b f8bd 94b3 dcbc a9a3 c239
00000020: 4f76 e9bd dcdd 29bd e20f a1be d8e7 7cbe
00000030: 9c59 63be 7d75 7ebe 3758 57be 921f 6dbe
00000040: c800 8bbe 7aef 08be 8947 73be 2879 1dbe
00000050: 03b6 e53d a83b c8bc a1f4 323e 466c 0f3e
00000060: 7d43 94bd d2cf 35be fb1f 1e3d e3a2 84be
00000070: 2320 2cbe 045f 5d3e 4c4e 7fbe 3000 933d
00000080: 94ec ae3e 6776 a4bd 1ce3 4dbd 0fdb 0dbe
00000090: 8e70 18bd 7446 0ebe 0d9c 0bbe e67e 50be
000000a0: 5a5a 6ebe 8e7b 56be 618d 32be f341 53be
000000b0: 45bf 8fbe ca2b 32be 44cb a2be b2a2 7dbe
000000c0: 4979 c93d c3ea 4b3e 743d acbd 237d 003c
000000d0: e710 9cbd e054 ebbc 8ee8 7abd 4d75 cbbe
000000e0: cce7 5c3e 786d 8cbd 1aa7 88bd 83a8 2a3d
000000f0: 8a5e 74be 88cf 033c 6aeb 21be decb 18bd
00000100: bb0f b23d a2bd a4bd 5e1f 863e 6da6 a93e
00000110: 8ca1 ff3d b7a7 383e 33d5 143e 0444 153e
00000120: 0b3f 3d3e e8df 423e bc3c a53e 3377 a83e
00000130: 871f 06be 4029 ffbd 1a6f a83c 8c0b b33d
00000140: b815 ffbc 14ce 503e 9a39 a13e 483e 013e
00000150: 9aee 98be d5b0 023e 53bc a4be 9226 273e
00000160: 2a4e 3c3e 0dca 01bd 47df 07bd 9dab c83d
00000170: 3509 7bbd 05f7 0dbd a976 87be 7cd3 8cbe
00000180: fff5 a1be 95f1 7fbe 066c 09be 21d1 6dbe
00000190: fab4 9dbe 8e82 15be 0dea dbbd fe72 7fbe
000001a0: c857 103e c7db 273d d1de 87bc 3774 f5bd
000001b0: 901f 0fbe a06a 793c 8fe2 abbd 76da d9be
000001c0: a64a 2d3e ddae 4fbe 9ee4 11bb 504c 3ebe
000001d0: ad20 dcbc 9e59 9bbd 38b3 6d3d 2128 1e3d
000001e0: 8418 a2bd 097c 523c 9b08 503e 2dc5 573e
000001f0: acee af3e 7203 3d3e 1bac 3a3e c8ff ac3e
00000200: 915d 273e 8a67 7f3e 7e9f a33e 2514 a03e
00000210: f931 ce3d a41a ba3d 8a43 f6bd 2879 cbbd
00000220: 33fd 17be 43a9 5c3e b839 54bc 7b40 5bbd
00000230: f523 873e f78c 66bc b3c3 69bc 3674 033d
00000240: 1998 50bd b061 f7bd a6a1 02be d962 19bd
00000250: 2284 653d 9043 4cbd 7c34 523e c7ee 7a3e
00000260: 90dc 5e3e 321c 3a3e 00af 1c3e 2a3c 703e
00000270: c92f 2f3e cbf7 283e d1b3 2e3e c77a f23d
00000280: de9d 0a3d 544c 04be 3449 593d 74cd 29bd
00000290: e619 d83c 64a6 4b3e 7705 843e 35f2 5f3d
000002a0: 12f2 763e abc1 1ebc 42e9 213d ca89 67bc
000002b0: 9bb8 69be 764f 3bbc 297c 8fbd edd3 e23c
000002c0: d3cd 12bd f910 503d e632 a63e 6625 a83e
000002d0: c6c0 6e3e 1f0f a83e 2d92 853e 0fbf 733e
000002e0: 8f38 0e3e ba6d ae3e 472a 283e e763 803e
000002f0: 8576 80bd 164e b9bb 9261 aabd ea10 6f3c
00000300: d94a 673d 5291 b73e accc 8c3e aebf 1f3e
00000310: 2d76 f73d d7ae 41bd 921d 0b3d 3e55 223e
00000320: 3078 88be 2ea3 80bd f925 d3bd 6969 ffbd
00000330: edb2 2ebd 18a6 9bbd 30d8 693e fa9b 503e
00000340: 1da6 1c3e 8555 633e 5178 313e 376c 813e
00000350: d7be 803e 46ea 673e 46fb a23e 4f09 b13d
00000360: 8e45 f7bd 092c 6abe 5409 673d 2a64 123d
00000370: 1ef6 dbbc 8e98 c03e 3c4d b03e ad15 293e
00000380: a666 e6bd 4858 563e 9240 3abe 51a9 183d
00000390: c2e6 983e 95bf 23be 075c 223c 578b 423c
000003a0: d5ad 4d3d 1879 69bd 8ef8 89be 65d9 51be
000003b0: 162b c1bd c97b 81be c284 84be 52e8 5ebe
000003c0: d525 21be 182f a0be 5c31 12be 9e8f e3bd
000003d0: 9f15 f63a 6000 773e c549 98bc 8512 6f3b
000003e0: aea2 37be 9004 11bd d8e4 03be e79b e0be
000003f0: b312 833e d691 0abd 4b65 cbbc 8d03 1e3e
-0.31553298 0.15633927 -0.22974649 0.09648806 0.27324554 -0.12120792 -0.026941098 0.000371245
-0.11399519 -0.041471347 -0.3145743 -0.24697816 -0.22202152 -0.24849506 -0.21029745 -0.23156574
-0.27149034 -0.13372603 -0.23757757 -0.15378249 0.112163566 -0.024442509 0.17476131 0.14006147
-0.07239435 -0.17755058 0.038604718 -0.25905523 -0.16809134 0.21618277 -0.24932212 0.0717777
0.3416487 -0.08030396 -0.050265417 -0.13853095 -0.037216716 -0.13894063 -0.13633747 -0.20360908
-0.23276654 -0.2094557 -0.17436744 -0.20630626 -0.28075615 -0.17399517 -0.31795704 -0.24769095
0.098375864 0.19913773 -0.08410159 0.007842335 -0.07620411 -0.028726995 -0.061256938 -0.3973793
0.21572798 -0.06856817 -0.06672497 0.04166461 -0.23864189 0.008045085 -0.1581246 -0.037303798
0.086944066 -0.08043982 0.26195806 0.33134785 0.124819845 0.18032728 0.14534454 0.14576727
0.1848108 0.19030726 0.322729 0.32903442 -0.13097964 -0.1245904 0.02056079 0.08742437
-0.031138286 0.20391113 0.3148926 0.12621415 -0.2986954 0.12762769 -0.3217493 0.16323307
0.18389192 -0.03168683 -0.03317192 0.09798358 -0.061288077 -0.034659404 -0.26457718 -0.275051
-0.31632993 -0.249945 -0.13420114 -0.23224308 -0.30802137 -0.14600584 -0.10738001 -0.2494621
0.14095986 0.04098108 -0.01658574 -0.11985057 -0.13976884 0.015223175 -0.08392822 -0.42549485
0.16923007 -0.20281549 -0.002226151 -0.18583798 -0.02687105 -0.075854525 0.058032244 0.03861249
-0.07914832 0.012846955 0.20315783 0.2107131 0.3436178 0.18458346 0.18229716 0.33788896
0.16344287 0.24941841 0.3195762 0.3126537 0.10068125 0.090871125 -0.12024601 -0.09935218
-0.14842682 0.21548943 -0.012953214 -0.05352829 0.2639462 -0.014071695 -0.01426785 0.03209325
-0.0509263 -0.12079179 -0.12756976 -0.037447784 0.056034215 -0.04986912 0.20527834 0.24505149
0.21763825 0.18174818 0.15301132 0.23460451 0.17108072 0.16500776 0.17060782 0.11839824
0.03384196 -0.12919742 0.053048328 -0.0414557 0.026379537 0.19887692 0.2578542 0.054674346
0.2411578 -0.009689729 0.039529093 -0.014131973 -0.22824328 -0.011432519 -0.070061035 0.027688945
-0.03584082 0.050797436 0.32460707 0.32841033 0.23315725 0.32824036 0.26088086 0.23803352
0.13888763 0.3406809 0.16422378 0.2507622 -0.06272606 -0.0056550605 -0.08319391 0.014591435
0.056467865 0.35853058 0.27499902 0.15600464 0.12083087 -0.04728588 0.033963747 0.1585283
-0.26654196 -0.06281124 -0.10309977 -0.12471277 -0.042651106 -0.07600039 0.22836375 0.20372
0.15297742 0.22200592 0.17331053 0.25277874 0.251456 0.22647962 0.3183233 0.086443536
-0.120738134 -0.2286836 0.05640538 0.035740055 -0.026850756 0.3761639 0.34433925 0.16512175
-0.112500474 0.20932114 -0.18188694 0.037270848 0.29863554 -0.15991051 0.009909636 0.0118740415
0.050214607 -0.05700025 -0.26947445 -0.20493086 -0.09432046 -0.25289753 -0.25882536 -0.2176831
-0.15737088 -0.3128593 -0.14276642 -0.11111377 0.0018774754 0.24121237 -0.018589864 0.0036479544
-0.17933151 -0.03540474 -0.12880266 -0.43868944 0.25600204 -0.033830486 -0.024828574 0.15431042

lstm.weight_hh_l0 f4 [256, 64]
00000000: d0f4 1388 9465 7603 7753 c288 22cb 5281
00000010: 5091 2e24 63fc 061d 1735 13a1 00e4 7b03
00000020: 4736 03ac 8913 fb84 b973 7e02 a832 cfa1
00000030: 0f1f fb9b 1aab 4902 3b2d df2f b487 5603
00000040: 64e5 4f8d 88cb a704 46ed 6c2f fe18 2705
00000050: 6b81 8da5 eb8e c8ac 8b15 080e 788b 082f
00000060: c779 a99a 47a4 a52f 967b 8f0f dc93 4081
00000070: 7e1c fdae e686 f007 73a5 d198 e0ec e629
00000080: 1214 1816 1477 d502 1d37 f901 c44c f383
00000090: 0749 0014 5e44 8283 c08d a804 7fdb 8d82
000000a0: 65e1 2ba3 34cf 3f2f cf90 b8a4 c648 3c88
000000b0: 9511 051e fc55 fc8d 263d 950f 21ce d0ae
000000c0: 0cc8 548b e257 b985 253c c582 2cbc 262c
000000d0: 6769 d1a4 7166 fd1b 8724 9c82 6e70 9b99
000000e0: 793b 970e 5e5f 2283 6aa4 1e03 d074 d89d
000000f0: 27b5 050e 5083 a282 3ac7 ba8f 25af ba1e
00000100: d04a 3483 4ecc ea2b fd6f 039e 225a 5583
00000110: 9e80 082f df8c d82b 2979 0293 ea5c dd82
00000120: 8b27 1f94 f62c a403 f5f9 460f 63f1 bd9e
00000130: 151c 7427 0377 cf2f f264 3330 09f0 c82c
00000140: 3372 dba5 4ba3 17ac 202a d22b d41f a3ae
00000150: 795a b701 f72d b10a d322 a82b 5f11 1a18
00000160: 5678 7983 8c7c 1b04 48a2 8282 b805 7083
00000170: c12e 7114 8ebe 4699 63eb b29d 812f fc15
00000180: a3c3 691d 8029 bb27 941d 9c99 814f 0283
00000190: 5941 548a f64c ab24 2ec2 0c83 0d34 9a81
000001a0: 9fd8 a91e 25da 7c99 e6a7 2c03 2fba f79d
000001b0: 2f67 15a5 f8b4 a984 a4e5 e31d 9da8 4923
000001c0: 46ab 99ad d806 2fae 443b 7481 a931 9124
000001d0: 3100 c228 dea4 1384 e09d 7b0f 7be5 9083
000001e0: 877a a904 88c7 432a 9224 e195 779e 0a30
000001f0: 9439 ce2f 802a 1ca8 9ea8 0982 1a1d e806
00000200: 2b0b 1104 fa37 3402 52f7 8628 e173 c482
00000210: 097a e716 937b b195 f7ce bb23 f941 9d95
00000220: 2469 5a0f 1480 072d 3e1c d784 0595 078e
00000230: 3df6 db97 f2f4 fe1d 218a 33ad 5876 1384
00000240: 7e31 6f14 06bd be29 f4bd f902 7a83 8ea5
00000250: 2308 a904 a1a5 1005 665b 21a9 6ef4 1a99
00000260: 97b3 ca2f 0847 5d81 28ee 9a81 1bdd 02ad
00000270: 33d1 0e84 160c 7f2f 2c0b 2e2c b283 0403
00000280: 3117 262c 2969 3696 d8a0 9c95 a5d3 1d84
00000290: ebc4 ce88 90d1 a904 40ff c2af c5fd 1125
000002a0: f322 c8a8 be1a a904 24df 8d83 db1a 929d
000002b0: 1030 a219 6579 8d28 620d 6311 56ff 1421
000002c0: 1b24 40a1 2629 3b82 8ec2 120f 8e0d 952b
000002d0: 649f cb14 02e4 728f 8265 ac01 b2f8 0c8a
000002e0: b132 b985 6e69 9d83 fcf5 9f04 eead 2783
000002f0: 905c ce02 88a5 781c 8fdd 979b 8775 0702
00000300: 4ead 1284 0770 8182 6727 da2f 2593 f0af
00000310: b0dc 9219 94ab be2f a781 b883 8d79 be2f
00000320: ad7a 7882 5f16 2cad a4b7 b182 d4e7 5183
00000330: 3f4c 8425 ecb4 920a 4580 4996 e619 9e90
00000340: 6033 b48d f681 b402 b5d2 188c ba53 0081
00000350: 2f8a 3faf a88b 0215 4b94 c51e 1691 1382
00000360: f5d5 ee18 ede7 bb2e 3900 0f04 5557 a104
00000370: 404b 0e91 a740 09aa e50d 8f03 32c6 2383
00000380: ec4f f1ab 751d 2119 17d4 1020 ced4 8b82
00000390: 7d0e 18ad f7e2 9d9b 6c88 a425 121f aa84
000003a0: 5641 cb81 6a82 812e 6978 ff0b 6f99 f21d
000003b0: f8fa 372e ad8c 9414 a1c0 3da5 dcee 068c
000003c0: 188b 5896 9a99 8b14 b243 be81 8021 b985
000003d0: ae20 0f04 2669 e99d b1b8 ca25 cedf 0f84
000003e0: 2647 3485 ce2b 5418 326e 8383 2e03 d584
000003f0: ae13 b510 3009 07a1 cc3d 5215 9b03 f58b
-4.452398e-34 7.240951e-37 -1.1695573e-33 -3.871665e-38 3.785332e-17 1.7865233e-21 -4.98758e-19 7.4024e-37
-1.864635e-12 -5.9027757e-36 1.8694184e-37 -1.4040274e-18 -4.1544538e-22 1.4816252e-37 4.0595602e-10 6.3044727e-37
-6.406292e-31 3.9448425e-36 2.1548371e-10 7.8568926e-36 -2.4547298e-16 -5.700209e-12 1.6773667e-30 1.2418677e-10
-7.0093504e-23 3.013005e-10 1.4148492e-29 -3.5370914e-38 -1.1510169e-10 3.6190473e-34 -5.4192295e-24 1.0255143e-13
1.2284795e-25 3.1365885e-37 9.154724e-38 -1.4299881e-36 6.476751e-27 -7.65641e-37 3.9626787e-36 -2.0844073e-37
-9.317658e-18 1.7444962e-10 -8.0042595e-17 -5.6659737e-34 7.044597e-21 -1.5551399e-30 1.4716088e-29 -9.495361e-11
-4.0980213e-32 -1.74296e-35 -2.898107e-37 2.3694475e-12 -9.081786e-17 4.192154e-22 -2.2943106e-37 -1.6072034e-23
3.7281644e-30 -4.7716997e-37 4.6620765e-37 -5.7295505e-21 1.6480737e-30 -2.387913e-37 -1.8417755e-29 1.9765954e-20
-5.2983126e-37 1.6683406e-12 -6.958241e-21 -6.269854e-37 1.2414822e-10 1.5386823e-12 -1.6468043e-27 -3.2526361e-37
-8.035247e-27 9.649376e-37 9.810294e-30 -2.0110989e-20 3.3877026e-15 3.7737644e-10 6.526327e-10 5.710991e-12
-3.8067829e-16 -2.1549036e-12 1.493309e-12 -7.4180356e-11 6.7353405e-38 1.706177e-32 1.1946784e-12 1.9912804e-24
-7.331266e-37 1.8277352e-36 -1.9194928e-37 -7.0536226e-37 1.2176611e-26 -1.0274842e-23 -4.735959e-21 1.0185694e-25
3.0938435e-21 5.194792e-15 -1.6141968e-23 -3.8294832e-37 -1.0219719e-32 7.4289805e-17 -4.136521e-37 -5.6645355e-38
1.7983163e-20 -1.30721486e-23 5.0738995e-37 -6.5572865e-21 -1.295865e-16 -3.9897903e-36 6.0323843e-21 1.0931937e-17
-1.7470147e-11 -3.979647e-11 -4.4858243e-38 6.2967854e-17 2.153841e-14 -1.735547e-36 1.2405661e-29 -8.5162455e-37
3.9844233e-36 1.7388705e-13 -9.0934474e-26 5.04293e-10 3.7512093e-10 -8.668955e-15 -1.0113561e-37 8.731146e-35
1.7049796e-36 1.3240376e-37 1.4984247e-14 -2.8866123e-37 3.7397078e-25 -7.1684696e-26 2.0362234e-17 -6.351588e-26
1.0768479e-29 7.702301e-12 -5.0572193e-36 -1.6711785e-30 -1.4214703e-24 6.7486508e-21 -1.0205643e-11 -1.7334108e-36
1.2076177e-26 8.470485e-14 3.669629e-37 -2.4722165e-16 3.973918e-36 6.801269e-36 -3.5828457e-14 -8.0109756e-24
3.6871192e-10 -4.0642252e-38 -5.6912403e-38 -7.43874e-12 -1.678808e-36 2.3196409e-10 2.4733089e-12 3.8942492e-37
2.3602893e-12 -1.4735026e-25 -6.3261665e-26 -1.8552444e-36 -1.2444469e-33 3.9924162e-36 -3.546976e-10 1.2662726e-16
-2.2219617e-14 3.9756268e-36 -8.338466e-37 -3.8673646e-21 1.676982e-23 1.5706791e-14 1.7911266e-28 5.0482285e-19
-6.5099916e-19 -1.3750399e-37 7.235826e-30 1.0590849e-12 2.056063e-26 -1.1975434e-29 6.332848e-38 -6.787529e-33
-1.7415937e-35 -9.251836e-37 3.760662e-36 -4.927655e-37 3.0322108e-37 8.227026e-22 -2.5124033e-22 9.951962e-38
-1.7241795e-36 -1.9019147e-37 3.9681966e-10 -4.3760298e-10 1.5185181e-23 3.4682712e-10 -1.0844315e-36 3.4647166e-10
-1.8255369e-37 -9.782035e-12 -2.6113217e-37 -6.1685705e-37 2.2950016e-16 1.4127344e-32 -1.6277125e-25 -6.2359914e-29
-1.1105725e-30 2.6523217e-37 -1.1773061e-31 -2.3569958e-38 -1.7420441e-10 2.636346e-26 2.0919519e-20 -1.0841492e-37
6.17376e-24 8.544974e-11 1.6809671e-36 3.793112e-36 -1.1225013e-28 -1.2190475e-13 8.407975e-37 -4.812891e-37
-1.7146263e-12 8.329454e-24 1.2267449e-19 -2.0546358e-37 -8.643417e-12 -2.6120144e-22 2.8541908e-16 -3.999534e-36
-7.4664175e-38 5.889407e-11 9.84036e-32 6.4215513e-21 4.1832288e-11 1.4999668e-26 -1.6458402e-16 -1.0394864e-31
-1.7492231e-25 1.4095998e-26 -6.9892115e-38 -1.7409622e-35 1.6824575e-36 -6.1783307e-21 3.5166566e-16 -1.6912335e-36
-8.476627e-36 2.7422474e-24 -7.724788e-37 -5.007898e-36 7.1422233e-29 -4.575194e-19 4.245791e-26 -9.437599e-32

lstm.bias_ih_l0 f4 [256]
00000000: c538 a03e a7d1 c33e e0ba 763e 0027 be3e
00000010: 2a81 eb3e baf2 df3e 2d66 833e 564d 7e3e
00000020: 637e d63e caeb e93e 769d de3e 1fba 8c3e
00000030: d845 b73e cf21 b43e 44a5 cd3e 2b52 e53e
00000040: 9374 9e3e d2e6 e13e 67da b03e e3cf d03e
00000050: 0cee 8a3e fe40 ae3e 4370 ee3e 8c4d 933e
00000060: eb62 8a3e 1cd9 c13e 643e 8e3e 5a99 b33e
00000070: a852 cd3e 734e ed3e 6eb3 ba3e b278 9e3e
00000080: 85c3 de3e 5f10 ca3e 6bf6 f13e cff9 993e
00000090: ab59 863e 52f1 d83e 5ba6 b13e 811f 903e
000000a0: 9b07 e53e 3013 e03e 7572 b73e 1197 9c3e
000000b0: 5268 cb3e 4578 923e ccfd 8b3e dd8c af3e
000000c0: ad8f cb3e ac36 823e 1d81 a93e 80d3 e13e
000000d0: 479b f83e 4d36 013f ad30 d83e eac6 cf3e
000000e0: cb79 f73e 23f6 b43e 7ea5 823e 39cd e63e
000000f0: 3422 aa3e 47c9 a93e d70a 7d3e b9fd da3e
00000100: 5c06 ab84 270c a58e 1e3d 3405 b6d5 a78e
00000110: 517f 802e d795 c00e b08a 7aae 1a77 fb82
00000120: e807 e102 2077 0a24 c808 1d93 14f4 092c
00000130: a60b a113 a872 93ac 98d2 b020 f654 3119
00000140: 813b 6f19 d8d1 3430 f67d 2cae 6e5e 612c
00000150: 162b d314 3a78 3485 1eda 0d8c 765c a983
00000160: c7d4 c0a3 e8e0 f92d 2bc4 558c 6168 d1ad
00000170: 13e2 3f03 d0e3 4816 0336 ca2b b9dd 7f2e
00000180: 0a53 7d2f 11cc 0c04 d4b7 2583 3655 aeab
00000190: cd3a 8ea9 c6ab 9d83 1dbf ac28 22a3 eb24
000001a0: 4663 0faa 6e15 4b2f 10ec b6af 0197 2b30
000001b0: d999 3305 5d5a e60d 87a5 8b2d 9130 e60b
000001c0: 2bd6 9d25 de6b 1088 9c6e e61d a136 f995
000001d0: 1477 212d 85e9 3a18 74d1 1104 0026 300e
000001e0: 6512 9d0e fda5 2f85 dc55 f682 251a f282
000001f0: 6e94 1d97 ca4f 3095 5a4d 482c 24af 7d80
00000200: 0b63 e83e c23d af3e 9d33 d73e 4364 a0be
00000210: d09f aebe ece9 e63e 0c20 c2be b4e1 a83e
00000220: 05f9 dcbe a736 d2be 24ce 9cbe cd25 bb3e
00000230: d717 bebe 9350 883e a319 b93e 9c14 dc3e
00000240: 92ac db3e 1036 99be 6062 e33e 7cf5 d9be
00000250: 3c10 c33e be42 93be b94e d0be be9a d93e
00000260: eaee 8dbe 717d e03e e21b d83e 35b3 a3be
00000270: a9c4 86be 098e 94be 8234 dcbe 25d9 c13e
00000280: 1f6e b03e 0d17 a33e 06f6 dd3e aa36 813e
00000290: 7c77 d6be 9b6a bc3e 20b1 983e e21a babe
000002a0: b9b9 bc3e 03d7 df3e 3d51 dc3e ae92 8fbe
000002b0: 176d c2be b879 a53e 91b6 abbe b720 a13e
000002c0: 4018 e3be 4601 d83e 371b dbbe 8826 dbbe
000002d0: 8946 d53e 1ce6 e33e 21b3 9fbe 9017 8a3e
000002e0: 147d d83e afbf c3be 88c0 d4be 7caf ba3e
000002f0: 7685 e03e a447 b03e b142 bbbe 2d3e b7be
00000300: 807b ae3e 352f c23e ec7f 7d3e 590d f83e
00000310: 57ad ea3e 0421 ed3e cfdb e93e 40ed a13e
00000320: 0995 be3e 526a 923e 4934 803e 2c7a 9c3e
00000330: 0929 b13e 7021 4c3e f0ce ee3e 69ff 963e
00000340: 2e46 ce3e 63de 9d3e 706d d23e bf4c dd3e
00000350: 99bd 7e3e 2e40 e13e 902d dc3e 38db cb3e
00000360: a775 b53e fb76 023f bd9a c73e 3d0a f33e
00000370: 8132 e43e 00d3 833e 9802 a63e aeef d53e
00000380: 7f29 a73e 70c2 973e ef35 c63e 2291 ca3e
00000390: 5dc6 853e 52dd 043f 796f a63e 1c1e bd3e
000003a0: c3d1 933e 52f3 d03e 0a0a 013f 0806 b43e
000003b0: 949f c63e e291 893e 4a5a 833e 8f6f e43e
000003c0: 6295 883e 4cf9 c93e 904d c53e e995 ef3e
000003d0: 833f e13e 68b3 9c3e 1e95 a03e b89b c73e
000003e0: 58c2 e93e afc5 993e f1e4 873e fbed cf3e
000003f0: 6392 bb3e ea3d dc3e a657 c53e 15e9 c23e
0.31293312 0.3824589 0.24094725 0.3713913 0.45996982 0.43739873 0.2566389 0.24834189
0.418933 0.45687705 0.43479508 0.2748575 0.35795474 0.35182044 0.4016515 0.44789252
0.30948314 0.44121414 0.34541628 0.40783605 0.2713474 0.3403396 0.46570024 0.287701
0.27028593 0.37860954 0.27781975 0.35077935 0.40102124 0.46348915 0.3646502 0.30951458
0.43508545 0.39465615 0.47258314 0.300734 0.26240286 0.42371613 0.34697232 0.28149036
0.44732365 0.4376464 0.3582951 0.30584005 0.39728028 0.28607383 0.2734207 0.34287158
0.39758053 0.25432336 0.33106318 0.44106674 0.48555967 0.5047348 0.42224637 0.40581447
0.48335108 0.35344037 0.25516886 0.45078447 0.3322922 0.33161375 0.24711166 0.427717
-4.0207747e-36 -4.0687343e-30 8.474785e-36 -4.1374475e-30 5.843382e-11 4.7475945e-30 -5.6966598e-11 -3.6949496e-37
3.3065317e-37 3.0024883e-17 -1.9820515e-27 1.9604362e-12 4.06536e-27 -4.1907207e-12 2.995492e-19 9.167843e-24
1.2368027e-23 6.5781824e-10 -3.9220148e-11 3.2026842e-12 2.132255e-26 -8.4856415e-36 -1.0927882e-31 -9.954155e-37
-2.0906796e-17 2.8407901e-11 -1.6467955e-31 -2.3806903e-11 5.6389376e-37 1.6227756e-25 1.4367955e-12 5.8177217e-11
2.3039717e-10 1.6550624e-36 -4.8700166e-37 -1.2387094e-12 -6.316267e-14 -9.267068e-37 1.9178718e-14 1.0219136e-16
-1.2735394e-13 1.8470356e-10 -3.327334e-10 6.2424027e-10 8.444797e-36 1.4196599e-30 1.587598e-11 8.866585e-32
2.7380284e-16 -4.346022e-34 6.099486e-21 -1.0065649e-25 9.178231e-12 2.4157834e-24 1.7140844e-36 2.1711971e-30
3.87212e-30 -8.258948e-36 -3.6195732e-37 -3.557371e-37 -5.091678e-25 -3.560586e-26 2.8464648e-12 -1.1542266e-38
0.45388064 0.34226805 0.42031565 -0.31326494 -0.34106302 0.45100343 -0.37915075 0.32984698
-0.43158737 -0.4105732 -0.30626023 0.36552277 -0.37127563 0.26623973 0.36152372 0.42984474
0.42905098 -0.2992406 0.44410992 -0.42570102 0.38098323 -0.28761858 -0.4068506 0.4250087
-0.2772134 0.43845704 0.42208773 -0.31972662 -0.26321915 -0.29014614 -0.4300881 0.3786098
0.34459016 0.31853524 0.43351763 0.25237018 -0.41888034 0.36800084 0.29822636 -0.36348635
0.36860445 0.43718728 0.4303073 -0.28041595 -0.37973854 0.32319427 -0.33537725 0.31470272
-0.4435444 0.42188472 -0.427942 -0.42802835 0.41655377 0.44511497 -0.31191352 0.26971102
0.42282927 -0.3823218 -0.4155314 0.3646201 0.43851823 0.34429657 -0.3657432 -0.35789624
0.34078598 0.3792664 0.2475583 0.48447683 0.45835373 0.4631425 0.45675513 0.3162632
0.3722308 0.2859674 0.2503989 0.3056196 0.3460162 0.1993463 0.46642256 0.29491737
0.40287918 0.3083373 0.4109912 0.43222615 0.24877013 0.43994278 0.4300351 0.39815688
0.35441324 0.509628 0.38985243 0.4746875 0.4456978 0.25746918 0.32423854 0.41784424
0.32648847 0.29640532 0.38713023 0.39563853 0.26127902 0.5190021 0.32506922 0.36937034
0.28870973 0.4081064 0.50405943 0.3516085 0.38793623 0.26869112 0.25654823 0.44616362
0.2667647 0.3944801 0.38535738 0.4679406 0.43993768 0.30605626 0.31363767 0.3898599
0.45656085 0.30033633 0.26541856 0.40611252 0.36635122 0.43015987 0.38543433 0.38068452

lstm.bias_hh_l0 f4 [256]
00000000: 0f13 a23e 7233 b23e 9af8 8a3e a70a 9f3e
00000010: 624b fc3e 7475 a03e 27b7 b63e 2802 e23e
00000020: 2540 d53e 66ed bd3e 4a78 c93e fe33 6a3e
00000030: 9d8b 893e 6e66 c73e ad54 e83e 2f43 713e
00000040: 05c9 e63e 7e2e 913e a863 ba3e c47c bc3e
00000050: 4ff8 dd3e 905c a93e abe0 933e a30b c23e
00000060: 704c 8e3e aad0 c33e 212a a03e 1c47 d43e
00000070: dd9a c73e 927e af3e 0e96 bc3e 86eb ac3e
00000080: 33a7 cf3e 3e94 943e 72df f33e 37d2 f73e
00000090: ca07 d93e 1e66 d63e ac6d 823e 81e3 ec3e
000000a0: 6573 d73e 01f6 be3e 7123 c53e 8292 d63e
000000b0: 5098 8f3e 9cad c03e 6329 e03e 4664 e73e
000000c0: a22f ab3e 3629 d23e b43c b03e c02c b23e
000000d0: 4502 ba3e b793 ae3e e4a8 fb3e b65d b03e
000000e0: fd5d fc3e 4756 bd3e d9d7 ad3e b511 053f
000000f0: ece2 a43e 98ea e43e 13a8 ba3e eb70 e63e
00000100: e8ab da20 9694 5394 e169 0e30 0e5f 3e9b
00000110: a224 ac04 19d9 9c24 33d2 c087 d0f6 258c
00000120: 7342 d02e 2d21 4a07 8f4d c71d a31c 018c
00000130: 5039 6096 819c 978f 801b a38d 5bf4 e9ad
00000140: 291c 5f9c 2859 aa04 0ae2 1284 cd27 1384
00000150: 616e ee82 80cb 8a98 2ccf 1e0f bd63 d92e
00000160: f060 418a beb0 b78d 661f 6803 9a32 4d2a
00000170: 821a fd0d 9cc6 6b25 4ee6 cb93 2186 1104
00000180: 2252 732b cfbd 9018 299a c79f 35ee f882
00000190: 06f6 2904 f55a 1a8c 5a7d 9f9d c6c5 a302
000001a0: 2f1f d69c 61c8 7982 a594 8403 b2d1 692d
000001b0: bab0 2a83 1dae d712 f98c 298c d009 4927
000001c0: 6471 ae20 de8d a884 cf68 f7a3 0f96 6a03
000001d0: 9a86 d602 91df a503 fec2 bf90 d65d 0430
000001e0: 9fd3 b488 02ab 5c25 e2f4 a2a8 4414 410c
000001f0: 95cd d42e c55e e5a1 4c71 039e 5f78 962f
00000200: e3d2 9a3e ed33 b53e a565 d93e 65e8 edbe
00000210: 9491 e1be d29b e63e 1c1d 89be 5c9c b73e
00000220: 42e5 b4be 55a4 c7be c89a e6be af7e bc3e
00000230: 207b 97be ddf8 933e 336d bb3e 8d57 b13e
00000240: 2242 a73e 5cec e7be b6e0 b03e 4a0d b2be
00000250: ba40 be3e 519e f9be 5181 bfbe f6e3 6f3e
00000260: 0f8b b2be b4cf 963e 013c d63e ba45 e1be
00000270: 4359 dcbe a43d e0be c6b5 9dbe 015d dc3e
00000280: d54e 8a3e 9126 e33e 03f9 923e 0022 ca3e
00000290: 0607 e0be c510 f33e a9b0 dc3e fa4d bfbe
000002a0: dd05 cc3e d08c c03e 5f57 a93e c264 d2be
000002b0: d5b9 cebe 582f d13e 54de c5be b853 d23e
000002c0: a92c a9be 6572 e23e 3619 92be c8dd b0be
000002d0: 3f3f c43e 156e bc3e 0803 e4be 49e2 b43e
000002e0: c0c8 983e 84e2 d1be ae6a a6be 1419 dd3e
000002f0: 73ea 6d3e d458 d53e 71a7 aebe 582e b9be
00000300: 42d2 f53e 4d9b 9f3e 1363 8b3e 64d0 a63e
00000310: 5b18 af3e 7693 fd3e a62b 803e 9fb9 c63e
00000320: c70b d63e 74fb 6e3e 33a8 bb3e ea5d c63e
00000330: a68d d23e 7676 8d3e 2b52 b23e c761 b73e
00000340: ce10 b83e a5fa ff3e c5d1 f73e fc51 b43e
00000350: 383e ef3e 6658 8f3e ec63 8b3e ed3a 5d3e
00000360: 8806 6e3e 61e1 cd3e 59cd cc3e 0d75 b43e
00000370: fda7 c53e 0ffa 923e c04a d43e c2f4 a53e
00000380: 97c2 c63e 406d d93e d1e6 b43e 9fc4 a33e
00000390: 2240 e23e cdda c33e e1ac 9f3e ff59 e53e
000003a0: 3aaa ad3e 6488 893e 7bd8 943e 4b9b 903e
000003b0: 7ae4 dc3e da50 c13e c7c2 cf3e ffa4 a23e
000003c0: 65c1 c93e 8a71 e83e 66aa 8c3e 0f55 f23e
000003d0: 95ef f33e 0253 e43e d9a3 c83e 755d e03e
000003e0: e3c0 9b3e 6faa c83e 170e a93e 6527 bb3e
000003f0: a65c 803e 9482 ef3e b7ba d03e 639e 033f
0.31655166 0.34804875 0.27142793 0.31062815 0.49276263 0.3133961 0.3568661 0.4414227
0.416505 0.37095183 0.39349586 0.22871396 0.2686433 0.38945335 0.45377102 0.23560785
0.4507524 0.28355783 0.36404157 0.3681394 0.43353507 0.33078432 0.28882346 0.37899503
0.27792692 0.38245136 0.31282142 0.41460502 0.3898534 0.34276253 0.36833233 0.3377344
0.4055725 0.2901935 0.47631413 0.4840257 0.42388755 0.41874784 0.25474298 0.46267322
0.42080227 0.3729706 0.38503602 0.41908652 0.28045893 0.37632453 0.43781576 0.4519369
0.33434778 0.41047066 0.34421313 0.34799767 0.36329857 0.34097072 0.4915229 0.34446496
0.49290457 0.36979887 0.3395374 0.51980144 0.32204378 0.4471023 0.36456355 0.45008025
3.7044395e-19 -1.0682081e-26 5.180976e-10 -1.5747145e-22 4.0470648e-36 6.802199e-17 -2.9012493e-34 -1.278541e-31
9.4705487e-11 1.520654e-34 5.2755055e-21 -9.946416e-32 -1.811266e-25 -1.4950033e-29 -1.0052271e-30 -2.6597549e-11
-7.3820907e-22 4.0048685e-36 -1.726601e-36 -1.7298043e-36 -3.5034311e-37 -3.5877646e-24 7.829901e-30 9.8857346e-11
-9.310844e-33 -1.1320795e-30 6.8214716e-37 1.8225214e-13 1.559871e-30 2.0450292e-16 -5.1471502e-27 1.7106257e-36
8.6444925e-13 3.7414785e-24 -8.4534815e-20 -3.657705e-37 1.9978823e-36 -1.18911e-31 -4.221656e-21 2.4064214e-37
-1.4169393e-21 -1.8351137e-37 7.79239e-37 1.3291078e-11 -5.016138e-37 1.361133e-27 -1.3061709e-31 2.7899673e-15
2.9551782e-19 -3.9626895e-36 -2.6824182e-17 6.893868e-37 3.1521731e-37 9.749157e-37 -7.563665e-29 4.815467e-10
-1.0883108e-33 1.9139898e-16 -1.8091814e-14 1.4874278e-31 9.6771625e-11 -1.5542729e-18 -6.9585115e-21 2.737037e-10
0.3023902 0.3539118 0.4246036 -0.46466365 -0.4405638 0.45040756 -0.2678002 0.3586148
-0.3533116 -0.38992563 -0.45039964 0.36815402 -0.29586124 0.28900805 0.3660675 0.34637108
0.32667643 -0.45297515 0.3454644 -0.34775764 0.37158757 -0.48753598 -0.37403348 0.23426804
-0.34871718 0.2945534 0.41842654 -0.4399851 -0.4303685 -0.43797028 -0.30802745 0.43039706
0.2701327 0.4436536 0.28705606 0.39479065 -0.43755358 0.47473732 0.4310353 -0.3736418
0.39848223 0.3760743 0.3307447 -0.41092497 -0.40376154 0.40856433 -0.38646185 0.41079497
-0.33041885 0.442279 -0.2853486 -0.34544206 0.38329503 0.36802736 -0.44533563 0.35328892
0.2984066 -0.4099313 -0.32503265 0.43183196 0.23233967 0.41669333 -0.34112123 -0.3616817
0.48011976 0.31173173 0.27224025 0.32580864 0.3419827 0.49526566 0.250333 0.38813493
0.4180586 0.23338109 0.36651763 0.38743526 0.41123694 0.2762944 0.34828314 0.35816786
0.3595032 0.49995914 0.4840223 0.352188 0.46727157 0.2799713 0.27224672 0.2160451
0.23244679 0.40211013 0.40000418 0.35245553 0.38604727 0.28706405 0.4146328 0.32413298
0.38820335 0.42466164 0.3533235 0.31985947 0.44189554 0.3825287 0.31186584 0.44795224
0.33918935 0.2686187 0.29071411 0.2824348 0.43143064 0.37756997 0.4057829 0.31766507
0.3940536 0.45399123 0.27473754 0.4733052 0.47643724 0.4459458 0.39187506 0.43821302
0.30420598 0.3919253 0.33018562 0.36553493 0.25070685 0.4677931 0.40767452 0.51413554

lstm.weight_ih_l1 f4 [256, 64]
00000000: 377a b13e 27c8 d73e 7c53 b33e 77d0 d4be
00000010: 5c46 a7be f2f0 8b3e 49c6 7ebe 02a1 843e
00000020: 16ac 6abe 0704 c6be f758 9fbe 42b6 943e
00000030: 9981 3abe 29ac 8e3e 4c30 913e af60 2b3e
00000040: a1f3 8b3e 6a88 49be a2fe 4d3e 8fe2 ccbe
00000050: 925b c53e 16d6 d2be 0dd6 d0be 8087 5d3e
00000060: 8bb7 c7be 3582 8c3e 4303 6d3e f72e d7be
00000070: 8bfd abbe 8f09 8cbe 1af9 9bbe 7e16 dd3e
00000080: 195d b13e 11e3 7a3e 880d 283e dd02 b83e
00000090: c442 35be 2a3c a03e 1456 983e 74c6 b5be
000000a0: a826 c83e ee57 6e3e e866 e03e 68dc 4ebe
000000b0: 5bcf dabe 3804 a43e f411 64be 6a54 8f3e
000000c0: 117e e2be f2b4 913e 2fdf 9cbe 9e82 c2be
000000d0: ce18 7d3e c0fc 8e3e 3803 cbbe 1c1a be3e
000000e0: ec12 b43e d181 adbe 7327 43be 918d c83e
000000f0: 4e30 6e3e eadb b63e beb0 95be 503f edbe
00000100: cc6b 943e 5c80 a63e 11d3 193e d199 b3be
00000110: 0846 cfbe dc55 713e 1bfe 95be 4f52 b83e
00000120: 9ab7 d2be 3ba5 cabe 6704 99be 4bb7 d43e
00000130: 523e a8be 540c a43e 181c c93e 705c 123e
00000140: d090 c63e 1c57 adbe 8083 923e 228c a3be
00000150: f36d c23e e989 46be 9307 a3be deaf 193e
00000160: ffeb b7be 47d6 d83e 3b86 bb3e aef0 52be
00000170: 5d42 96be 5c48 94be 1907 f4be 8881 8e3e
00000180: 2164 be3e 941f 883e 734e 743e b992 ad3e
00000190: 8bb0 68be 8da8 1f3e 807a 443e b1c6 98be
000001a0: 149b 9b3e fc59 a23e 9acb d13e b0b0 d1be
000001b0: 34a3 36be 9690 d03e facb 3abe a888 783e
000001c0: 21c8 f2be 3e2d 723e 38b3 bdbe bd54 83be
000001d0: f234 313e 306c 943e 7ba7 acbe 97c5 b83e
000001e0: ee49 c43e b06f 76be 3129 adbe f605 633e
000001f0: 03fa c83e 0ba3 db3e 26a0 64be bd64 cabe
00000200: 5368 903e 8b33 813e dba4 913e ee47 6bbe
00000210: 8821 aabe 4a86 353e e935 bbbe d266 3a3e
00000220: e750 dbbe e9c5 aebe bf80 a0be 54c5 d13e
00000230: e871 79be ba0b 873e 1593 433e b3ef bf3e
00000240: d4d4 ce3e 7adc aabe 4ff0 8e3e e975 b4be
00000250: e8bd eb3e 1201 cfbe bb96 b6be f53e 593e
00000260: b1db a9be ea16 963e cfae 7d3e b36b 91be
00000270: a474 b5be 80c0 87be 48c8 93be 3307 a93e
00000280: fe5b cc3e 633c ba3e 063f 423e 17b3 d53e
00000290: 3f8d d2be 64a4 bc3e a7d5 753e 2a26 b7be
000002a0: af41 bd3e 5005 c63e 039b 683e 8546 98be
000002b0: 9d86 83be 47de 9d3e e358 84be 05e0 2e3e
000002c0: f705 d2be a461 a93e d0e9 74be 4455 8ebe
000002d0: 6363 643e db73 893e e54a 45be 1129 a43e
000002e0: 4e11 993e d84b d7be 42b7 96be fe3e ce3e
000002f0: 5fb7 5c3e 18d7 c23e 570b 7ebe b4f7 70be
00000300: 7cf7 7d3e 0db4 c03e b238 873e bb21 9bbe
00000310: c34f 74be 8d37 8b3e 3e6f 24be 4090 a83e
00000320: 373c afbe 1026 66be 9c0a 89be 4be1 c93e
00000330: 7009 adbe bef9 a73e 0cff c43e 6ad5 933e
00000340: b323 5d3e c874 afbe e1d0 be3e ee2c 94be
00000350: 0820 bc3e 1d1e 47be 8566 91be 32d0 c43e
00000360: 7e16 97be 17ca 3c3e 602e 953e 9fd0 a9be
00000370: b54a b8be e58d 9bbe 58bb b8be fc2e 473e
00000380: b2e8 df3e 1239 c03e ec70 353e fa6e 8f3e
00000390: 6d1e a9be 0655 493e a9c0 903e d6d0 aebe
000003a0: d71a c13e 5edc bf3e ed6b c43e e14a bfbe
000003b0: 1f3d afbe 631b bf3e 547b 5fbe 9837 943e
000003c0: 1687 b4be 9b7b 903e d1d6 6abe 1638 cebe
000003d0: 2d7f a43e 2e0a 5d3e ae0e bdbe 1c38 c53e
000003e0: 9543 8e3e 81e0 b5be 2d1e 21be f773 883e
000003f0: c0b3 a53e ddef a93e 2458 a9be 1288 e1be
0.34663555 0.42144892 0.3502463 -0.41565296 -0.32670867 0.27332264 -0.24880327 0.2590409
-0.22917208 -0.38674948 -0.31122562 0.29045302 -0.182135 0.27865723 0.2835716 0.167361
0.27334312 -0.19680944 0.20116666 -0.400166 0.38546425 -0.4117896 -0.40788308 0.2163372
-0.3900722 0.2744309 0.23145775 -0.4202802 -0.33591875 -0.27351043 -0.30463487 0.43181223
0.3464134 0.24500681 0.16411412 0.35939685 -0.1770125 0.31295902 0.29753172 -0.3550297
0.39091992 0.2327573 0.4382851 -0.20201266 -0.42736325 0.3203447 -0.22272474 0.2799409
-0.44236806 0.28458363 -0.30639026 -0.37990278 0.24716493 0.27927208 -0.39650893 0.37129295
0.35170686 -0.33888105 -0.19058017 0.39170507 0.23260614 0.35714656 -0.29236406 -0.46337366
0.28988492 0.32519805 0.15021922 -0.3507829 -0.40483117 0.23567909 -0.2929543 0.36000296
-0.41155702 -0.39579186 -0.2988617 0.4154609 -0.32860047 0.32040656 0.39279246 0.14293075
0.38782358 -0.33855522 0.28615952 -0.3194285 0.3797451 -0.19388546 -0.31841716 0.15008494
-0.35922238 0.4235098 0.36625847 -0.20599625 -0.29347506 -0.28961456 -0.47661665 0.278332
0.37185767 0.26586592 0.23858051 0.33901003 -0.22723596 0.15591641 0.19187355 -0.2983909
0.30391753 0.31709278 0.40975648 -0.40955114 -0.17835695 0.4073531 -0.18241873 0.2427088
-0.4741831 0.23650071 -0.37050796 -0.25650588 0.17305353 0.2898879 -0.33721527 0.3608825
0.38337654 -0.24066043 -0.3382049 0.22170243 0.39253244 0.4289783 -0.22326717 -0.39529982
0.28204593 0.25234637 0.28446087 -0.22976658 -0.33228707 0.17727008 -0.36564568 0.18203285
-0.4283516 -0.34135368 -0.31348225 0.40970862 -0.24359858 0.26376134 0.19099076 0.37487563
0.4039675 -0.33371335 0.27917716 -0.35246208 0.46043324 -0.40430504 -0.35661873 0.21215422
-0.33175424 0.29314357 0.24773715 -0.2840248 -0.35440552 -0.26514053 -0.2886374 0.33013305
0.39913934 0.36374196 0.18969354 0.41738197 -0.41123387 0.3684417 0.24007283 -0.35771304
0.36964175 0.38675928 0.22715382 -0.29741302 -0.2568864 0.30833647 -0.25849065 0.17077644
-0.41020176 0.33082306 -0.23917317 -0.27799428 0.22303538 0.26846203 -0.19266851 0.3206258
0.29896015 -0.42050052 -0.2943669 0.40282434 0.21554326 0.38054729 -0.24809013 -0.23531991
0.24801439 0.37637368 0.26410443 -0.30299172 -0.23858552 0.2719082 -0.1605806 0.32922554
-0.34225628 -0.22475457 -0.26765907 0.39429697 -0.33796263 0.32807726 0.38475835 0.2887376
0.2159565 -0.34268785 0.37268737 -0.2894053 0.36743188 -0.19445081 -0.2839853 0.3844009
-0.29509348 0.18436466 0.29136944 -0.33166978 -0.35994497 -0.30381694 -0.36080432 0.19451517
0.4373222 0.3754354 0.17718858 0.28014356 -0.33031026 0.1966134 0.28271988 -0.34143704
0.3771579 0.37472814 0.3836359 -0.37361816 -0.3422632 0.37325582 -0.2182439 0.28948665
-0.35259312 0.28219303 -0.22933508 -0.40277165 0.32128277 0.21585914 -0.36925262 0.3851937
0.27785936 -0.35522845 -0.15734167 0.26650974 0.323637 0.33190814 -0.33075058 -0.44049126

lstm.weight_hh_l1 f4 [256, 64]
00000000: a26a a884 982e 8a02 4ae2 002d 4ba3 52ab
00000010: 729f 320c 6091 e3a7 744b 3802 a0ac 8825
00000020: c882 4a80 d324 6f23 e6d4 b11a 1b43 1384
00000030: 34aa 152b ee6a 1684 56f7 1e9d c2fc 3bae
00000040: 781a 7793 3383 7d98 c1a9 a71c 2a34 a984
00000050: bbbd d81d c96b 10a7 d77b 382e c2fc 1384
00000060: 4717 ab04 cdfc 228c f80a 3d02 48ba 0f04
00000070: 44ce 1499 89c8 8d19 61d7 c302 3c71 0003
00000080: 433c 300c 89b5 061e 2d7a 4386 2bdc 8610
00000090: a065 2080 e445 bb92 7025 e782 0e67 2d11
000000a0: c997 8a03 acfa 170e f993 0f84 5e39 7d8f
000000b0: fd1a 10a8 d252 a8a8 600f 4b11 5e76 a502
000000c0: bb86 bf25 064e 2927 b70a 848d 2774 9222
000000d0: c718 060e f429 fb02 5dbf 38af a77e c79e
000000e0: dba8 9b04 91d6 ebad 2a6e e2a5 4f9f 92ac
000000f0: 41a5 6cad ed4b 029e c77b 3502 6b3c 2196
00000100: 680b 15b0 8af3 8803 4213 e8ae b0a0 892e
00000110: 9dad 6615 c249 b382 11a3 8a8a f4c1 5e25
00000120: 9cbc 3d28 dab8 a105 a141 2fac d1be 3485
00000130: b112 6199 fbe1 6b29 3d06 3603 aee5 9503
00000140: 6ac5 63a1 0ae4 e22d 4488 4883 3016 1b83
00000150: 4031 a984 ca4f 4aa3 74e1 e7a9 228b 0728
00000160: 0a8e 1483 cbfd 7782 69de 9215 ea79 af25
00000170: bc2e 8601 c7d0 8903 121b 1584 209d c8aa
00000180: bef0 cd8e 413e f902 5a31 1204 78f5 8726
00000190: 860f fa01 fddb e60e 3465 0c0f dc30 1aa3
000001a0: 2c46 97af 15a6 892e 6dd3 3514 7ea7 7e8b
000001b0: d98b d9ab a38e 6016 ae74 2aa7 9c5b 3485
000001c0: 0ed4 1284 1dcc a904 3cb6 0d84 4386 a119
000001d0: 0a41 8f0f fac3 1004 b871 f40b 29ca 77ab
000001e0: a555 652b 7539 f406 5eb0 991d cb03 7f8d
000001f0: dd10 5d16 7a87 04ab 974d dd29 0a48 6ea9
00000200: 2c8e 242c de35 8aac d5f7 7aad 3dcf b805
00000210: 1cb6 2819 479b 3485 efe1 8287 5d66 07a2
00000220: 51cb 4d2d 3f22 e707 7211 0a03 c762 1304
00000230: e01a 140e 9ec2 c11d cf94 1308 a898 73ae
00000240: 63a1 92a9 a7dc 250d fbcf 2083 d5f1 0208
00000250: 67b4 9603 e35d 0c2b de3f 4e16 2454 fc1d
00000260: fa17 0e03 7d1d 1404 4403 ff99 9f78 ab84
00000270: 78ab 9a95 a5e6 0e04 c3d9 ef0b 54bd 8c82
00000280: 8cef 9299 a618 c38d 7958 8382 442d 6499
00000290: 5164 ec98 b0f7 e682 7bf0 71ab 6490 fa02
000002a0: f195 cf25 cfef 439e caaf 1a01 9c94 8183
000002b0: 07d4 0888 84f7 4614 5c87 27a9 5054 a023
000002c0: 6a83 1f24 a83f 1603 8b18 7603 10f6 6924
000002d0: e397 33ac f30f fe14 8f0b 4f2d e961 3682
000002e0: a438 cd27 50e4 3b87 cbbf ee8e 52fa fd0d
000002f0: 1bd3 9b2b 4e36 2bb0 20aa 16ae 1931 002f
00000300: fc8c 8601 463c 2228 20df c11e c0a8 aa04
00000310: ca83 720b 35a7 25a7 d312 0e2d 6d81 3305
00000320: 9ad3 b002 6823 450f 0776 86a7 42a4 fe02
00000330: f6bf 041e 8399 002c caf1 159f fb55 8304
00000340: be25 aa04 3a48 8a01 8af6 aca7 1e3a 012e
00000350: 2ec7 1184 fbaa bb9d caf6 39aa e2c9 83af
00000360: 3eb4 96ad f865 f018 2a8a 1b02 60ac 9125
00000370: 2444 0d87 e52c a984 6534 b905 2043 3ea9
00000380: 4574 cd18 194d 0f84 7265 0718 47ee 0703
00000390: 9688 5a96 e801 0a29 cf94 c423 3099 d598
000003a0: 49fd eeaa 7773 2c2a d173 e703 df8a e5aa
000003b0: 5fab 7298 8c2a be9d f51c 1e11 60a6 8582
000003c0: 7936 a984 dfc3 110c c90d ac02 bdfa c61d
000003d0: 1a18 1203 3aae a38e d3b0 c10e 426d 8d03
000003e0: adbb 040f dcc9 fd18 3a06 aa04 f7e5 9803
000003f0: 2b96 b383 9237 e2a5 fbc4 e78e 621f 2424
-3.9594537e-36 2.030402e-37 7.326204e-12 -7.48336e-13 1.3760603e-31 -6.3162773e-15 1.3539839e-37 2.3709215e-16
-6.842742e-39 1.2964014e-17 7.354944e-23 -1.731058e-36 5.317164e-13 -1.7681515e-36 -2.1038996e-21 -4.274337e-11
-3.1188833e-27 -3.2765722e-24 1.1095013e-21 -3.9779614e-36 5.73709e-21 -2.0042445e-15 4.1946748e-11 -1.7395828e-36
4.0223284e-36 -1.25561e-31 1.3888675e-37 1.6895105e-36 -7.693076e-24 1.4660054e-23 2.8776296e-37 3.7745806e-37
1.3576681e-31 7.1314415e-21 -3.6765184e-35 5.3192903e-29 -2.975192e-39 -1.18185885e-27 -3.3963887e-37 1.367905e-28
8.145759e-37 1.8732881e-30 -1.6877515e-36 -1.24849116e-29 -7.999458e-15 -1.8687664e-14 1.6018614e-28 2.431251e-37
3.3224515e-16 2.3495758e-15 -8.137708e-31 3.969636e-18 1.6528705e-30 3.6905215e-37 -1.6802688e-10 -2.1122327e-20
3.6595394e-36 -2.6811693e-11 -3.92794e-16 -4.1672564e-12 -1.3451741e-11 -6.897844e-21 1.3333302e-37 -1.3024541e-25
-5.4222093e-10 8.049275e-37 -1.05535594e-10 6.2585825e-11 4.6585087e-26 -2.634402e-37 -1.3350255e-32 1.9321144e-16
1.0532506e-14 1.5208271e-35 -2.4905427e-12 -8.498607e-36 -1.1636002e-23 5.237649e-14 5.3492154e-37 8.810165e-37
-7.7171867e-19 2.5794495e-11 -5.8931143e-37 -4.5575876e-37 -3.9776938e-36 -1.0967338e-17 -1.02975706e-13 7.524175e-15
-4.3656344e-37 -1.8219529e-37 5.931983e-26 3.0440273e-16 4.9290886e-38 8.100069e-37 -1.7527296e-36 -3.5636164e-13
-5.0768228e-30 3.6622994e-37 1.7184879e-36 9.434041e-16 9.185777e-38 5.691122e-30 6.922024e-30 -8.358703e-18
-2.75166e-10 6.259541e-11 9.179861e-27 -4.9044628e-32 -1.5457593e-12 1.8139584e-25 -2.3655491e-15 -8.480385e-36
-1.7259588e-36 3.9919158e-36 -1.6658148e-36 1.6701238e-23 1.4125941e-29 1.7017107e-36 9.4156486e-32 -8.803258e-13
8.1476e-13 9.1867024e-35 4.0681122e-21 -7.8582507e-31 1.7857559e-25 -4.708383e-13 9.827831e-14 -5.29091e-14
2.3384723e-12 -3.9281764e-12 -1.42658845e-11 1.7379404e-35 8.722173e-24 -8.492079e-36 -1.9693018e-34 -1.8350102e-18
1.1698046e-11 3.4777145e-34 4.057458e-37 1.7325123e-36 1.8255348e-30 5.1287904e-21 4.4411127e-34 -5.538739e-11
-6.5116986e-14 5.111015e-31 -4.7258524e-37 3.9404724e-34 8.857626e-37 4.9868285e-13 1.66607e-25 6.6790844e-21
4.1757573e-37 1.7410857e-36 -2.6367701e-23 -4.031268e-36 -6.2470635e-26 1.6797927e-36 9.23871e-32 -2.067982e-37
-1.5192798e-23 -1.2023737e-30 -1.92995e-37 -1.1796465e-23 -6.1105864e-24 -3.3937628e-37 -8.5954133e-13 3.6817075e-37
3.601038e-16 -1.0372805e-20 2.8411455e-38 -7.616058e-37 -4.117525e-34 1.0045259e-26 -3.7198855e-14 1.7382942e-17
3.458894e-17 4.415411e-37 7.2321077e-37 5.0732244e-17 -2.5521744e-12 2.5653737e-26 1.1769154e-11 -1.3399347e-37
5.696034e-15 -1.4135411e-34 -5.885622e-30 1.5652591e-30 1.1072006e-12 -6.228661e-10 -3.4257153e-11 1.1658975e-10
4.942613e-38 9.005876e-15 2.0526952e-20 4.012178e-36 4.6706652e-32 -2.2988993e-15 8.075945e-12 8.440311e-36
2.598233e-37 9.719669e-30 -3.7320437e-15 3.7416225e-37 7.0277184e-21 1.827511e-12 -3.175198e-20 3.0876913e-36
4.000147e-36 5.0796834e-38 -4.800689e-15 2.9382823e-11 -1.7136127e-36 -4.9675278e-21 -1.6516923e-13 -2.3972208e-10
-1.713307e-11 6.214151e-24 1.1427253e-37 2.5270296e-16 -1.0627686e-34 -3.9772938e-36 1.7416563e-35 -4.2246697e-14
5.310866e-24 -1.684497e-36 1.7499558e-24 3.9946463e-37 -1.7652999e-25 3.064381e-14 2.1313385e-17 -5.521389e-24
-4.2453045e-13 1.5316729e-13 1.360355e-36 -4.0774933e-13 -3.1364287e-24 -5.0336574e-21 1.2472925e-28 -1.9638088e-37
-3.9781734e-36 1.1229336e-31 2.528104e-37 5.266942e-21 4.293321e-37 -4.0350376e-30 4.774845e-30 8.3123195e-37
6.5442475e-30 6.5602793e-24 3.9972526e-36 8.986554e-37 -1.0555151e-36 -3.9242406e-16 -5.7135582e-30 3.5588414e-17

lstm.bias_ih_l1 f4 [256]
00000000: 21b3 bf3e d221 a73e 3cba b93e d4c7 a23e
00000010: 33d5 603e 73ed bc3e 1bc4 833e 01ad 333e
00000020: be63 953e 71ce 8c3e 26c0 b23e 27e6 953e
00000030: 815e 9e3e a5b9 a63e e6a6 7f3e b3d6 ca3e
00000040: dce9 cd3e 76d5 943e ff70 2b3e 7530 ba3e
00000050: 2a9a b73e 88f6 5a3e fd65 d23e ab32 5e3e
00000060: c7cc db3e 24f7 333e acf7 b63e 1be3 953e
00000070: 7a49 863e 9cf2 5a3e 2f95 933e 0fb7 6a3e
00000080: f6b4 863e 3d08 d03e 8086 1a3e a528 823e
00000090: fefc c33e 2cb1 ae3e 5044 3e3e 7033 d23e
000000a0: f510 b43e bd8e ac3e a561 5f3e b8ee 9f3e
000000b0: 2c73 6d3e e535 793e 31f6 ad3e 5c45 bc3e
000000c0: 4d09 c63e d5db a63e 2f7d 4b3e eb01 893e
000000d0: 9577 d33e f530 9f3e 1de0 8c3e 746b a03e
000000e0: 7452 be3e a9c2 bd3e 0dcf c93e f4de 183e
000000f0: 06e7 ba3e 7dbf 4a3e f7ef 493e 3415 663e
00000100: 126d c407 792a b6a7 bdc9 9910 42d3 9caf
00000110: 162b 032e 86bd 058c 6401 c494 6491 3325
00000120: cd51 2a30 7973 7182 c8ca e91c d816 0608
00000130: 97f4 e195 d0c4 2402 fc68 4a82 adbc a904
00000140: 7a28 662e 19fe f42e bea1 ebaa 9f97 1aaa
00000150: be3d 7f2d 55f8 228f 457f 2b14 421c 6b23
00000160: 0532 5894 a0da e7af 0c11 2016 b078 3100
00000170: 190a c782 15bf 829e fef8 c02d 4c0f 4328
00000180: 8b9c a594 12de 9788 bd8c d4a4 1e03 a783
00000190: eff9 432d 3b9b 992f c229 3513 709d be97
000001a0: 0b37 ae2f 807e c79e fa0f 52ae 97ce 73a7
000001b0: f8e5 d925 8bb2 b415 c780 a682 0fd4 0e84
000001c0: ca90 bd82 5c5d 8283 2db9 1795 ddd9 8f83
000001d0: b175 8cac f244 fcaa fcbf 0c8f 0101 2405
000001e0: b212 d783 95ac 1903 00dd 8783 6b19 ef02
000001f0: d6c0 7417 31aa 3682 c37c 0122 9108 b502
00000200: 9d59 893e 7444 8bbd 951a 4fbe 23a7 353e
00000210: b6df 79be 6e0b a0bd 87e3 913e eaf8 e2bd
00000220: 1389 05be 6cfc 7bbe e149 923e f5b5 edbd
00000230: 2ba9 753e 51c0 66be dd66 4abe 19cc 733e
00000240: 1896 203e 2397 b53d 9342 01be afe5 ed3d
00000250: 76a6 3c3e e4a1 963e 1c06 1f3e 5d95 5e3e
00000260: d080 223e 53f8 9abd 63c5 7e3e f029 2e3e
00000270: 15ed 803e ef27 24be eb2c 8b3e b83c 07be
00000280: 0098 903e 0d5c 373e 19ae 3e3e 9978 0abe
00000290: aeba 50bd 72d1 363e a7ca 823e 489e ebbd
000002a0: f393 b8bd bac0 44bd 5187 c9bd 0f9f 283e
000002b0: 4db9 0f3e 55e3 aabd a749 f5bd 5f78 90bd
000002c0: f5c6 8f3d 7668 06be 0d98 843e cc2a 353e
000002d0: d934 b4bd c827 f7bd f42b 3d3e c824 273e
000002e0: d6bc 1e3e a375 6abe ebd3 61be cb25 233d
000002f0: 8caf b1bd 5849 81be b150 7dbd bc36 3a3e
00000300: 5e10 3c3e 7efe 443e 36fd 633e 65a2 cc3e
00000310: ad22 663e 0977 9c3e 409a a03e e837 893e
00000320: 9435 bf3e 75d3 9d3e 7a2f 463e 6bf9 883e
00000330: 3c28 9e3e 7a02 813e db0d 443e e393 bd3e
00000340: 221a a53e 0a3b 903e 929f d43e 5dac 563e
00000350: 1fbc 743e 64df 8b3e 2d38 b13e 2ec3 4f3e
00000360: 1073 c93e 3ea3 383e 392d 853e 4113 443e
00000370: 8152 d03e 7f51 ab3e 5579 b13e 8b77 a43e
00000380: 7721 e53e 2578 8e3e 0b34 273e 2ee6 4d3e
00000390: 94bf c13e fb56 9c3e b580 e13e 27d2 b43e
000003a0: 4293 9e3e 6bc1 da3e fcd1 cd3e 2736 a03e
000003b0: 774a b03e b2d7 9c3e b55b af3e 6d05 d83e
000003c0: 0aaf 863e 6da9 af3e b721 4a3e 9a2a 7b3e
000003d0: 9eec aa3e f468 7d3e a500 6e3e b610 d43e
000003e0: 5009 bb3e 56e6 8a3e b2f7 a33e 73d9 7a3e
000003f0: abbb 6d3e d017 cb3e 699f be3e 720d b13e
0.37441352 0.3264299 0.36274898 0.31793082 0.21956329 0.3689991 0.25735554 0.17546465
0.2917766 0.27501252 0.34912223 0.29277155 0.30931476 0.3256351 0.2496601 0.39616928
0.40217483 0.29069108 0.16742323 0.36365095 0.35859805 0.21383107 0.41093436 0.21699016
0.4292967 0.17574745 0.35735834 0.2927483 0.26227933 0.2138161 0.28824756 0.22921394
0.26309937 0.40631285 0.1509037 0.25421634 0.38278955 0.34119546 0.18580747 0.4105487
0.35169187 0.3370265 0.21814592 0.31236815 0.23188466 0.24336965 0.33976892 0.36771667
0.3867897 0.32589594 0.19871973 0.26759276 0.4130217 0.3109204 0.27514735 0.3133198
0.37172282 0.37062576 0.3941578 0.149288 0.36504382 0.1979961 0.19720446 0.22469026
2.9554908e-34 -5.0561197e-15 6.0658686e-29 -2.8526342e-10 2.982422e-11 -1.030298e-31 -1.9791491e-26 1.5575035e-16
6.1961886e-10 -1.7739023e-37 1.5471064e-21 4.035101e-34 -9.126267e-26 1.21053e-37 -1.4870745e-37 3.990498e-36
5.2331896e-11 1.1140972e-10 -4.1856617e-13 -1.3730552e-13 1.4508781e-11 -8.035044e-30 8.658393e-27 1.2745359e-17
-1.0915078e-26 -4.2173998e-10 1.2930076e-25 4.543234e-39 -2.9246218e-37 -1.3843315e-20 2.1938448e-11 1.08279915e-14
-1.6722488e-26 -9.14019e-34 -9.2178764e-17 -9.8160935e-37 1.1139963e-11 2.7940836e-10 2.2866e-27 -1.2318205e-24
3.1689526e-10 -2.1122264e-20 -4.7762662e-11 -3.3835017e-15 3.7799332e-16 7.298311e-26 -2.4465422e-37 -1.6789392e-36
-2.785416e-37 -7.6621475e-37 -3.0640285e-26 -8.454804e-37 -3.9921057e-12 -4.4812033e-13 -6.939508e-30 7.711427e-36
-1.26408565e-36 4.5160773e-37 -7.985326e-37 3.5132483e-37 7.9084045e-25 -1.3420091e-37 1.7548808e-18 2.6600477e-37
0.26826182 -0.06800166 -0.20224984 0.17739539 -0.24401745 -0.0781468 0.28493902 -0.11082633
-0.13040571 -0.2460801 0.2857199 -0.11606971 0.23990314 -0.225343 -0.19765802 0.23808326
0.15682256 0.08866718 -0.12623052 0.11616074 0.18422875 0.29420388 0.15529674 0.21736665
0.1586945 -0.07566895 0.24879985 0.17008185 0.2518088 -0.16030858 0.27182707 -0.13206756
0.28240967 0.17906208 0.186211 -0.13522567 -0.05095928 0.17853335 0.25545236 -0.11504799
-0.09012594 -0.04803536 -0.09840263 0.16466926 0.1403553 -0.083441414 -0.11976939 -0.07054209
0.0702037 -0.13125786 0.25897256 0.17692107 -0.087991424 -0.120681345 0.18473798 0.16322625
0.15501723 -0.22896437 -0.22053497 0.039830964 -0.08676061 -0.2525127 -0.06184453 0.18184942
0.18365619 0.19237706 0.22264561 0.39967647 0.22474165 0.30559567 0.31367683 0.26800466
0.37345564 0.3082539 0.19354048 0.2675279 0.3089007 0.25197202 0.1914591 0.3702689
0.322465 0.28170043 0.41527992 0.20964189 0.23899888 0.2731887 0.3461317 0.20289299
0.39345598 0.18031022 0.26011065 0.1914797 0.40687945 0.33460614 0.34662881 0.32122454
0.44752094 0.27826038 0.16328447 0.20107338 0.37841475 0.3053511 0.44043508 0.35316584
0.30971724 0.4272569 0.40199268 0.31291315 0.34431812 0.30633312 0.34249654 0.4219164
0.2630542 0.3430895 0.19739424 0.2452797 0.3338365 0.24747068 0.23242433 0.41419
0.36530542 0.27128857 0.32024914 0.24497013 0.23216121 0.39666605 0.37230995 0.3458057
