model_checkpoints/model_epoch_160.pth (torch, 233384 bytes, 9 tensors)

lstm.weight_ih_l0 f4 [256, 28]
000000 7d 96 a1 be 02 35 20 3e c1 82 6b be c4 a2 c5 3d
       -0.31560126 0.15645221 -0.22999097 0.09650186
000010 13 0e 8c 3e b4 6d f8 bd 07 64 dd bc b8 11 c0 39
       0.27354488 -0.12130299 -0.027025236 0.00036634295
000020 19 75 e9 bd 3f 11 2a bd 43 1b a1 be 83 00 7d be
       -0.11399288 -0.041520353 -0.31466112 -0.24707226
000030 29 72 63 be d5 8d 7e be 18 70 57 be c0 37 6d be
       -0.22211517 -0.24858792 -0.21038854 -0.23165798
000040 ef 0c 8b be 65 09 09 be 32 64 73 be 89 97 1d be
       -0.27158305 -0.1338249 -0.2376869 -0.15389837
000050 b4 ee e5 3d 5d 63 c8 bc 78 23 33 3e b9 9d 0f 3e
       0.1122717 -0.024461443 0.17493999 0.1402501
000060 97 19 94 bd ac e5 35 be 69 cf 1d 3d 0a da 84 be
       -0.072314434 -0.17763394 0.03852788 -0.259476
000070 e8 42 2c be 3e 94 5d 3e e2 90 7f be 8c f7 92 3d
       -0.16822398 0.21638581 -0.24957612 0.07176122
000080 27 0e af 3e 96 c7 a4 bd a6 60 4e bd 38 d9 0d be
       0.34190485 -0.080458805 -0.05038514 -0.13852394
000090 17 d0 18 bd 2a 4f 0e be 1b c1 0b be d6 a5 50 be
       -0.037307825 -0.13897386 -0.13647883 -0.20375761
0000a0 30 82 6e be 44 a4 56 be 87 b6 32 be f4 6a 53 be
       -0.2329185 -0.209611 -0.17452441 -0.20646268
0000b0 65 d3 8f be 28 55 32 be bc e1 a2 be c6 d1 7d be
       -0.2809097 -0.17415297 -0.31812847 -0.24787053
0000c0 d6 b1 c9 3d e3 f8 4b 3e f1 38 ac bd 9b b8 fe 3b
       0.09848373 0.19919161 -0.08409298 0.0077734715
0000d0 9c 72 9c bd ea cb eb bc 79 22 7b bd 96 9d cb be
       -0.076390475 -0.028783757 -0.061312173 -0.39768666
0000e0 23 1a 5d 3e 05 64 8c bd 68 bd 88 bd d3 e7 2a 3d
       0.21592002 -0.06855015 -0.066767514 0.04172499
0000f0 38 4f 74 be ac 47 03 3c be 03 22 be 9b 4e 18 bd
       -0.23858345 0.008012693 -0.1582174 -0.03718434
000100 5f 2d b2 3d d1 b8 a4 bd 32 38 86 3e c5 be a9 3e
       0.0870006 -0.080430634 0.2621475 0.33153358
000110 32 00 00 3e 96 d7 38 3e d3 04 15 3e 88 71 15 3e
       0.12500075 0.1805099 0.14552622 0.1459409
000120 30 6c 3d 3e 0d 0c 43 3e fe 51 a5 3e 22 8c a8 3e
       0.18498302 0.19047566 0.32289118 0.32919413
000130 62 0a 06 be 7f 34 ff bd 4b 00 a9 3c d5 ff b2 3d
       -0.13089898 -0.12461185 0.020630023 0.08740202
000140 b3 e7 fe bc 8b 02 51 3e dc 53 a1 3e 7d 0e 01 3e
       -0.031116342 0.20411126 0.31509292 0.12603183
000150 23 f9 98 be 5c b9 02 3e ec dd a4 be b1 17 27 3e
       -0.29877576 0.12766021 -0.32200563 0.16317631
000160 94 93 3c 3e c4 c3 01 bd 8f ba 07 bd dd bb c8 3d
       0.18415672 -0.031680837 -0.0331369 0.09801457
000170 ed e0 7a bd a7 ac 0d bd bc 82 87 be 79 e0 8c be
       -0.061249662 -0.034588482 -0.2646693 -0.2751501
000180 7b 03 a2 be 32 07 80 be c0 89 09 be f7 ee 6d be
       -0.3164328 -0.2500549 -0.13431454 -0.23235689
000190 26 c4 9d be 14 a3 15 be 59 32 dc bd a4 98 7f be
       -0.30813712 -0.1461299 -0.107517906 -0.24960572
0001a0 e1 79 10 3e 6a 35 28 3d 08 a1 88 bc 2e 65 f5 bd
       0.14108993 0.041066565 -0.016678348 -0.11982189
0001b0 2e 38 0f be 4d c0 77 3c fc 13 ac bd 69 15 da be
       -0.13986275 0.015121532 -0.08402249 -0.4259446
0001c0 75 94 2d 3e 27 af 4f be 0e 1d 14 bb 09 5d 3e be
       0.16951163 -0.20281659 -0.0022600326 -0.18590178
0001d0 1a d9 da bc 69 93 9b bd 50 7a 6d 3d c1 db 1d 3d
       -0.02671485 -0.07596476 0.057977974 0.03853965
0001e0 88 59 a2 bd b2 b6 4f 3c d2 4e 50 3e bd 09 58 3e
       -0.07927233 0.012677835 0.20342568 0.21097465
0001f0 25 10 b0 3e e0 44 3d 3e fa ec 3a 3e 79 20 ad 3e
       0.34387317 0.18483305 0.18254462 0.33813837
000200 21 9e 27 3e 89 a4 7f 3e 4f bc a3 3e af 2f a0 3e
       0.16368915 0.24965109 0.31979606 0.3128638
000210 24 81 ce 3d 4f 15 ba 3d 85 08 f6 bd a4 40 cb bd
       0.10083225 0.090860955 -0.12013344 -0.099244386
000220 06 f9 17 be 6a 9d 5c 3e 9e f5 54 bc 00 cf 5b bd
       -0.14841089 0.21544424 -0.012998013 -0.053664207
000230 33 36 87 3e 82 26 67 bc bd c1 69 bc af c9 03 3d
       0.26408538 -0.014108302 -0.014267382 0.032174762
000240 d3 34 50 bd 4f 99 f7 bd 10 b9 02 be cb 1f 19 bd
       -0.050831627 -0.12089788 -0.12765908 -0.037383836
000250 d9 8e 65 3d 9a 5d 4c bd f4 57 52 3e 14 12 7b 3e
       0.056044433 -0.049893953 0.20541364 0.24518615
000260 6c ff 5e 3e 12 3f 3a 3e da d1 1c 3e a2 5d 70 3e
       0.21777123 0.18188122 0.15314427 0.23473218
000270 36 51 2f 3e 81 17 29 3e 6d d1 2e 3e 7d b4 f2 3d
       0.17120823 0.16512872 0.17072077 0.11850832
000280 36 ec 0a 3d b4 4e 04 be fb 65 59 3d e7 8e 29 bd
       0.033916675 -0.12920648 0.05307577 -0.041396048
000290 1b 32 d7 3c 4b cf 4b 3e ee 19 84 3e e7 22 5f 3d
       0.02626901 0.19903295 0.25801033 0.054476645
0002a0 c2 33 77 3e 1b 96 1f bc 5f b0 21 3d 6a 5f 67 bc
       0.24140838 -0.009740378 0.03947484 -0.01412187
0002b0 d1 c1 69 be 38 e6 3a bc cc ac 8f bd 25 2f e3 3c
       -0.22827841 -0.0114074275 -0.0701538 0.027732441
0002c0 8d fc 12 bd 2f 3b 50 3d 24 53 a6 3e 78 45 a8 3e
       -0.035885382 0.050837692 0.32485306 0.328655
0002d0 ab ff 6e 3e 90 2e a8 3e cb b1 85 3e 5f fd 73 3e
       0.23339717 0.32848024 0.26112208 0.23827122
0002e0 24 77 0e 3e c5 8c ae 3e a0 67 28 3e 34 82 80 3e
       0.13912636 0.34091774 0.1644578 0.25099337
0002f0 a5 11 80 bd 3b 22 b7 bb 8a 3e aa bd 77 f1 6f 3c
       -0.062533654 -0.0055887974 -0.0831271 0.014644972
000300 69 fd 66 3d ed aa b7 3e 74 e6 8c 3e 8c a2 1f 3e
       0.056394015 0.35872594 0.27519572 0.1558935
000310 f0 cd f7 3d 20 96 41 bd 99 bf 0a 3d 46 65 22 3e
       0.12099826 -0.04726231 0.033874128 0.15858945
000320 d2 79 88 be 12 e3 80 bd 08 5b d3 bd 46 80 ff bd
       -0.26655442 -0.0629331 -0.10320097 -0.12475638
000330 28 de 2e bd 89 b3 9b bd d4 03 6a 3e 6c c7 50 3e
       -0.042692333 -0.07602603 0.22853023 0.20388573
000340 94 d0 1c 3e 00 81 63 3e 92 a4 31 3e 79 81 81 3e
       0.15313941 0.22217178 0.17347935 0.25294092
000350 c6 d3 80 3e 60 13 68 3e e0 0e a3 3e 0b 57 b1 3d
       0.2516157 0.22663641 0.31847286 0.0865918
000360 49 67 f7 bd c5 41 6a be bd 11 67 3d ae 6b 12 3d
       -0.12080247 -0.22876652 0.0564134 0.035747223
000370 e5 d2 db bc 67 b4 c0 3e 2c 69 b0 3e 6c f3 28 3e
       -0.02683396 0.37637636 0.3445524 0.16499108
000380 7c a4 e6 bd 54 76 56 3e 62 7e 3a be 9f d9 18 3d
       -0.11261842 0.20943576 -0.18212274 0.037316915
000390 a3 05 99 3e b9 c0 23 be 0e 81 22 3c 97 f9 43 3c
       0.29887113 -0.15991487 0.009918464 0.011961362
0003a0 58 ce 4d 3d d5 5d 69 bd ac 08 8a be dc f9 51 be
       0.050245613 -0.05697425 -0.2695974 -0.2050547
0003b0 5e 6c c1 bd 6e 8c 81 be 69 95 84 be 1e 0a 5f be
       -0.094444975 -0.25302452 -0.2589524 -0.21781203
0003c0 f8 47 21 be dc 40 a0 be 2a 57 12 be d7 dc e3 bd
       -0.1575011 -0.31299484 -0.14291063 -0.11126106
0003d0 b8 e0 05 3b 83 12 77 3e 3d 76 98 bc b0 e9 6b 3b
       0.0020428132 0.24128155 -0.018611068 0.0035997443
0003e0 2d 9c 37 be 8a ef 10 bd b4 de 03 be ac d1 e0 be
       -0.1793067 -0.035384692 -0.12877923 -0.43909967
0003f0 42 29 83 3e e2 82 0a bd 99 19 cb bc 18 11 1e 3e
       0.25617415 -0.033816226 -0.02479248 0.15436208

lstm.weight_hh_l0 f4 [256, 64]
000000 43 ce b9 87 94 65 76 03 22 70 60 88 22 cb 52 81
       -2.7956936e-34 7.240951e-37 -6.753936e-34 -3.871665e-38
000010 00 f3 05 24 50 55 c5 1c 1e 69 de a0 00 e4 7b 03
       2.9045607e-17 1.3058419e-21 -3.7677824e-19 7.4024e-37
000020 b6 80 d4 ab 89 13 fb 84 b9 73 7e 02 b1 f8 9c a1
       -1.509923e-12 -5.9027757e-36 1.8694184e-37 -1.0636799e-18
000030 3c 86 b6 9b 1a ab 49 02 2b 92 ba 2f b4 87 56 03
       -3.019612e-22 1.4816252e-37 3.3937061e-10 6.3044727e-37
000040 d8 ac 03 8d 88 cb a7 04 90 41 45 2f fe 18 27 05
       -4.0575545e-31 3.9448425e-36 1.7940338e-10 7.8568926e-36
000050 6b 8d 5b a5 ca 63 a3 ac a7 a1 aa 0d 42 92 e2 2e
       -1.9043136e-16 -4.6438174e-12 1.0515975e-30 1.0303271e-10
000060 2c 4c 75 9a 6b 34 8a 2f 72 8c 3a 0f dc 93 40 81
       -5.0726344e-23 2.51393e-10 9.197557e-30 -3.5370914e-38
000070 6b e5 d1 ae 39 b5 8e 07 97 99 96 98 53 63 b8 29
       -9.5449725e-11 2.1472298e-34 -3.8929177e-24 8.1884715e-14
000080 c8 e0 d1 15 14 77 d5 02 1d 37 f9 01 c4 4c f3 83
       8.476907e-26 3.1365885e-37 9.154724e-38 -1.4299881e-36
000090 01 17 ad 13 5e 44 82 83 c0 8d a8 04 7f db 8d 82
       4.3694023e-27 -7.65641e-37 3.9626787e-36 -2.0844073e-37
0000a0 8f 14 03 a3 5e 7a 1f 2f 14 2a 8e a4 f0 0c dd 87
       -7.105878e-18 1.450444e-10 -6.1653967e-17 -3.3259988e-34
0000b0 54 ec c4 1d 80 13 9f 8d 72 dd 42 0f 71 f2 ac ae
       5.2125126e-21 -9.803826e-31 9.607587e-30 -7.864721e-11
0000c0 4d cc 02 8b e2 57 b9 85 25 3c c5 82 26 30 07 2c
       -2.5190788e-32 -1.74296e-35 -2.898107e-37 1.9211382e-12
0000d0 4c 6a a1 a4 76 7f bc 1b 87 24 9c 82 de 9b 5d 99
       -7.0002694e-17 3.118436e-22 -2.2943106e-37 -1.1456909e-23
0000e0 22 66 42 0e 5e 5f 22 83 6a a4 1e 03 cf 66 9f 9d
       2.3961521e-30 -4.7716997e-37 4.6620765e-37 -4.219325e-21
0000f0 6f 82 a8 0d 50 83 a2 82 20 79 78 8f 8b eb 8b 1e
       1.03852e-30 -2.387913e-37 -1.2250672e-29 1.4814616e-20
000100 d0 4a 34 83 72 05 be 2b 16 1e c2 9d 22 5a 55 83
       -5.2983126e-37 1.3501823e-12 -5.138248e-21 -6.269854e-37
000110 22 80 e2 2e ea 2d af 2b 54 36 af 92 ea 5c dd 82
       1.0300051e-10 1.2447242e-12 -1.1057446e-27 -3.2526361e-37
000120 45 f4 d6 93 f6 2c a4 03 79 d8 01 0f 57 59 8e 9e
       -5.4262063e-27 9.649376e-37 6.401882e-30 -1.5071785e-20
000130 90 82 40 27 81 5a ad 2f a3 70 16 30 3f b3 a3 2c
       2.671613e-15 3.1532824e-10 5.472975e-10 4.652639e-12
000140 98 0c ab a5 61 c5 f5 ab bc fc a9 2b ac e7 86 ae
       -2.9672305e-16 -1.7463081e-12 1.207832e-12 -6.134768e-11
000150 79 5a b7 01 43 74 59 0a 1b d6 87 2b 64 21 dd 17
       6.7353405e-38 1.0470036e-32 9.651753e-13 1.4290219e-24
000160 56 78 79 83 8c 7c 1b 04 48 a2 82 82 b8 05 70 83
       -7.331266e-37 1.8277352e-36 -1.9194928e-37 -7.0536226e-37
000170 00 3d 23 14 d2 6f 0c 99 ee 52 86 9d c8 44 af 15
       8.241427e-27 -7.260412e-24 -3.555525e-21 7.0790455e-26
000180 69 a3 2d 1d a6 c7 93 27 f9 8d 5e 99 81 4f 02 83
       2.298084e-21 4.1017155e-15 -1.1505802e-23 -3.8294832e-37
000190 23 f6 fe 89 c1 e4 83 24 2e c2 0c 83 0d 34 9a 81
       -6.137974e-33 5.719972e-17 -4.136521e-37 -5.6645355e-38
0001a0 24 e5 7d 1e 4c 0f 33 99 e6 a7 2c 03 c6 82 b7 9d
       1.3441094e-20 -9.257172e-24 5.0738995e-37 -4.8574913e-21
0001b0 5f cc e6 a4 f8 b4 a9 84 47 eb a7 1d 7d e3 19 23
       -1.0009282e-16 -3.9897903e-36 4.4447803e-21 8.342319e-18
0001c0 b4 fa 7b ad 6b 33 10 ae 44 3b 74 81 8b ad 63 24
       -1.4323365e-11 -3.2787478e-11 -4.4858243e-38 4.9369775e-17
0001d0 92 eb 99 28 de a4 13 84 af c0 27 0f 7b e5 90 83
       1.7088575e-14 -1.735547e-36 8.270845e-30 -8.5162455e-37
0001e0 87 7a a9 04 ca b1 1c 2a 0f 21 9b 95 6c 18 e8 2f
       3.9844233e-36 1.3917266e-13 -6.265616e-26 4.2217907e-10
0001f0 84 4f ac 2f 53 02 f7 a7 9e a8 09 82 3c 59 b5 06
       3.1343117e-10 -6.855879e-15 -1.0113561e-37 6.821575e-35
000200 2b 0b 11 04 fa 37 34 02 06 e1 55 28 e1 73 c4 82
       1.7049796e-36 1.3240376e-37 1.1872669e-14 -2.8866123e-37
000210 58 79 a1 16 1c d0 76 95 ae b2 8f 23 e4 6b 58 95
       2.6087532e-25 -4.9843474e-26 1.5579765e-17 -4.3705963e-26
000220 5a 79 11 0f 06 26 dd 2c 3e 1c d7 84 81 b9 ae 8d
       7.1724234e-30 6.2854192e-12 -5.0572193e-36 -1.0768236e-30
000230 56 f0 99 97 b1 cd bc 1d e4 be 12 ad 58 76 13 84
       -9.948063e-25 4.9975866e-21 -8.341525e-12 -1.7334108e-36
000240 c5 9a 23 14 3c 2c 98 29 f4 bd f9 02 0d 21 5d a5
       8.25992e-27 6.7578294e-14 3.669629e-37 -1.9179892e-16
000250 23 08 a9 04 a1 a5 10 05 df 45 00 a9 53 3f df 98
       3.973918e-36 6.801269e-36 -2.8482313e-14 -5.770809e-24
000260 03 59 a9 2f 08 47 5d 81 28 ee 9a 81 03 8a d5 ac
       3.0804168e-10 -4.0642252e-38 -5.6912403e-38 -6.0691465e-12
000270 33 d1 0e 84 49 71 54 2f 62 25 0d 2c b2 83 04 03
       -1.678808e-36 1.9321535e-10 2.0058057e-12 3.8942492e-37
000280 a9 a9 06 2c 86 08 fc 95 66 8d 57 95 a5 d3 1d 84
       1.9136726e-12 -1.0179544e-25 -4.3530448e-26 -1.8552444e-36
000290 7d 8f 71 88 90 d1 a9 04 b4 de a2 af 07 7f e1 24
       -7.269197e-34 3.9924162e-36 -2.9625868e-10 9.779339e-17
0002a0 96 ce 9e a8 be 1a a9 04 24 df 8d 83 86 82 56 9d
       -1.7631116e-14 3.9756268e-36 -8.338466e-37 -2.8390143e-21
0002b0 7c e8 66 19 f9 3a 60 28 1b e3 15 11 22 1f e1 20
       1.1937671e-23 1.24472855e-14 1.182401e-28 3.8137085e-19
0002c0 9c 3f 11 a1 26 29 3b 82 60 85 bb 0e aa b0 70 2b
       -4.9212097e-19 -1.3750399e-37 4.6227495e-30 8.55103e-13
0002d0 72 f3 8a 14 47 1e 1d 8f 82 65 ac 01 94 37 a8 89
       1.4030461e-26 -7.746529e-30 6.332848e-38 -4.0496794e-33
0002e0 b1 32 b9 85 6e 69 9d 83 fc f5 9f 04 ee ad 27 83
       -1.7415937e-35 -9.251836e-37 3.760662e-36 -4.927655e-37
0002f0 90 5c ce 02 99 26 35 1c 84 70 5c 9b 87 75 07 02
       3.0322108e-37 5.9937763e-22 -1.8234329e-22 9.951962e-38
000300 4e ad 12 84 07 70 81 82 55 58 b6 2f d4 36 c9 af
       -1.7241795e-36 -1.9019147e-37 3.316837e-10 -3.6600645e-10
000310 80 8c 51 19 96 3b 9f 2f a7 81 b8 83 8b 11 9f 2f
       1.08334205e-23 2.896427e-10 -1.0844315e-36 2.8934397e-10
000320 ad 7a 78 82 e2 9e 0c ad a4 b7 b1 82 d4 e7 51 83
       -1.8255369e-37 -7.993358e-12 -2.6113217e-37 -6.1685705e-37
000330 d2 28 4d 25 95 ec 2f 0a 32 d6 0b 96 12 1b 4f 90
       1.7794746e-16 8.47044e-33 -1.1295919e-25 -4.0844406e-29
000340 fa 32 61 8d f6 81 b4 02 b0 0d bd 8b ba 53 00 81
       -6.939484e-31 2.6523217e-37 -7.2820747e-32 -2.3569958e-38
000350 b2 40 1f af 5b bc b5 14 30 07 94 1e 16 91 13 82
       -1.448395e-10 1.8350623e-26 1.5673082e-20 -1.0841492e-37
000360 ef 04 ab 18 07 89 9b 2e 39 00 0f 04 55 57 a1 04
       4.4207446e-24 7.072925e-11 1.6809671e-36 3.793112e-36
000370 72 be bc 90 2a 5a db a9 e5 0d 8f 03 32 c6 23 83
       -7.444635e-29 -9.741195e-14 8.407975e-37 -4.812891e-37
000380 2e 52 c3 ab dc 58 e3 18 4d 2c da 1f ce d4 8b 82
       -1.3878393e-12 5.876785e-24 9.239988e-20 -2.0546358e-37
000390 bd 54 f8 ac 37 34 65 9b 71 2e 81 25 12 1f aa 84
       -7.0579918e-12 -1.8959308e-22 2.2409403e-16 -3.999534e-36
0003a0 56 41 cb 81 54 e8 55 2e c6 49 9c 0b eb c9 b4 1d
       -7.4664175e-38 4.863694e-11 6.0200016e-32 4.785438e-21
0003b0 89 9f 17 2e 6e 18 4b 14 3e c9 12 a5 d3 35 a6 8b
       3.447512e-11 1.0253699e-26 -1.2731665e-16 -6.402186e-32
0003c0 89 2e 16 96 5a e5 3e 14 b2 43 be 81 80 21 b9 85
       -1.2131587e-25 9.63778e-27 -6.9892115e-38 -1.7409622e-35
0003d0 ae 20 0f 04 8f 07 ac 9d 48 32 9f 25 ce df 0f 84
       1.6824575e-36 -4.5535836e-21 2.7616175e-16 -1.6912335e-36
0003e0 26 47 34 85 1d 12 18 18 32 6e 83 83 2e 03 d5 84
       -8.476627e-36 1.9654684e-24 -7.724788e-37 -5.007898e-36
0003f0 5a e8 71 10 41 fa cb a0 e3 3c 12 15 2e ea 95 8b
       4.7707867e-29 -3.4555142e-19 2.9532496e-26 -5.7745067e-32

lstm.bias_ih_l0 f4 [256]
000000 5a 83 a0 3e a8 15 c4 3e 52 4c 77 3e 0c 69 be 3e
       0.31350213 0.38297772 0.24150208 0.3718952
000010 9c cf eb 3e 4f 3c e0 3e 11 b4 83 3e f0 d8 7e 3e
       0.4605683 0.43796012 0.25723317 0.24887443
000020 21 c5 d6 3e 61 34 ea 3e 0c e2 de 3e db 05 8d 3e
       0.41947272 0.45743087 0.43531835 0.2754353
000030 8b 96 b7 3e 3b 66 b4 3e 63 f0 cd 3e 48 96 e5 3e
       0.35857043 0.35234246 0.40222463 0.44841218
000040 6c bc 9e 3e 07 35 e2 3e d8 24 b1 3e 28 30 d1 3e
       0.3100313 0.44181082 0.34598422 0.40857053
000050 ab 34 8b 3e 71 8e ae 3e 1d b7 ee 3e b9 8e 93 3e
       0.2718862 0.3409305 0.4662408 0.28819826
000060 88 ab 8a 3e 5b 23 c2 3e a0 7f 8e 3e 48 ed b3 3e
       0.27083993 0.379176 0.27831745 0.3514197
000070 a9 a2 cd 3e 82 93 ed 3e 4f ff ba 3e 76 bb 9e 3e
       0.40163162 0.46401602 0.3652291 0.31002396
000080 26 07 df 3e c2 55 ca 3e 1e 41 f2 3e 0d 42 9a 3e
       0.4356014 0.39518553 0.47315305 0.30128518
000090 bf ab 86 3e 63 3d d9 3e cc f6 b1 3e f3 67 90 3e
       0.26302907 0.42429647 0.34758604 0.28204307
0000a0 8d 4b e5 3e e7 5a e0 3e f2 b9 b7 3e c2 e4 9c 3e
       0.44784203 0.43819353 0.35884053 0.30643278
0000b0 10 b5 cb 3e e8 ba 92 3e d8 46 8c 3e 4a d8 af 3e
       0.39786577 0.28658223 0.273978 0.34344703
0000c0 8d db cb 3e ad 83 82 3e 5c cf a9 3e 82 21 e2 3e
       0.3981594 0.25491086 0.33166015 0.4416619
0000d0 a1 f2 f8 3e 4e 60 01 3f a5 7e d8 3e 5c 14 d0 3e
       0.4862261 0.50537574 0.42284122 0.40640533
0000e0 0e d1 f7 3e df 3d b5 3e a9 ee 82 3e 9b 1d e7 3e
       0.48401684 0.35398766 0.25572708 0.45139775
0000f0 4a 6c aa 3e 03 17 aa 3e 2c 99 7d 3e da 48 db 3e
       0.33285743 0.33220682 0.24765462 0.4282902
000100 5c 06 ab 84 1f 48 57 8e 1e 3d 34 05 f1 7f 55 8e
       -4.0207747e-36 -2.6535521e-30 8.474785e-36 -2.6315879e-30
000110 bd 39 54 2e be 27 75 0e 69 dd 4e ae 1a 77 fb 82
       4.82545e-11 3.0217717e-30 -4.703563e-11 -3.6949496e-37
000120 e8 07 e1 02 bc 42 d4 23 8b fd d2 92 ca 7a df 2b
       3.3065317e-37 2.3013349e-17 -1.3315366e-27 1.5879184e-12
000130 09 90 5c 13 5d d6 6f ac f1 6a 85 20 cc 65 fa 18
       2.7838919e-27 -3.4082938e-12 2.2601844e-19 6.4726274e-24
000140 e0 c0 2c 19 a4 a4 17 30 a5 19 0e ae 10 06 37 2c
       8.931142e-24 5.516745e-10 -3.230984e-11 2.600923e-12
000150 2e aa 8f 14 3a 78 34 85 4d c8 ae 8b 76 5c a9 83
       1.4506434e-26 -8.4856415e-36 -6.732374e-32 -9.954155e-37
000160 c0 8e 93 a3 ac 74 cd 2d a4 18 02 8c f0 ff ab ad
       -1.5998229e-17 2.3357614e-11 -1.0022251e-31 -1.9554108e-11
000170 13 e2 3f 03 58 6a 0b 16 86 85 a3 2b bf 49 53 2e
       5.6389376e-37 1.1261887e-25 1.1618907e-12 4.8041345e-11
000180 8a ff 52 2f 11 cc 0c 04 d4 b7 25 83 70 de 8c ab
       1.9190174e-10 1.6550624e-36 -4.8700166e-37 -1.0009337e-12
000190 1f a9 62 a9 c6 ab 9d 83 69 ff 88 28 58 c0 b5 24
       -5.032877e-14 -9.267068e-37 1.52098e-14 7.882208e-17
0001a0 c8 33 e5 a9 d5 e9 28 2f 95 b8 98 af 44 da 0f 30
       -1.01786255e-13 1.5362585e-10 -2.7779792e-10 5.233327e-10
0001b0 d9 99 33 05 b9 2d 90 0d c9 db 64 2d c4 f3 8a 0b
       8.444797e-36 8.8856925e-31 1.3009102e-11 5.3522444e-32
0001c0 7d 1c 75 25 b4 c4 b3 87 fa ce a9 1d 90 ca ab 95
       2.1260015e-16 -2.7048538e-34 4.4947936e-21 -6.938594e-26
0001d0 ad e4 03 2d 97 0d 03 18 74 d1 11 04 d3 92 df 0d
       7.497264e-12 1.6938214e-24 1.7140844e-36 1.3778783e-30
0001e0 22 97 4a 0e fd a5 2f 85 dc 55 f6 82 25 1a f2 82
       2.497119e-30 -8.258948e-36 -3.6195732e-37 -3.557371e-37
0001f0 67 fa db 96 32 44 f2 94 39 90 22 2c 24 af 7d 80
       -3.5539384e-25 -2.4462654e-26 2.3101644e-12 -1.1542266e-38
000200 f8 9a e8 3e 30 7b af 3e 8b 6d d7 3e 9e 99 a0 be
       0.45430732 0.34273672 0.42075762 -0.313672
000210 03 db ae be e1 28 e7 3e 2b 5f c2 be 29 1b a9 3e
       -0.34151468 0.45148376 -0.37963232 0.33028534
000220 d4 33 dd be 12 71 d2 be f9 01 9d be a6 5f bb 3e
       -0.43203604 -0.4110189 -0.30665568 0.3659641
000230 0a 59 be be 49 8c 88 3e b2 53 b9 3e 06 4e dc 3e
       -0.37177306 0.2666953 0.36196667 0.43028277
000240 e3 e2 db 3e d9 72 99 be 66 9d e3 3e fd 48 da be
       0.42946538 -0.29970434 0.44456023 -0.4263381
000250 66 44 c3 3e 87 83 93 be 3b 86 d0 be 13 d5 d9 3e
       0.3813812 -0.28811285 -0.4072741 0.42545375
000260 da 27 8e be 7f b4 e0 3e 67 52 d8 3e da f0 a3 be
       -0.2776478 0.43887708 0.42250368 -0.32019693
000270 c8 07 87 be 9f c7 94 be 6b 6b dc be 15 0f c2 3e
       -0.26373124 -0.2905855 -0.43050703 0.37902132
000280 97 a6 b0 3e 9a 4c a3 3e ad 2e de 3e ef 72 81 3e
       0.34502098 0.3189438 0.43394986 0.25283
000290 f7 b5 d6 be 85 a6 bc 3e 2b ef 98 3e 23 52 ba be
       -0.41935703 0.36845794 0.2986997 -0.3639079
0002a0 9b f0 bc 3e 85 10 e0 3e c9 8c dc 3e 26 ce 8f be
       0.36902317 0.43762603 0.4307616 -0.28086966
0002b0 73 a9 c2 be 46 ad a5 3e 94 f5 ab be 49 5a a1 3e
       -0.38019904 0.3235876 -0.335858 0.31514195
0002c0 d3 4e e3 be 77 3d d8 3e 3e 58 db be a3 64 db be
       -0.44396076 0.42234394 -0.4284076 -0.42850217
0002d0 90 85 d5 3e 8e 24 e4 3e c4 f0 9f be b6 57 8a 3e
       0.41703463 0.4455914 -0.31238377 0.27020043
0002e0 e6 bf d8 3e 69 f8 c3 be d5 f9 d4 be 36 ec ba 3e
       0.42333907 -0.3827546 -0.41596857 0.3650834
0002f0 10 c1 e0 3e 0a 85 b0 3e 28 77 bb be 6a 73 b7 be
       0.43897295 0.344765 -0.36614347 -0.3583024
000300 8a c6 ae 3e d5 77 c2 3e 06 0c 7e 3e 9c 52 f8 3e
       0.34135848 0.3798205 0.24809274 0.48500526
000310 e3 fe ea 3e bc 71 ed 3e a5 29 ea 3e 63 30 a2 3e
       0.45897588 0.46375835 0.45734897 0.3167754
000320 00 e0 be 3e 28 b3 92 3e e9 76 80 3e e3 c8 9c 3e
       0.37280273 0.2865231 0.2509072 0.30622014
000330 10 83 b1 3e 09 af 4c 3e 87 1a ef 3e 68 46 97 3e
       0.34670305 0.19988646 0.46699926 0.29545903
000340 39 8b ce 3e 25 30 9e 3e 35 ba d2 3e 63 b1 dd 3e
       0.40340593 0.30896106 0.4115769 0.43299398
000350 77 4c 7f 3e 51 87 e1 3e 99 75 dc 3e 8d 1f cc 3e
       0.24931513 0.4404855 0.4305847 0.3986782
000360 c1 bb b5 3e 18 9d 02 3f de dd c7 3e a2 5b f3 3e
       0.35494807 0.51020956 0.3903646 0.47530848
000370 73 81 e4 3e fa 19 84 3e 90 51 a6 3e e3 34 d6 3e
       0.44630012 0.2580107 0.32484102 0.41837224
000380 e8 75 a7 3e 00 09 98 3e 99 7d c6 3e 24 de ca 3e
       0.32707143 0.29694366 0.38767698 0.39622605
000390 d4 15 86 3e 75 05 05 3f 33 bf a6 3e 72 68 bd 3e
       0.2618853 0.5196145 0.32567748 0.36993748
0003a0 db 1e 94 3e e4 3b d1 3e 2a 2f 01 3f 95 55 b4 3e
       0.2892979 0.40866005 0.5046259 0.35221544
0003b0 8f ea c6 3e bb d7 89 3e d0 a1 83 3e 83 bc e4 3e
       0.3885083 0.26922402 0.2570939 0.44675073
0003c0 bd e1 88 3e 37 49 ca 3e 19 9d c5 3e 59 e4 ef 3e
       0.26734725 0.39508983 0.38596418 0.46853903
0003d0 5a 96 e1 3e 95 04 9d 3e fb e5 a0 3e ec ec c7 3e
       0.44060022 0.30667558 0.3142546 0.39047945
0003e0 c7 1c ea 3e f2 14 9a 3e 97 2c 88 3e e4 41 d0 3e
       0.4572508 0.30094105 0.2659652 0.4067527
0003f0 b0 d9 bb 3e 89 8f dc 3e 4c 9e c5 3e 3b 35 c3 3e
       0.3668952 0.4307826 0.38597333 0.3812655

lstm.bias_hh_l0 f4 [256]
000000 a4 5d a2 3e 73 77 b2 3e 58 41 8b 3e b3 4c 9f 3e
       0.31712067 0.34856758 0.2719829 0.31113204
000010 d4 99 fc 3e 09 bf a0 3e 0b 05 b7 3e cf 47 e2 3e
       0.49336112 0.31395748 0.35746035 0.4419541
000020 e3 86 d5 3e fd 35 be 3e e0 bc c9 3e 92 cb 6a 3e
       0.41704473 0.37150565 0.39401913 0.22929218
000030 50 dc 89 3e da aa c7 3e cc 9f e8 3e f0 cb 71 3e
       0.26925898 0.38997537 0.45434415 0.23612952
000040 de 10 e7 3e b3 7c 91 3e 19 ae ba 3e 09 dd bc 3e
       0.45130056 0.2841545 0.3646095 0.36887386
000050 ee 3e de 3e 03 aa a9 3e 85 27 94 3e d0 4c c2 3e
       0.43407387 0.3313752 0.289364 0.37949228
000060 0d 95 8e 3e e9 1a c4 3e 5d 6b a0 3e 0a 9b d4 3e
       0.27848092 0.3830178 0.31331912 0.41524535
000070 de ea c7 3e a1 c3 af 3e ef e1 bc 3e 4a 2e ad 3e
       0.39046377 0.3432894 0.36891124 0.33824378
000080 d4 ea cf 3e a1 d9 94 3e 25 2a f4 3e 75 1a f8 3e
       0.40608847 0.29072288 0.47688404 0.48457685
000090 de 59 d9 3e 2f b2 d6 3e 1d be 82 3e f3 2b ed 3e
       0.42451376 0.41932818 0.2553567 0.46322593
0000a0 57 b7 d7 3e b8 3d bf 3e ee 6a c5 3e 33 e0 d6 3e
       0.42132065 0.37351775 0.38558143 0.41967925
0000b0 0e e5 8f 3e 3f f0 c0 3e 6f 72 e0 3e b3 af e7 3e
       0.28104442 0.37683293 0.43837306 0.45251235
0000c0 82 7b ab 3e 37 76 d2 3e f3 8a b0 3e c2 7a b2 3e
       0.33492666 0.41105816 0.3448101 0.34859282
0000d0 9f 59 ba 3e ff e7 ae 3e dc f6 fb 3e 28 ab b0 3e
       0.363965 0.34161374 0.49211776 0.34505582
0000e0 40 b5 fc 3e 03 9e bd 3e 04 21 ae 3e c2 39 05 3f
       0.49357033 0.37034616 0.34009564 0.52041256
0000f0 02 2d a5 3e 54 38 e5 3e 1a ef ba 3e 0c bc e6 3e
       0.322609 0.44769537 0.36510545 0.45065343
000100 cf 12 a5 20 b8 17 0f 94 bb 7d ee 2f a7 00 0a 9b
       2.7964534e-19 -7.224333e-27 4.3381285e-10 -1.1415303e-22
000110 a2 24 ac 04 f1 6a 71 24 94 ba 6b 87 c1 1c ce 8b
       4.0470648e-36 5.2349128e-17 -1.7734265e-34 -7.939158e-32
000120 15 7e ac 2e 03 b2 fc 06 9b a7 92 1d 23 fc 9b 8b
       7.844051e-11 9.505343e-35 3.881918e-21 -6.00832e-32
000130 11 4d 1b 96 44 0c 45 8f fb b7 4e 8d 9b 49 c0 ad
       -1.2545118e-25 -9.715212e-30 -6.370011e-31 -2.186056e-11
000140 14 7b 22 9c 28 59 aa 04 0a e2 12 84 cd 27 13 84
       -5.376038e-22 4.0048685e-36 -1.726601e-36 -1.7298043e-36
000150 61 6e ee 82 18 f4 42 98 73 d2 d3 0e 42 1a b4 2e
       -3.5034311e-37 -2.5197148e-24 5.221817e-30 8.1901166e-11
000160 c7 11 e5 89 1c 96 65 8d 66 1f 68 03 8a 44 24 2a
       -5.5146462e-33 -7.074676e-31 6.8214716e-37 1.4589905e-13
000170 8c 8e 9f 0d 92 a8 36 25 8f 6c 89 93 21 86 11 04
       9.833448e-31 1.5843097e-16 -3.469071e-27 1.7106257e-36
000180 1e 41 44 2b 41 58 4b 18 0e 41 96 9f 35 ee f8 82
       6.9723556e-13 2.6281692e-24 -6.3635095e-20 -3.657705e-37
000190 06 f6 29 04 55 45 be 8b d1 c9 6c 9d c6 c5 a3 02
       1.9978823e-36 -7.328966e-32 -3.1338677e-21 2.4064214e-37
0001a0 1d 58 9c 9c 61 c8 79 82 a5 94 84 03 61 66 3f 2d
       -1.0345991e-21 -1.8351137e-37 7.79239e-37 1.0879826e-11
0001b0 ba b0 2a 83 d7 be 90 12 c8 4d cd 8b 3b 76 1e 27
       -5.016138e-37 9.134723e-28 -7.908016e-32 2.1990998e-15
0001c0 41 9e 83 20 de 8d a8 84 e0 88 bd a3 0f 96 6a 03
       2.2296987e-19 -3.9626895e-36 -2.054939e-17 6.893868e-37
0001d0 9a 86 d6 02 91 df a5 03 14 a7 7e 90 2a 8f dd 2f
       3.1521731e-37 9.749157e-37 -5.022138e-29 4.030139e-10
0001e0 24 f1 53 88 ff df 2a 25 be 34 81 a8 92 8f eb 0b
       -6.3778962e-34 1.4821042e-16 -1.434475e-14 9.073473e-32
0001f0 7b 47 b0 2e a1 d2 ad a1 c0 93 c2 9d d4 ef 7a 2f
       8.016251e-11 -1.1778689e-18 -5.1504142e-21 2.2822572e-10
000200 d0 0a 9b 3e 5b 71 b5 3e 93 9f d9 3e c0 1d ee be
       0.30281687 0.35438046 0.42504558 -0.46507072
000210 c7 cc e1 be c7 da e6 3e 3b 5c 89 be d1 d5 b7 3e
       -0.44101545 0.4508879 -0.2682818 0.35905316
000220 11 20 b5 be c0 de c7 be 9d ce e6 be 88 b8 bc 3e
       -0.35376027 -0.39037132 -0.45079508 0.36859536
000230 53 bc 97 be 93 34 94 3e 42 a7 bb 3e f7 90 b1 3e
       -0.29635867 0.2894636 0.36651045 0.34680912
000240 73 78 a7 3e 25 29 e8 be bc 1b b1 3e cb 60 b2 be
       0.32709083 -0.4534389 0.34591472 -0.34839472
000250 e4 74 be 3e 1a df f9 be d3 b8 bf be c6 58 70 3e
       0.37198555 -0.48803025 -0.37445697 0.23471364
000260 ff c3 b2 be c2 06 97 3e 86 72 d6 3e 5f 83 e1 be
       -0.34915158 0.29497343 0.4188425 -0.4404554
000270 62 9c dc be 3a 77 e0 be af ec 9d be f1 92 dc 3e
       -0.4308806 -0.43840963 -0.30844638 0.43080857
000280 4d 87 8a 3e 1e 5c e3 3e aa 31 93 3e 45 5e ca 3e
       0.2705635 0.44406217 0.28748828 0.39525047
000290 81 45 e0 be af 4c f3 3e b4 ee dc 3e 3b 85 bf be
       -0.43803027 0.47519442 0.43150866 -0.37406334
0002a0 bf 3c cc 3e 52 c6 c0 3e eb 92 a9 3e 3a a0 d2 be
       0.39890096 0.37651306 0.33119902 -0.41137868
0002b0 31 f6 ce be e6 62 d1 3e 57 1d c6 be 4a 8d d2 3e
       -0.40422204 0.40895766 -0.3869426 0.4112342
0002c0 3c 63 a9 be 96 ae e2 3e 3d 56 92 be e3 1b b1 be
       -0.33083522 0.44273823 -0.2858142 -0.34591588
0002d0 46 7e c4 3e 87 ac bc 3e ab 40 e4 be 6f 22 b5 3e
       0.3837759 0.36850378 -0.44580588 0.35377833
0002e0 92 0b 99 3e 3e 1b d2 be fb a3 a6 be ce 55 dd 3e
       0.2989164 -0.4103641 -0.32546982 0.43229526
0002f0 19 62 6e 3e 3a 96 d5 3e e8 db ae be 95 63 b9 be
       0.23279609 0.41716176 -0.3415215 -0.36208788
000300 4c 1d f6 3e ed e3 9f 3e f5 a8 8b 3e a7 15 a7 3e
       0.48069227 0.3122858 0.2727734 0.32633707
000310 e7 69 af 3e 2e e4 fd 3e 7c 79 80 3e c2 fc c6 3e
       0.34260485 0.4958815 0.25092685 0.38864714
000320 be 56 d6 3e 17 8d 6f 3e d3 ea bb 3e a1 ac c6 3e
       0.41863054 0.23393665 0.36702594 0.3880358
000330 ad e7 d2 3e 2b bd 8d 3e c2 9d b2 3e c6 a8 b7 3e
       0.4119238 0.27683386 0.34885985 0.3587095
000340 d9 55 b8 3e 12 26 00 3f 8a 1e f8 3e a0 b6 b4 3e
       0.36002997 0.5005809 0.484608 0.35295582
000350 82 85 ef 3e 89 9f 8f 3e f5 ab 8b 3e f9 c3 5d 3e
       0.46781546 0.28051403 0.2727963 0.21656789
000360 3d 93 6e 3e 2b 2e ce 3e 7a 10 cd 3e 72 c6 b4 3e
       0.23298354 0.40269598 0.40051633 0.35307652
000370 ef f6 c5 3e 09 41 93 3e b8 99 d4 3e f7 39 a6 3e
       0.38664958 0.28760555 0.41523528 0.324661
000380 00 0f c7 3e d0 b3 d9 3e 7b 2e b5 3e a1 11 a4 3e
       0.38878632 0.4252 0.35387024 0.320447
000390 99 8f e2 3e 7a 2b c4 3e 9b fc 9f 3e 55 a4 e5 3e
       0.4425018 0.3831442 0.3124741 0.44851938
0003a0 52 f7 ad 3e f6 d0 89 3e bb 22 95 3e d8 ea 90 3e
       0.33977753 0.26917237 0.2912806 0.28304172
0003b0 75 2f dd 3e b3 96 c1 3e 4d 0a d0 3e f3 f1 a2 3e
       0.4320027 0.37810287 0.4063286 0.31825218
0003c0 c0 0d ca 3e 75 c1 e8 3e ef f9 8c 3e 7f a3 f2 3e
       0.39463615 0.45460096 0.27534434 0.47390363
0003d0 6c 46 f4 3e 2f a4 e4 3e b6 f4 c8 3e a9 ae e0 3e
       0.47709978 0.44656512 0.392492 0.43883255
0003e0 52 1b 9c 3e b2 f9 c8 3e bd 55 a9 3e 4e 7b bb 3e
       0.30489594 0.39253002 0.33073226 0.36617512
0003f0 f3 a3 80 3e 33 d4 ef 3e 5d 01 d1 3e 5f c4 03 3f
       0.25125083 0.46841583 0.40821353 0.51471514

lstm.weight_ih_l1 f4 [256, 64]
000000 84 c2 b1 3e c9 0e d8 3e 64 90 b3 3e ee 12 d5 be
       0.34718716 0.4219878 0.350711 -0.41616005
000010 f0 87 a7 be 34 33 8c 3e 31 52 7f be e6 db 84 3e
       -0.327209 0.27382815 -0.24933697 0.2594902
000020 02 3c 6b be 75 44 c6 be 06 9f 9f be b1 fd 94 3e
       -0.2297211 -0.38724104 -0.31176013 0.290998
000030 4a 0f 3b be ea ec 8e 3e 97 6f 91 3e 18 dc 2b 3e
       -0.18267551 0.27915126 0.2840545 0.16783178
000040 3e 38 8c 3e 9e 0b 4a be 7d 84 4e 3e 85 45 cd be
       0.2738666 -0.19730994 0.20167728 -0.40092102
000050 16 a3 c5 3e 1e 15 d3 be 3a 16 d1 be 23 00 5e 3e
       0.38600987 -0.4122705 -0.4083727 0.2167974
000060 f0 fa c7 be 33 ca 8c 3e a4 78 6d 3e ba 71 d7 be
       -0.39058638 0.27498016 0.23190552 -0.42078954
000070 2d 3e ac be 99 4e 8c be fc 50 9c be ab 59 dd 3e
       -0.33641186 -0.27403715 -0.30530536 0.43232474
000080 62 ac b1 3e cb 70 7b 3e a5 8a 28 3e 8a 4c b8 3e
       0.3470183 0.24554746 0.16459139 0.35995895
000090 15 cf 35 be c7 7b a0 3e de 9a 98 3e 8a 0e b6 be
       -0.17754777 0.31344435 0.29805654 -0.35557967
0000a0 a2 70 c8 3e 03 e9 6e 3e 62 ae e0 3e 90 64 4f be
       0.39148432 0.23331074 0.43883044 -0.20253205
0000b0 80 15 db be 57 48 a4 3e b0 92 64 be e9 91 8f 3e
       -0.4278984 0.3208644 -0.22321582 0.28041008
0000c0 a6 cd e2 be c9 fb 91 3e fd 24 9d be 6c c1 c2 be
       -0.44297522 0.2851241 -0.30692282 -0.38038194
0000d0 ef 9f 7d 3e c2 3c 8f 3e 47 50 cb be dd 5e be 3e
       0.24768041 0.27976042 -0.39709684 0.3718175
0000e0 49 67 b4 3e 67 cb ad be 12 ab 43 be 74 d7 c8 3e
       0.3523505 -0.33944246 -0.19108227 0.39226878
0000f0 49 ba 6e 3e 38 29 b7 3e 05 f9 95 be 32 8b ed be
       0.2331325 0.35773635 -0.2929155 -0.4639526
000100 67 b1 94 3e e0 c3 a6 3e a3 46 1a 3e 22 d8 b3 be
       0.29041597 0.32571316 0.15066008 -0.35125834
000110 36 87 cf be 65 cb 71 3e 67 3c 96 be 42 87 b8 3e
       -0.40532845 0.23612745 -0.29342958 0.36040694
000120 07 fa d2 be 43 e4 ca be cc 46 99 be 54 00 d5 3e
       -0.4120638 -0.39627275 -0.29936826 0.41601813
000130 27 84 a8 be 7e 4b a4 3e 76 58 c9 3e 19 cb 12 3e
       -0.32913324 0.32088846 0.39325303 0.14335288
000140 af d1 c6 3e 60 96 ad be 41 c2 92 3e c1 f1 a3 be
       0.3883185 -0.3390379 0.2866383 -0.3202038
000150 79 b3 c2 3e 61 01 47 be 6e 46 a3 be 29 1d 1a 3e
       0.38027552 -0.1943412 -0.3188967 0.15050186
000160 14 28 b8 be f3 19 d9 3e d7 ba bb 3e a3 74 53 be
       -0.35968077 0.4240261 0.36665985 -0.20649962
000170 5c 7f 96 be 67 8b 94 be 17 61 f4 be cc c1 8e 3e
       -0.29394042 -0.29012606 -0.47730324 0.2788223
000180 9b b1 be 3e 5b 61 88 3e c7 c2 74 3e 8a d9 ad 3e
       0.37244877 0.26636776 0.23902427 0.33955032
000190 8a 3e 69 be f3 1f 20 3e 09 fd 44 3e a7 0c 99 be
       -0.22777763 0.15637188 0.1923715 -0.29892465
0001a0 28 e3 9b 3e a1 9d a2 3e fb 10 d2 3e 7a f3 d1 be
       0.30446744 0.31760886 0.4102858 -0.4100607
0001b0 6a 29 37 be 43 d3 d0 3e 0a 3f 3b be 9e f9 78 3e
       -0.17886892 0.4078618 -0.18285766 0.24313971
0001c0 ca 16 f3 be 50 b4 72 3e 4e f6 bd be a1 91 83 be
       -0.47478324 0.23701596 -0.37101978 -0.25697044
0001d0 c8 ba 31 3e 91 a8 94 3e f0 f2 ac be 68 05 b9 3e
       0.17356408 0.29034856 -0.33779097 0.36136937
0001e0 ac 9f c4 3e 0e fe 76 be 67 65 ad be d0 91 63 3e
       0.3840307 -0.24120352 -0.33866426 0.22223592
0001f0 9b 37 c9 3e be ed db 3e b9 2c 65 be 4b af ca be
       0.39300236 0.4295482 -0.22380342 -0.39586863
000200 1f af 90 3e aa 78 81 3e c3 de 91 3e c4 c9 6b be
       0.28258607 0.25287372 0.28490266 -0.23026186
000210 f7 63 aa be c8 fc 35 3e f0 72 bb be ae d4 3a 3e
       -0.33279392 0.1777221 -0.36611128 0.18245193
000220 5a 95 db be 8e 05 af be da c4 a0 be 24 10 d2 3e
       -0.42887384 -0.34183925 -0.31400186 0.4102794
000230 8d ff 79 be c6 4c 87 3e fc 0d 44 3e a6 27 c0 3e
       -0.24413891 0.2642576 0.1914596 0.3753025
000240 5c 17 cf 3e c3 1d ab be 35 2f 8f 3e 10 da b4 be
       0.4044751 -0.33421144 0.27965704 -0.35322618
000250 21 04 ec 3e 34 3d cf be 94 d7 b6 be e7 ad 59 3e
       0.460969 -0.40476382 -0.35711348 0.21257745
000260 5b 19 aa be 16 5c 96 3e b8 1a 7e 3e ea ad 91 be
       -0.3322247 0.2936713 0.2481488 -0.28452998
000270 7f b2 b5 be cf 04 88 be 30 22 94 be e8 48 a9 3e
       -0.35487744 -0.2656617 -0.28932333 0.33063436
000280 3e aa cc 3e cc 7f ba 3e 0d b6 42 3e 68 fb d5 3e
       0.39973634 0.36425626 0.1901476 0.4179337
000290 a9 d4 d2 be 6e df bc 3e 41 56 76 3e e7 6c b7 be
       -0.41177872 0.36889213 0.24056341 -0.35825273
0002a0 a3 8a bd 3e 59 4a c6 3e e5 29 69 3e a5 8b 98 be
       0.37019834 0.38728598 0.22769888 -0.2979404
0002b0 bd ca 83 be e7 22 9e 3e e7 93 84 be 1a 54 2f 3e
       -0.25740615 0.30886003 -0.2589409 0.17121926
0002c0 64 55 d2 be ec a5 a9 3e a7 70 75 be d3 91 8e be
       -0.41080773 0.331344 -0.23968755 -0.2784563
0002d0 4f e9 64 3e 10 b1 89 3e d6 e4 45 be 4b 69 a4 3e
       0.22354625 0.268929 -0.19325575 0.32111582
0002e0 98 66 99 3e 6a 93 d7 be a3 f3 96 be f9 85 ce 3e
       0.29961085 -0.42104656 -0.29482755 0.40336588
0002f0 40 35 5d 3e 69 23 c3 3e e9 99 7e be 2a 8f 71 be
       0.21602345 0.38112953 -0.248634 -0.23589769
000300 81 85 7e 3e 28 fa c0 3e 63 71 87 3e a5 63 9b be
       0.24855615 0.37690854 0.26453695 -0.3034946
000310 37 d3 74 be 57 72 8b 3e dc e8 24 be c4 c5 a8 3e
       -0.23908697 0.27235672 -0.16104454 0.32963383
000320 0a 82 af be 8c a3 66 be b1 4f 89 be 7d 2a ca 3e
       -0.342789 -0.22523326 -0.26818612 0.3948554
000330 50 4f ad be 92 38 a8 3e 6e 3a c5 3e 53 0d 94 3e
       -0.33849573 0.3285566 0.3852114 0.28916416
000340 6d ab 5d 3e d6 b4 af be fe 0d bf 3e 5b 8e 94 be
       0.21647425 -0.34317654 0.37315363 -0.2901486
000350 46 66 bc 3e 8b 96 47 be ca a5 91 be 93 05 c5 3e
       0.36796778 -0.19491021 -0.284468 0.38480815
000360 dd 52 97 be 8c 57 3d 3e 1c 63 95 3e 0c 12 aa be
       -0.29555407 0.18490428 0.29177177 -0.33216894
000370 bb 87 b8 be 9a d2 9b be 0c 14 b9 be 0b b5 47 3e
       -0.36041054 -0.30434114 -0.36148107 0.19502656
000380 a5 35 e0 3e 20 7e c0 3e da e4 35 3e f3 b7 8f 3e
       0.43790928 0.37596226 0.17763081 0.2807003
000390 62 64 a9 be c1 cc 49 3e 09 ff 90 3e 65 17 af be
       -0.33084399 0.19707014 0.28319576 -0.34197536
0003a0 69 63 c1 3e 60 23 c0 3e b7 b2 c4 3e 90 8e bf be
       0.37771156 0.3752699 0.384176 -0.37413454
0003b0 32 82 af be ec 5d bf 3e 62 f0 5f be e2 6f 94 3e
       -0.3427902 0.37376344 -0.21869043 0.2899161
0003c0 f6 d4 b4 be d9 c0 90 3e 3c 5b 6b be 88 73 ce be
       -0.35318726 0.2827213 -0.22984022 -0.40322518
0003d0 d8 c0 a4 3e e7 83 5d 3e 8c 5a bd be 29 76 c5 3e
       0.32178378 0.21632348 -0.36983144 0.38566712
0003e0 2c 96 8e 3e c1 27 b6 be 3d 95 21 be d5 bb 88 3e
       0.27848947 -0.35577205 -0.15779586 0.26705804
0003f0 4e f1 a5 3e d9 3b aa 3e 10 9f a9 be a1 d2 e1 be
       0.32410663 0.33248785 -0.33129168 -0.4410601

lstm.weight_hh_l1 f4 [256, 64]
000000 a2 6a a8 84 98 2e 8a 02 70 4a d2 2c 27 c5 29 ab
       -3.9594537e-36 2.030402e-37 5.976823e-12 -6.0314465e-13
000010 df 83 dc 0b 67 ca b3 a7 74 4b 38 02 bf ff 53 25
       8.4939335e-32 -4.9901925e-15 1.3539839e-37 1.8387983e-16
000020 c8 82 4a 80 44 9f 36 23 fc b4 80 1a 1b 43 13 84
       -6.842742e-39 9.8999656e-18 5.3231955e-23 -1.731058e-36
000030 6d d8 f0 2a ee 6a 16 84 58 a2 ec 9c 09 f2 1a ae
       4.278274e-13 -1.7681515e-36 -1.5659135e-21 -3.5230516e-11
000040 ba 3c 26 93 fe ac 35 98 a7 96 74 1c 2a 34 a9 84
       -2.0982086e-27 -2.348104e-24 8.092754e-22 -3.9779614e-36
000050 66 b6 a0 1d 5a 7c e3 a6 5e 0a 18 2e c2 fc 13 84
       4.2540243e-21 -1.5784995e-15 3.4570007e-11 -1.7395828e-36
000060 47 17 ab 04 0c 90 c9 8b f8 0a 3d 02 48 ba 0f 04
       4.0223284e-36 -7.763912e-32 1.3888675e-37 1.6895105e-36
000070 27 de d1 98 fe 15 49 19 61 d7 c3 02 3c 71 00 03
       -5.424955e-24 1.0395898e-23 2.8776296e-37 3.7745806e-37
000080 f4 7c d9 0b 8c 2d c7 1d 0f d8 3b 86 31 91 30 10
       8.377337e-32 5.2721956e-21 -3.5329526e-35 3.482173e-29
000090 a0 65 20 80 05 46 7b 92 70 25 e7 82 a5 cc e5 10
       -2.975192e-39 -7.928794e-28 -3.3963887e-37 9.063988e-29
0000a0 c9 97 8a 03 87 10 bf 0d f9 93 0f 84 97 d6 23 8f
       8.145759e-37 1.1775263e-30 -1.6877515e-36 -8.077849e-30
0000b0 6d df e3 a7 23 7a 85 a8 09 66 06 11 5e 76 a5 02
       -6.3247395e-15 -1.4818935e-14 1.0602178e-28 2.431251e-37
0000c0 cc d2 95 25 31 64 05 27 1c c1 24 8d cc a9 5e 22
       2.599022e-16 1.8511772e-15 -5.076885e-31 3.01765e-18
0000d0 e9 fe a8 0d f4 29 fb 02 f5 91 19 af 7f 72 95 9e
       1.0415167e-30 3.6905215e-37 -1.3967123e-10 -1.5823343e-20
0000e0 db a8 9b 04 47 d8 c1 ad 39 c1 b0 a5 bb 7c 6e ac
       3.6595394e-36 -2.2037606e-11 -3.0662066e-16 -3.3891074e-12
0000f0 10 ba 41 ad ca e9 c0 9d c7 7b 35 02 30 ff df 95
       -1.1012094e-11 -5.106371e-21 1.3333302e-37 -9.04716e-26
000100 a9 ab f9 af 8a f3 88 03 fe 58 c0 ae 9d 66 63 2e
       -4.5414808e-10 8.049275e-37 -8.746957e-11 5.1704963e-11
000110 1d 72 20 15 c2 49 b3 82 93 5c 25 8a b9 82 2e 25
       3.2401762e-26 -2.634402e-37 -7.961872e-33 1.5136385e-16
000120 e0 26 16 28 da b8 a1 05 8e 22 0e ac d1 be 34 85
       8.335102e-15 1.5208271e-35 -2.0198595e-12 -8.498607e-36
000130 2e 35 1f 99 a7 ce 3b 29 3d 06 36 03 ae e5 95 03
       -8.230847e-24 4.1701583e-14 5.3492154e-37 8.810165e-37
000140 e7 42 2c a1 b8 72 ba 2d 44 88 48 83 30 16 1b 83
       -5.836441e-19 2.1196697e-11 -5.8931143e-37 -4.5575876e-37
000150 40 31 a9 84 9f 63 1a a3 65 27 b9 a9 9e 4a d6 27
       -3.9776938e-36 -8.369452e-18 -8.222484e-14 5.947783e-15
000160 0a 8e 14 83 cb fd 77 82 9e 14 4a 15 3f 62 88 25
       -4.3656344e-37 -1.8219529e-37 4.080984e-26 2.3658813e-16
000170 bc 2e 86 01 c7 d0 89 03 12 1b 15 84 8e 1a a1 aa
       4.9290886e-38 8.100069e-37 -1.7527296e-36 -2.861777e-13
000180 d8 20 83 8e 41 3e f9 02 5a 31 12 04 a6 d3 55 26
       -3.232562e-30 3.6622994e-37 1.7184879e-36 7.4186057e-16
000190 86 0f fa 01 2f fa 99 0e a5 da b6 0e 2c 14 eb a2
       9.185777e-38 3.795833e-30 4.507701e-30 -6.3718235e-18
0001a0 21 49 7c af 81 6f 63 2e 7d d9 f8 13 c8 20 21 8b
       -2.2945247e-10 5.171286e-11 6.281846e-27 -3.1032134e-32
0001b0 40 fd af ab 78 9d 1b 16 df 4c 06 a7 9c 5b 34 85
       -1.2504789e-12 1.2570489e-25 -1.8637908e-15 -8.480385e-36
0001c0 0e d4 12 84 1d cc a9 04 3c b6 0d 84 e7 bb 65 19
       -1.7259588e-36 3.9919158e-36 -1.6658148e-36 1.1876969e-23
0001d0 c1 40 3a 0f fa c3 10 04 cf 90 95 0b 7f e0 47 ab
       9.182979e-30 1.7017107e-36 5.7610596e-32 -7.1010553e-13
0001e0 10 eb 38 2b fc 26 bd 06 1c b9 61 1d 6b 42 24 8d
       6.5696146e-13 7.115118e-35 2.9874201e-21 -5.061635e-31
0001f0 8d 0b 19 16 b4 24 d5 aa f0 ab b0 29 a5 b9 3d a9
       1.2362886e-25 -3.7861869e-13 7.8457965e-14 -4.212745e-14
000200 57 69 05 2c 71 bb 60 ac 7a 85 4d ad 3d cf b8 05
       1.8958912e-12 -3.1936365e-12 -1.1682539e-11 1.7379404e-35
000210 b4 6c f1 18 47 9b 34 85 ae 14 31 87 4f 53 cd a1
       6.2406802e-24 -8.492079e-36 -1.3322077e-34 -1.3913392e-18
000220 f4 55 28 2d 93 22 8b 07 72 11 0a 03 c7 62 13 04
       9.56878e-12 2.0934716e-34 4.057458e-37 1.7325123e-36
000230 3d 6a ba 0d ef be 8f 1d 24 26 b9 07 76 18 49 ae
       1.1488711e-30 3.8049206e-21 2.7858123e-34 -4.5723834e-11
000240 24 b4 69 a9 a1 10 d2 0c fb cf 20 83 4b 9e 9f 07
       -5.189264e-14 3.2365631e-31 -4.7258524e-37 2.4016697e-34
000250 67 b4 96 03 c3 cf e1 2a e3 1b 0f 16 42 0d bc 1d
       8.857626e-37 4.0112193e-13 1.1560248e-25 4.9776894e-21
000260 fa 17 0e 03 7d 1d 14 04 bf 48 b8 99 9f 78 ab 84
       4.1757573e-37 1.7410857e-36 -1.9054536e-23 -4.031268e-36
000270 e4 62 57 95 a5 e6 0e 04 61 c0 92 0b 54 bd 8c 82
       -4.3496915e-26 1.6797927e-36 5.6526614e-32 -2.067982e-37
000280 cd 80 50 99 7f 47 76 8d 79 58 83 82 54 6c 21 99
       -1.0779359e-23 -7.5890663e-31 -1.92995e-37 -8.3453816e-24
000290 be 45 a9 98 b0 f7 e6 82 5f 22 43 ab 64 90 fa 02
       -4.3755898e-24 -3.3937628e-37 -6.9325616e-13 3.6817075e-37
0002a0 6a a6 a1 25 6e 29 12 9e ca af 1a 01 9c 94 81 83
       2.8041815e-16 -7.737743e-21 2.8411455e-38 -7.616058e-37
0002b0 66 4f ab 87 23 84 06 14 fe 32 05 a9 eb 2c 75 23
       -2.5775887e-34 6.7913305e-27 -2.957616e-14 1.3290988e-17
0002c0 e6 3f fa 23 a8 3f 16 03 8b 18 76 03 34 c8 33 24
       2.7132116e-17 4.415411e-37 7.2321077e-37 3.8984016e-17
0002d0 d2 ab 11 ac af d7 b0 14 69 5d 29 2d e9 61 36 82
       -2.0701119e-12 1.785653e-26 9.627279e-12 -1.3399347e-37
0002e0 78 15 a2 27 93 db e2 86 96 35 99 8e d6 1a 9f 0d
       4.498731e-15 -8.5334387e-35 -3.7769013e-30 9.805592e-31
0002f0 a2 ae 7b 2b ac 88 0f b0 32 09 f8 ad 84 a0 d4 2e
       8.9415465e-13 -5.221732e-10 -2.819842e-11 9.669157e-11
000300 fc 8c 86 01 14 52 00 28 58 09 91 1e c0 a8 aa 04
       4.942613e-38 7.123225e-15 1.5356337e-20 4.012178e-36
000310 9d a6 14 0b e3 81 02 a7 31 f0 e7 2c 6d 81 33 05
       2.862911e-32 -1.8111536e-15 6.5920815e-12 8.440311e-36
000320 9a d3 b0 02 90 4f 00 0f 43 22 54 a7 42 a4 fe 02
       2.598233e-37 6.3262104e-30 -2.9439483e-15 3.7416225e-37
000330 bb 1c c4 1d 00 40 d0 2b c0 7b e1 9e fb 55 83 04
       5.1910475e-21 1.4797052e-12 -2.3873983e-20 3.0876913e-36
000340 be 25 aa 04 3a 48 8a 01 60 89 88 a7 98 8c d4 2d
       4.000147e-36 5.0796834e-38 -3.7896525e-15 2.4164046e-11
000350 2e c7 11 84 9c 05 8a 9d c5 cd 14 aa 10 98 5b af
       -1.7136127e-36 -3.6534096e-21 -1.3216431e-13 -1.9971957e-10
000360 e3 16 77 ad c3 4d a9 18 2a 8a 1b 02 3c 12 62 25
       -1.4045406e-11 4.3763995e-24 1.1427253e-37 1.9608553e-16
000370 a4 fe bc 86 e5 2c a9 84 65 34 b9 05 07 5a 17 a9
       -7.10919e-35 -3.9772938e-36 1.7416563e-35 -3.360682e-14
000380 b4 1a 94 18 19 4d 0f 84 9a 51 c2 17 47 ee 07 03
       3.8284067e-24 -1.684497e-36 1.2557555e-24 3.9946463e-37
000390 b6 41 17 96 4f 49 db 28 ba 70 96 23 a1 54 96 98
       -1.2218418e-25 2.4345677e-14 1.6310774e-17 -3.8859545e-24
0003a0 4b 15 c0 aa a1 f1 09 2a d1 73 e7 03 6a 74 b8 aa
       -3.4120826e-13 1.2251876e-13 1.360355e-36 -3.2765744e-13
0003b0 2d fe 2e 98 f1 df 8b 9d 5f cf cf 10 60 a6 85 82
       -2.2617299e-24 -3.7024544e-21 8.196661e-29 -1.9638088e-37
0003c0 79 36 a9 84 1f 3c b2 0b c9 0d ac 02 2a 9a 93 1d
       -3.9781734e-36 6.8653566e-32 2.528104e-37 3.9069978e-21
0003d0 1a 18 12 03 ea 30 50 8e 11 cf 78 0e 42 6d 8d 03
       4.293321e-37 -2.566153e-30 3.0668059e-30 8.3123195e-37
0003e0 8c 2d ad 0e 21 61 b6 18 3a 06 aa 04 f7 e5 98 03
       4.2691653e-30 4.7143972e-24 3.9972526e-36 8.986554e-37
0003f0 2b 96 b3 83 00 82 b0 a5 07 f6 96 8e 50 cb fb 23
       -1.0555151e-36 -3.0619225e-16 -3.721477e-30 2.729958e-17

lstm.bias_ih_l1 f4 [256]
000000 f3 ed bf 3e 59 54 a7 3e b6 ed b9 3e 3a ff a2 3e
       0.37486228 0.3268154 0.36314172 0.31835347
000010 c8 50 61 3e fd 28 bd 3e 16 08 84 3e b0 1f 34 3e
       0.22003472 0.36945334 0.2578742 0.17590213
000020 d3 97 95 3e 45 04 8d 3e e6 f5 b2 3e f1 22 96 3e
       0.29217395 0.2754232 0.3495323 0.29323533
000030 aa 97 9e 3e ba f8 a6 3e 89 06 80 3e 33 17 cb 3e
       0.30975085 0.32611638 0.25004986 0.39666137
000040 eb 20 ce 3e 13 15 95 3e 1f da 2b 3e d8 67 ba 3e
       0.4025949 0.2911764 0.16782425 0.36407351
000050 35 ce b7 3e b5 60 5b 3e 86 a3 d2 3e 98 9d 5e 3e
       0.3589951 0.2142361 0.41140383 0.21739805
000060 30 03 dc 3e ac 5f 34 3e dc 2b b7 3e 3d 17 96 3e
       0.42971182 0.17614621 0.3577565 0.29314604
000070 dd 7a 86 3e e7 64 5b 3e 83 cc 93 3e ab 2f 6b 3e
       0.26265612 0.2142521 0.28866968 0.22967403
000080 00 ef 86 3e 8a 43 d0 3e d3 ea 1a 3e 08 63 82 3e
       0.26354218 0.40676528 0.15128641 0.2546618
000090 62 32 c4 3e 6f e8 ae 3e 44 ae 3e 3e 56 73 d2 3e
       0.3831969 0.34161708 0.18621165 0.4110362
0000a0 1f 51 b4 3e 41 c1 ac 3e e5 c6 5f 3e c7 2e a0 3e
       0.3521814 0.3374119 0.21853216 0.31285688
0000b0 1b dc 6d 3e 26 ab 79 3e 65 31 ae 3e f8 7d bc 3e
       0.23228495 0.24381694 0.3402206 0.36814857
0000c0 fa 44 c6 3e 80 12 a7 3e 7a ea 4b 3e e7 3d 89 3e
       0.387245 0.32631302 0.19913664 0.2680504
0000d0 b2 ab d3 3e 4e 6d 9f 3e ea 15 8d 3e df a2 a0 3e
       0.4134193 0.3113808 0.27555782 0.3137426
0000e0 28 89 be 3e c8 f3 bd 3e c6 05 ca 3e b2 59 19 3e
       0.37214017 0.37100053 0.3945753 0.14975622
0000f0 e8 1b bb 3e eb 2c 4b 3e c5 65 4a 3e 0a 7c 66 3e
       0.36544728 0.19841354 0.19765384 0.22508255
000100 19 17 6c 07 cb d2 8f a7 ef 50 4c 10 5b cd 82 af
       1.7761454e-34 -3.9919015e-15 4.0294255e-29 -2.3792776e-10
000110 d9 c2 d7 2d 23 b9 a4 8b 57 cd 85 94 a8 db 0a 25
       2.45292e-11 -6.3449065e-32 -1.351056e-26 1.2044014e-16
000120 dc c7 0e 30 79 73 71 82 2e c6 aa 1c 9a f1 a3 07
       5.1943316e-10 -1.7739023e-37 1.1300885e-21 2.4667515e-34
000130 10 5d 9d 95 d0 c4 24 02 fc 68 4a 82 ad bc a9 04
       -6.355862e-26 1.21053e-37 -1.4870745e-37 3.990498e-36
000140 bb ef 3d 2e 47 1f cb 2e 34 5f bd aa f7 31 f7 a9
       4.3186548e-11 9.236927e-11 -3.3639205e-13 -1.0977671e-13
000150 79 0a 51 2d 18 85 d2 8e 82 b5 e7 13 8c 87 33 23
       1.18826e-11 -5.189716e-30 5.849158e-27 9.732313e-18
000160 4c 3b 12 94 93 df c1 af 6b 03 df 15 b0 78 31 00
       -7.3828105e-27 -3.5265355e-10 9.0074375e-26 4.543234e-39
000170 19 0a c7 82 45 3b 43 9e b3 6c 9e 2d f3 60 1a 28
       -2.9246218e-37 -1.0335471e-20 1.8010793e-11 8.56974e-15
000180 4f b0 60 94 86 f7 35 88 06 d9 a3 a4 1e 03 a7 83
       -1.1343881e-26 -5.475867e-34 -7.1057634e-17 -9.8160935e-37
000190 8b 42 20 2d ad 19 80 2f 36 83 f3 12 82 57 85 97
       9.1097225e-12 2.3301308e-10 1.5367802e-27 -8.617014e-25
0001a0 c9 67 91 2f f1 4a 95 9e b2 41 2d ae 49 45 40 a7
       2.644909e-10 -1.5806984e-20 -3.9393995e-11 -2.6682912e-15
0001b0 9b 45 aa 25 18 cc 78 15 c7 80 a6 82 0f d4 0e 84
       2.9537466e-16 5.0244203e-26 -2.4465422e-37 -1.6789392e-36
0001c0 ca 90 bd 82 5c 5d 82 83 1d 19 d3 94 dd d9 8f 83
       -2.785416e-37 -7.6621475e-37 -2.1315461e-26 -8.454804e-37
0001d0 d8 68 64 ac 65 cf ca aa b4 b7 b3 8e 01 01 24 05
       -3.2458949e-12 -3.6026317e-13 -4.4303807e-30 7.711427e-36
0001e0 b2 12 d7 83 95 ac 19 03 00 dd 87 83 6b 19 ef 02
       -1.26408565e-36 4.5160773e-37 -7.985326e-37 3.5132483e-37
0001f0 26 94 30 17 31 aa 36 82 10 55 c4 21 91 08 b5 02
       5.7055657e-25 -1.3420091e-37 1.3303992e-18 2.6600477e-37
000200 6c 6f 89 3e ab 7f 8b bd 6c 38 4f be 97 c8 35 3e
       0.2684282 -0.0681146 -0.20236367 0.177523
000210 08 0f 7a be 18 47 a0 bd 35 fe 91 3e 01 40 e3 bd
       -0.24419796 -0.0782606 0.28514257 -0.11096192
000220 ce a1 05 be 43 24 7c be a0 5a 92 3e bc f7 ed bd
       -0.13050005 -0.24623208 0.28584766 -0.11619517
000230 66 cb 75 3e cd eb 66 be 88 81 4a be b4 fe 73 3e
       0.24003372 -0.22550888 -0.19775975 0.2382763
000240 97 b5 20 3e 85 e4 b5 3d 89 60 01 be eb 2f ee 3d
       0.15694271 0.08881477 -0.12634481 0.116302334
000250 93 c2 3c 3e 9e b2 96 3e 85 27 1f 3e 8c b4 5e 3e
       0.18433599 0.2943315 0.15542419 0.2174856
000260 c4 a0 22 3e 7a 30 9b bd 01 e2 7e 3e c6 44 2e 3e
       0.1588164 -0.075776055 0.24890901 0.17018422
000270 99 fa 80 3e 43 4b 24 be 1a 3f 8b 3e 19 5e 07 be
       0.2519119 -0.16044335 0.2719658 -0.13219489
000280 36 ab 90 3e e0 80 37 3e cd c6 3e 3e 22 9a 0a be
       0.28255624 0.17920256 0.18630524 -0.1353536
000290 5e 27 51 bd 49 ef 36 3e 5c db 82 3e b6 f8 eb bd
       -0.051062934 0.17864718 0.25557983 -0.11522047
0002a0 4c d1 b8 bd f0 34 45 bd d0 c0 c9 bd fd cc 28 3e
       -0.09024295 -0.04814619 -0.09851229 0.16484447
0002b0 ac d4 0f 3e 63 24 ab bd c1 87 f5 bd b7 ba 90 bd
       0.14045972 -0.083565496 -0.11988784 -0.07066863
0002c0 05 05 90 3d 0a 86 06 be 58 a7 84 3e b8 4d 35 3e
       0.070322074 -0.1313707 0.25908923 0.17705429
0002d0 5d 77 b4 bd 44 66 f7 bd 9f 4a 3d 3e db 45 27 3e
       -0.08811829 -0.120800525 0.18485497 0.16335241
0002e0 84 d9 1e 3e 80 8f 6a be 6b f5 61 be 61 a4 23 3d
       0.15512663 -0.22906303 -0.22066276 0.039951686
0002f0 cf e8 b1 bd 2b 5a 81 be bc cc 7d bd de 51 3a 3e
       -0.08686983 -0.25264105 -0.061962828 0.18195292
000300 29 8b 3c 3e 86 6b 45 3e b9 6d 64 3e e6 df cc 3e
       0.1841246 0.19279298 0.22307481 0.4001457
000310 11 a5 66 3e cb b5 9c 3e 70 e0 a0 3e 99 72 89 3e
       0.22523905 0.30607447 0.31421232 0.26845244
000320 a8 6d bf 3e 9b 0e 9e 3e d7 9c 46 3e 4f 36 89 3e
       0.3738835 0.30870518 0.19395767 0.26799247
000330 46 67 9e 3e c3 41 81 3e d9 75 44 3e d9 d3 bd 3e
       0.30938166 0.25245485 0.1918558 0.3707569
000340 cd 52 a5 3e 00 7a 90 3e 2f d8 d4 3e b6 1d 57 3e
       0.32289734 0.2821808 0.41571185 0.21007428
000350 59 27 75 3e a5 19 8c 3e 27 77 b1 3e 2a 34 50 3e
       0.23940791 0.27363315 0.3466122 0.20332399
000360 89 ac c9 3e 7b 0f 39 3e 75 66 85 3e 78 7e 44 3e
       0.39389446 0.18072312 0.2605473 0.19188869
000370 c2 87 d0 3e 0b 8e ab 3e 58 b5 b1 3e bc ae a4 3e
       0.40728575 0.33506808 0.34708667 0.32164562
000380 dc 5b e5 3e 8c b5 8e 3e 06 9c 27 3e 44 5e 4e 3e
       0.44796646 0.27872884 0.16368112 0.20153147
000390 d3 f7 c1 3e 9e 91 9c 3e 66 b8 e1 3e 8b 10 b5 3e
       0.37884387 0.30579847 0.44085997 0.35364184
0003a0 3c d4 9e 3e 81 f8 da 3e 8c 07 ce 3e c2 78 a0 3e
       0.31021297 0.42767718 0.40240133 0.3134213
0003b0 66 81 b0 3e ad 10 9d 3e 9e 96 af 3e 4a 3f d8 3e
       0.34473723 0.30676785 0.342946 0.42235786
0003c0 bb eb 86 3e 16 e4 af 3e 84 95 4a 3e fc a6 7b 3e
       0.26351723 0.34353703 0.19783598 0.24575418
0003d0 99 20 ab 3e f4 e8 7d 3e 80 6f 6e 3e 5e 4b d4 3e
       0.33423308 0.24795896 0.23284721 0.4146375
0003e0 bb 41 bb 3e 0f 1b 8b 3e ca 30 a4 3e d5 58 7b 3e
       0.36573586 0.27169082 0.32068473 0.24545605
0003f0 c0 2a 6e 3e cb 53 cb 3e d9 da be 3e fa 40 b1 3e
       0.23258495 0.39712366 0.37276343 0.34619886
