model_checkpoints/model_epoch_140.pth (torch, 233384 bytes, 9 tensors)

lstm.weight_ih_l0 f4 [256, 28]
000000 d9 95 a1 be eb 31 20 3e e9 7c 6b be 39 a1 c5 3d
       -0.31559637 0.15644042 -0.22996868 0.096498914
000010 11 0b 8c 3e 4d 68 f8 bd 90 4e dd bc 19 e9 c1 39
       0.27352193 -0.12129269 -0.027015 0.000369855
000020 37 75 e9 bd ba 0e 2a bd 76 1a a1 be 42 fe 7c be
       -0.1139931 -0.04151795 -0.314655 -0.24706367
000030 10 70 63 be de 8b 7e be 28 6e 57 be d1 35 6d be
       -0.22210717 -0.24858043 -0.21038115 -0.2316506
000040 03 0c 8b be 51 07 09 be d1 61 73 be ec 94 1d be
       -0.27157602 -0.13381697 -0.23767783 -0.1538884
000050 4e eb e5 3d f2 5e c8 bc cf 1f 33 3e 61 9a 0f 3e
       0.112265214 -0.024459336 0.17492603 0.14023735
000060 22 1f 94 bd 21 e4 35 be c4 d4 1d 3d bb d5 84 be
       -0.072325006 -0.17762806 0.038532987 -0.25944313
000070 6a 3f 2c be 02 90 5d 3e e5 8a 7f be 9f f7 92 3d
       -0.16821066 0.21636966 -0.24955328 0.07176136
000080 54 0b af 3e f4 bf a4 bd 80 56 4e bd 2f d9 0d be
       0.3418833 -0.08044425 -0.05037546 -0.1385238
000090 bf c8 18 bd ee 4e 0e be 5a bd 0b be f0 a1 50 be
       -0.03730082 -0.13897297 -0.1364645 -0.20374274
0000a0 3c 7e 6e be 40 a0 56 be 7d b2 32 be ec 66 53 be
       -0.23290342 -0.20959568 -0.174509 -0.2064473
0000b0 6d d1 8f be 11 51 32 be 7b df a2 be 44 cd 7d be
       -0.28089467 -0.17413737 -0.31811127 -0.24785334
0000c0 b7 ad c9 3d bb f7 4b 3e 1c 3a ac bd 3f ee fe 3b
       0.098475866 0.1991872 -0.08409521 0.007779866
0000d0 d2 6b 9c bd a8 bf eb bc 65 1c 7b bd e1 99 cb be
       -0.076377526 -0.028777912 -0.061306376 -0.39765838
0000e0 95 15 5d 3e 82 65 8c bd 62 bb 88 bd d1 e1 2a 3d
       0.21590264 -0.068552986 -0.066763654 0.04171926
0000f0 3d 50 74 be 69 51 03 3c 6c 02 22 be 50 55 18 bd
       -0.23858733 0.008015015 -0.15821236 -0.037190735
000100 c5 2a b2 3d 6d b8 a4 bd e2 35 86 3e 7f bc a9 3e
       0.08699564 -0.08042989 0.26212984 0.33151624
000110 a5 f7 ff 3d 19 d3 38 3e 66 00 15 3e 40 6d 15 3e
       0.12498406 0.18049277 0.14550933 0.14592457
000120 ea 67 3d 3e dc 07 43 3e fc 4f a5 3e 35 8a a8 3e
       0.18496671 0.19045967 0.32287586 0.32917944
000130 9c 0c 06 be 6c 35 ff bd 1f f6 a8 3c 17 00 b3 3d
       -0.13090748 -0.12461361 0.020625172 0.087402515
000140 d5 e2 fe bc ea fd 50 3e 8a 51 a1 3e 6e 12 01 3e
       -0.031114021 0.2040936 0.31507522 0.12604687
000150 68 f8 98 be 51 b8 02 3e 04 db a4 be 8a 18 27 3e
       -0.2987702 0.12765624 -0.32198346 0.16317955
000160 21 8e 3c 3e 16 c1 01 bd c4 bb 07 bd d3 b9 c8 3d
       0.18413593 -0.03167828 -0.03313805 0.09801068
000170 25 e5 7a bd 94 b2 0d bd d5 81 87 be 71 df 8c be
       -0.061253686 -0.034594133 -0.2646624 -0.27514222
000180 6c 02 a2 be 0d 06 80 be 19 87 09 be 4c ec 6d be
       -0.31642473 -0.25004616 -0.13430442 -0.23234671
000190 e1 c2 9d be 48 a0 15 be 3b 2c dc bd 66 95 7f be
       -0.30812743 -0.14611924 -0.10750624 -0.24959335
0001a0 25 77 10 3e 54 2c 28 3d aa 91 88 bc 68 66 f5 bd
       0.1410795 0.0410579 -0.01667102 -0.11982423
0001b0 4a 36 0f be c7 db 77 3c e2 10 ac bd 8c 10 da be
       -0.13985553 0.015128083 -0.08401658 -0.4259075
0001c0 dd 8d 2d 3e 2d af 4f be c8 e1 13 bb e1 5a 3e be
       0.16948648 -0.20281668 -0.0022564996 -0.18589355
0001d0 a3 f6 da bc 0a 8e 9b bd 2a 7f 6d 3d 87 e2 1d 3d
       -0.026728934 -0.07595451 0.0579826 0.03854611
0001e0 e0 55 a2 bd 82 eb 4f 3c 88 48 50 3e 93 03 58 3e
       -0.079265356 0.012690427 0.20340168 0.21095113
0001f0 18 0d b0 3e fb 3e 3d 3e 3d e7 3a 3e 89 1d ad 3e
       0.3438499 0.18481056 0.18252273 0.33811596
000200 74 98 27 3e 33 9f 7f 3e ab b9 a3 3e 29 2d a0 3e
       0.1636675 0.24963073 0.3197759 0.31284454
000210 64 7b ce 3d 98 15 ba 3d 3f 0a f6 bd 2d 44 cb bd
       0.10082129 0.0908615 -0.12013673 -0.09925113
000220 a8 f8 17 be d1 9e 5c 3e 91 de 54 bc f6 c1 5b bd
       -0.14840949 0.21544959 -0.012992517 -0.053651772
000230 7a 34 87 3e 88 17 67 bc 8b c2 69 bc 63 c2 03 3d
       0.26407224 -0.014104731 -0.014267574 0.032167803
000240 df 3b 50 bd 4d 94 f7 bd 2d b7 02 be aa 23 19 bd
       -0.050838348 -0.12088833 -0.12765189 -0.037387528
000250 af 90 65 3d b1 5b 4c bd 65 54 52 3e 96 0e 7b 3e
       0.056046184 -0.04989213 0.20540006 0.24517283
000260 ef fb 5e 3e 87 3b 3a 3e 4f ce 1c 3e 32 5a 70 3e
       0.21775793 0.1818677 0.15313075 0.23471907
000270 d0 4d 2f 3e 3a 14 29 3e 64 ce 2e 3e ca ae f2 3d
       0.17119527 0.16511622 0.1707092 0.118497446
000280 90 e6 0a 3d 0a 4f 04 be b4 61 59 3d 8c 94 29 bd
       0.033911288 -0.12920776 0.053071693 -0.04140143
000290 62 46 d7 3c f3 cb 4b 3e 45 18 84 3e af 34 5f 3d
       0.026278678 0.19902019 0.25799766 0.054493602
0002a0 ec 2d 77 3e cb 7a 1f bc f9 b4 21 3d 57 65 67 bc
       0.24138612 -0.009733866 0.03947923 -0.014123282
0002b0 af c0 69 be f2 f3 3a bc 8d aa 8f bd c7 2a e3 3c
       -0.22827409 -0.0114107 -0.07014952 0.027730359
0002c0 5b f9 12 bd a6 36 50 3d 48 50 a6 3e 95 42 a8 3e
       -0.035882335 0.050833367 0.32483125 0.32863298
0002d0 ef f9 6e 3e ab 2b a8 3e e5 ae 85 3e ae f7 73 3e
       0.2333753 0.32845816 0.26109996 0.23824951
0002e0 7b 71 0e 3e f4 89 ae 3e 14 62 28 3e 6a 7f 80 3e
       0.13910477 0.34089625 0.16443664 0.2509721
0002f0 15 1b 80 bd dd 6a b7 bb c9 41 aa bd 9c d8 6f 3c
       -0.062551655 -0.005597456 -0.08313329 0.014639046
000300 1e 05 67 3d a5 a8 b7 3e 22 e4 8c 3e 7f a5 1f 3e
       0.056401365 0.35870853 0.27517802 0.15590475
000310 78 c5 f7 3d f4 97 41 bd 67 c6 0a 3d d9 63 22 3e
       0.12098211 -0.047264054 0.033880617 0.15858401
000320 91 79 88 be 4c df 80 bd 92 58 d3 bd 7d 7d ff bd
       -0.26655248 -0.062925905 -0.10319628 -0.12475107
000330 14 dd 2e bd 24 b3 9b bd 84 ff 69 3e 23 c3 50 3e
       -0.042691305 -0.07602528 0.22851378 0.20386939
000340 59 cc 1c 3e ac 7c 63 3e 3f a0 31 3e 3b 7f 81 3e
       0.15312327 0.22215527 0.17346285 0.25292382
000350 93 d1 80 3e 46 0f 68 3e cf 0c a3 3e 52 4f b1 3d
       0.25159892 0.22662076 0.3184571 0.08657707
000360 5a 65 f7 bd 5c 40 6a be e1 0f 67 3d 94 6a 12 3d
       -0.12079878 -0.22876114 0.056411628 0.035746172
000370 27 d0 db bc d6 b1 c0 3e 95 66 b0 3e 75 f6 28 3e
       -0.026832653 0.37635678 0.34453264 0.16500266
000380 10 9f e6 bd 70 73 56 3e d9 78 3a be f1 d4 18 3d
       -0.112608075 0.20942473 -0.18210162 0.03731245
000390 12 03 99 3e e8 bf 23 be 4d 89 22 3c b3 e4 43 3c
       0.29885155 -0.15991175 0.00992043 0.011956382
0003a0 4d ca 4d 3d d6 62 69 bd 34 07 8a be f5 f6 51 be
       0.050241757 -0.056979023 -0.2695862 -0.20504363
0003b0 a5 66 c1 bd f4 8a 81 be ed 93 84 be 26 07 5f be
       -0.09443406 -0.25301325 -0.25894108 -0.2178007
0003c0 fd 44 21 be 51 3f a0 be cf 53 12 be f8 d5 e3 bd
       -0.15748973 -0.31298307 -0.14289783 -0.11124796
0003d0 cd 21 05 3b a6 10 77 3e 81 72 98 bc 19 48 6c 3b
       0.0020314336 0.24127445 -0.018609287 0.0036053716
0003e0 09 9c 37 be a2 f1 10 bd 5d df 03 be 22 cd e0 be
       -0.17930616 -0.03538669 -0.12878175 -0.43906504
0003f0 f2 26 83 3e 81 83 0a bd f8 22 cb bc 49 10 1e 3e
       0.2561565 -0.03381682 -0.024796948 0.154359

lstm.weight_hh_l0 f4 [256, 64]
000000 43 ce b9 87 94 65 76 03 fc 95 6b 88 22 cb 52 81
       -2.7956936e-34 7.240951e-37 -7.0894046e-34 -3.871665e-38
000010 88 17 09 24 ab b5 ca 1c 1d e7 e3 a0 00 e4 7b 03
       2.972707e-17 1.3414199e-21 -3.8608234e-19 7.4024e-37
000020 62 8f d8 ab 89 13 fb 84 b9 73 7e 02 ff cf a0 a1
       -1.538752e-12 -5.9027757e-36 1.8694184e-37 -1.0897078e-18
000030 59 93 bb 9b 1a ab 49 02 54 a2 bd 2f b4 87 56 03
       -3.1031776e-22 1.4816252e-37 3.449424e-10 6.3044727e-37
000040 4f a0 08 8d 88 cb a7 04 2d 90 48 2f fe 18 27 05
       -4.21012e-31 3.9448425e-36 1.8241116e-10 7.8568926e-36
000050 fe 82 60 a5 66 6d a6 ac 83 2a b1 0d d7 6f e6 2e
       -1.9473285e-16 -4.7301494e-12 1.09187015e-30 1.0479056e-10
000060 ae 2a 7c 9a 1e 7f 8c 2f 57 3a 41 0f dc 93 40 81
       -5.2146855e-23 2.5556174e-10 9.5268705e-30 -3.5370914e-38
000070 5a 7c d5 ae 39 b5 8e 07 cc e6 9a 98 36 1f bc 29
       -9.708208e-11 2.1472298e-34 -4.0041112e-24 8.3542914e-14
000080 cb 7f d8 15 14 77 d5 02 1d 37 f9 01 c4 4c f3 83
       8.744333e-26 3.1365885e-37 9.154724e-38 -1.4299881e-36
000090 58 d5 b2 13 5e 44 82 83 c0 8d a8 04 7f db 8d 82
       4.514389e-27 -7.65641e-37 3.9626787e-36 -2.0844073e-37
0000a0 2d 38 06 a3 7f 2b 22 2f de 74 91 a4 a4 da e2 87
       -7.27605e-18 1.4749267e-10 -6.308171e-17 -3.4133206e-34
0000b0 81 1a ca 1d c3 1b a5 8d a7 c8 49 0f 18 ec af ae
       5.349636e-21 -1.01755935e-30 9.948709e-30 -8.000017e-11
0000c0 83 f2 07 8b e2 57 b9 85 25 3c c5 82 45 c1 09 2c
       -2.61825e-32 -1.74296e-35 -2.898107e-37 1.9576157e-12
0000d0 e5 24 a5 a4 11 61 c1 1b 87 24 9c 82 1d 11 64 99
       -7.1619845e-17 3.19919e-22 -2.2943106e-37 -1.179078e-23
0000e0 52 83 49 0e 5e 5f 22 83 6a a4 1e 03 43 a7 a3 9d
       2.4838391e-30 -4.7716997e-37 4.6620765e-37 -4.3318685e-21
0000f0 90 e7 ae 0d 50 83 a2 82 fe 7b 80 8f 24 76 8f 1e
       1.0779325e-30 -2.387913e-37 -1.2669535e-29 1.5189576e-20
000100 d0 4a 34 83 92 a8 c1 2b 17 41 c7 9d 22 5a 55 83
       -5.2983126e-37 1.3760262e-12 -5.2742163e-21 -6.269854e-37
000110 6a 5d e6 2e df 89 b2 2b e0 15 b5 92 ea 5c dd 82
       1.0475783e-10 1.2685928e-12 -1.14280985e-27 -3.2526361e-37
000120 47 12 de 93 f6 2c a4 03 bd 75 06 0f ea f3 91 9e
       -5.60587e-27 9.649376e-37 6.629386e-30 -1.5453353e-20
000130 7d 9a 44 27 e7 34 b0 2f a8 de 18 30 51 be a6 2c
       2.7284212e-15 3.2051803e-10 5.561369e-10 4.739133e-12
000140 06 d9 ae a5 a9 72 fa ab c9 3f ad 2b 38 3e 89 ae
       -3.033125e-16 -1.7795393e-12 1.2310093e-12 -6.241091e-11
000150 79 5a b7 01 3b 18 62 0a bc 74 8a 2b 92 76 e3 17
       6.7353405e-38 1.08860614e-32 9.83789e-13 1.4699463e-24
000160 56 78 79 83 8c 7c 1b 04 48 a2 82 82 b8 05 70 83
       -7.331266e-37 1.8277352e-36 -1.9194928e-37 -7.0536226e-37
000170 e2 9d 28 14 14 9f 10 99 cd b4 89 9d ba b4 b4 15
       8.512969e-27 -7.476751e-24 -3.645054e-21 7.298656e-26
000180 86 27 32 1d 5b e8 96 27 a0 0a 65 99 81 4f 02 83
       2.3578537e-21 4.1885284e-15 -1.1841168e-23 -3.8294832e-37
000190 5d 97 04 8a ba f3 86 24 2e c2 0c 83 0d 34 9a 81
       -6.384037e-33 5.8526125e-17 -4.136521e-37 -5.6645355e-38
0001a0 1f 30 82 1e be 5d 38 99 e6 a7 2c 03 7c 52 bc 9d
       1.3784188e-20 -9.531508e-24 5.0738995e-37 -4.9848472e-21
0001b0 8b 17 ec a4 f8 b4 a9 84 13 64 ac 1d f4 90 1d 23
       -1.0238857e-16 -3.9897903e-36 4.5631495e-21 8.541682e-18
0001c0 d3 43 80 ad 02 bf 12 ae 44 3b 74 81 5a a0 68 24
       -1.4582035e-11 -3.3366206e-11 -4.4858243e-38 5.0442804e-17
0001d0 0e 1e 9d 28 de a4 13 84 ec 75 2d 0f 7b e5 90 83
       1.7443536e-14 -1.735547e-36 8.5522695e-30 -8.5162455e-37
0001e0 87 7a a9 04 58 d6 1f 2a 24 0a a0 95 b3 e0 eb 2f
       3.9844233e-36 1.4196402e-13 -6.4639484e-26 4.290591e-10
0001f0 a8 25 af 2f 61 34 fc a7 9e a8 09 82 3c 59 b5 06
       3.185907e-10 -7.000084e-15 -1.0113561e-37 6.821575e-35
000200 2b 0b 11 04 fa 37 34 02 50 58 5a 28 e1 73 c4 82
       1.7049796e-36 1.3240376e-37 1.2120581e-14 -2.8866123e-37
000210 73 70 a6 16 1a 76 7e 95 12 1a 93 23 04 4b 5f 95
       2.6889712e-25 -5.1388057e-26 1.5948813e-17 -4.5093668e-26
000220 14 6f 16 0f 98 3a e1 2c 3e 1c d7 84 85 16 b5 8d
       7.416964e-30 6.40139e-12 -5.0572193e-36 -1.1160408e-30
000230 b5 a2 9e 97 28 c2 c1 1d 09 6f 15 ad 58 76 13 84
       -1.0251584e-24 5.1287427e-21 -8.494324e-12 -1.7334108e-36
000240 e6 de 28 14 c6 43 9b 29 f4 bd f9 02 79 1f 62 a5
       8.5257914e-27 6.8951396e-14 3.669629e-37 -1.9613039e-16
000250 23 08 a9 04 a1 a5 10 05 b5 ea 02 a9 b8 93 e5 98
       3.973918e-36 6.801269e-36 -2.9069375e-14 -5.934427e-24
000260 12 23 ac 2f 08 47 5d 81 28 ee 9a 81 89 7b d9 ac
       3.1311537e-10 -4.0642252e-38 -5.6912403e-38 -6.181226e-12
000270 33 d1 0e 84 ea fe 57 2f ca d2 0f 2c b2 83 04 03
       -1.678808e-36 1.96447e-10 2.0438534e-12 3.8942492e-37
000280 4b 38 09 2c 3a fb 01 96 84 65 5e 95 a5 d3 1d 84
       1.950012e-12 -1.049981e-25 -4.4912625e-26 -1.8552444e-36
000290 20 ba 7c 88 90 d1 a9 04 5e 8e a5 af b8 ab e6 24
       -7.605228e-34 3.9924162e-36 -3.0114483e-10 1.000375e-16
0002a0 ae 1a a2 a8 be 1a a9 04 24 df 8d 83 92 48 5c 9d
       -1.7997183e-14 3.9756268e-36 -8.338466e-37 -2.9154276e-21
0002b0 45 a9 6d 19 cc e8 64 28 98 17 1b 11 21 ae e6 20
       1.22867965e-23 1.2707022e-14 1.2234614e-28 3.9078744e-19
0002c0 d4 d3 14 a1 26 29 3b 82 fe 75 c2 0e 10 58 75 2b
       -5.0424703e-19 -1.3750399e-37 4.7938315e-30 8.7163696e-13
0002d0 6b 72 8f 14 41 cc 22 8f 82 65 ac 01 b2 9d af 89
       1.448444e-26 -8.0265545e-30 6.332848e-38 -4.2278013e-33
0002e0 b1 32 b9 85 6e 69 9d 83 fc f5 9f 04 ee ad 27 83
       -1.7415937e-35 -9.251836e-37 3.760662e-36 -4.927655e-37
0002f0 90 5c ce 02 b1 21 3a 1c 8d 90 62 9b 87 75 07 02
       3.0322108e-37 6.1585783e-22 -1.8740989e-22 9.951962e-38
000300 4e ad 12 84 07 70 81 82 4c 57 b9 2f 5b 82 cc af
       -1.7241795e-36 -1.9019147e-37 3.3713332e-10 -3.7200007e-10
000310 8c a4 57 19 63 dc a1 2f a7 81 b8 83 aa b1 a1 2f
       1.11484695e-23 2.9442324e-10 -1.0844315e-36 2.9411967e-10
000320 ad 7a 78 82 0d 33 0f ad a4 b7 b1 82 d4 e7 51 83
       -1.8255369e-37 -8.1399444e-12 -2.6113217e-37 -6.1685705e-37
000330 59 cd 51 25 e9 31 37 0a 9c 30 10 96 88 69 56 90
       1.8197435e-16 8.8205166e-33 -1.1647566e-25 -4.2285357e-29
000340 da df 69 8d f6 81 b4 02 d4 78 c4 8b ba 53 00 81
       -7.206812e-31 2.6523217e-37 -7.5678256e-32 -2.3569958e-38
000350 e3 f0 21 af 72 5a bb 14 78 c7 97 1e 16 91 13 82
       -1.4728445e-10 1.8917849e-26 1.6070245e-20 -1.0841492e-37
000360 08 f2 af 18 2f 38 9e 2e 39 00 0f 04 55 57 a1 04
       4.548083e-24 7.1949884e-11 1.6809671e-36 3.793112e-36
000370 82 3c c3 90 d1 c7 df a9 e5 0d 8f 03 32 c6 23 83
       -7.7007165e-29 -9.937852e-14 8.407975e-37 -4.812891e-37
000380 ad 0e c7 ab a6 25 ea 18 62 9c df 1f ce d4 8b 82
       -1.4143874e-12 6.0525597e-24 9.470289e-20 -2.0546358e-37
000390 42 e6 fc ac 1c 92 6b 9b 79 f9 83 25 12 1f aa 84
       -7.1878345e-12 -1.9485955e-22 2.2893927e-16 -3.999534e-36
0003a0 56 41 cb 81 f0 a3 59 2e 10 86 a2 0b f7 71 b9 1d
       -7.4664175e-38 4.9485693e-11 6.2601845e-32 4.908693e-21
0003b0 aa 4b 1a 2e 18 a4 51 14 99 22 16 a5 9e c6 ac 8b
       3.508275e-11 1.0584165e-26 -1.3022148e-16 -6.6550836e-32
0003c0 23 dd 1a 96 ba 0b 45 14 b2 43 be 81 80 21 b9 85
       -1.2509799e-25 9.948271e-27 -6.9892115e-38 -1.7409622e-35
0003d0 ae 20 0f 04 76 9b b0 9d d1 a2 a2 25 ce df 0f 84
       1.6824575e-36 -4.6747555e-21 2.821285e-16 -1.6912335e-36
0003e0 26 47 34 85 b3 70 1c 18 32 6e 83 83 2e 03 d5 84
       -8.476627e-36 2.0219426e-24 -7.724788e-37 -5.007898e-36
0003f0 30 1b 7a 10 97 04 d1 a0 00 c4 16 15 5d e5 9b 8b
       4.932475e-29 -3.5409014e-19 3.0446875e-26 -6.0048936e-32

lstm.bias_ih_l0 f4 [256]
000000 89 7d a0 3e 41 10 c4 3e 62 40 77 3e b6 63 be 3e
       0.31345776 0.3829365 0.24145654 0.37185448
000010 54 c9 eb 3e 72 36 e0 3e f8 ad 83 3e 3f cd 7e 3e
       0.4605204 0.43791538 0.25718665 0.24882983
000020 85 bf d6 3e 71 2e ea 3e 85 dc de 3e c9 ff 8c 3e
       0.41942993 0.45738557 0.43527618 0.275389
000030 ab 90 b7 3e 9e 60 b4 3e 7a ea cd 3e e6 90 e5 3e
       0.3585256 0.35229963 0.40217954 0.4483711
000040 ba b6 9e 3e f0 2e e2 3e bf 1e b1 3e 40 29 d1 3e
       0.30998784 0.44176435 0.3459377 0.40851784
000050 0d 2f 8b 3e 06 88 ae 3e 86 b1 ee 3e 6b 89 93 3e
       0.27184334 0.34088153 0.46619815 0.2881578
000060 c8 a5 8a 3e 63 1d c2 3e 6a 7a 8e 3e f0 e6 b3 3e
       0.27079606 0.37913045 0.2782777 0.3513713
000070 7d 9c cd 3e 22 8e ed 3e 34 f9 ba 3e 0f b6 9e 3e
       0.40158454 0.463975 0.36518252 0.30998275
000080 ff 01 df 3e 50 50 ca 3e 31 3b f2 3e 23 3c 9a 3e
       0.4355621 0.395144 0.47310784 0.30124006
000090 1c a5 86 3e 7d 37 d9 3e 55 f0 b1 3e 0e 62 90 3e
       0.26297843 0.42425147 0.3475367 0.2819981
0000a0 17 46 e5 3e 27 55 e0 3e 84 b4 b7 3e a3 de 9c 3e
       0.44780037 0.43814966 0.3587991 0.30638608
0000b0 f4 ae cb 3e aa b5 92 3e 10 41 8c 3e 3c d2 af 3e
       0.39781916 0.28654224 0.2739339 0.34340084
0000c0 93 d5 cb 3e 63 7d 82 3e 80 c9 a9 3e 89 1b e2 3e
       0.39811382 0.25486287 0.33161545 0.44161633
0000d0 c4 eb f8 3e 45 5d 01 3f 9b 78 d8 3e 15 0e d0 3e
       0.48617375 0.50532943 0.42279515 0.40635744
0000e0 3c ca f7 3e 13 38 b5 3e c6 e8 82 3e 0f 17 e7 3e
       0.4839648 0.35394344 0.25568217 0.4513478
0000f0 47 66 aa 3e 96 10 aa 3e 9d 8d 7d 3e ec 42 db 3e
       0.33281156 0.3321578 0.24761052 0.42824495
000100 5c 06 ab 84 f1 f0 5e 8e 1e 3d 34 05 5b 77 5d 8e
       -4.0207747e-36 -2.7479622e-30 8.474785e-36 -2.729782e-30
000110 11 ee 57 2e 8d 4a 7e 0e 78 7a 52 ae 1a 77 fb 82
       4.9096786e-11 3.1343812e-30 -4.7857246e-11 -3.6949496e-37
000120 e8 07 e1 02 61 42 d9 23 19 0e da 92 db bd e3 2b
       3.3065317e-37 2.35553e-17 -1.376121e-27 1.6182016e-12
000130 bc a4 63 13 75 54 74 ac 90 b9 88 20 f3 ef 00 19
       2.8732648e-27 -3.4721369e-12 2.316209e-19 6.665902e-24
000140 aa 9e 31 19 78 17 1a 30 fc 9b 10 ae 6c 79 3a 2c
       9.1827275e-24 5.6058225e-10 -3.288035e-11 2.6499592e-12
000150 43 58 94 14 3a 78 34 85 ab ab b5 8b 76 5c a9 83
       1.4978994e-26 -8.4856415e-36 -6.997696e-32 -9.954155e-37
000160 3b 0d 97 a3 eb 1d d1 2d 09 57 07 8c 70 14 af ad
       -1.6377056e-17 2.3773835e-11 -1.0426213e-31 -1.9904273e-11
000170 13 e2 3f 03 57 c1 0f 16 81 a9 a6 2b 01 fa 56 2e
       5.6389376e-37 1.1612455e-25 1.1842056e-12 4.8880015e-11
000180 34 87 56 2f 11 cc 0c 04 d4 b7 25 83 54 95 8f ab
       1.951122e-10 1.6550624e-36 -4.8700166e-37 -1.0202208e-12
000190 16 4a 67 a9 c6 ab 9d 83 26 d9 8b 28 c6 f0 b9 24
       -5.1356563e-14 -9.267068e-37 1.5526273e-14 8.063885e-17
0001a0 68 d3 e9 a9 68 c2 2b 2f be 3e 9b af f9 2d 12 30
       -1.0383952e-13 1.5621426e-10 -2.8238917e-10 5.317982e-10
0001b0 d9 99 33 05 60 b7 95 0d 91 00 69 2d 43 9d 90 0b
       8.444797e-36 9.22698e-31 1.3244642e-11 5.5703404e-32
0001c0 52 a1 7a 25 b4 c4 b3 87 3a 54 ae 1d 40 39 b1 95
       2.1738701e-16 -2.7048538e-34 4.6144505e-21 -7.1580055e-26
0001d0 da 50 06 2d 9b 08 07 18 74 d1 11 04 43 f3 e7 0d
       7.634971e-12 1.7452686e-24 1.7140844e-36 1.4295037e-30
0001e0 ec f4 51 0e fd a5 2f 85 dc 55 f6 82 25 1a f2 82
       2.5879165e-30 -8.258948e-36 -3.6195732e-37 -3.557371e-37
0001f0 9f bb e2 96 6f fc f9 94 06 a3 25 2c 24 af 7d 80
       -3.6630675e-25 -2.5242142e-26 2.3538406e-12 -1.1542266e-38
000200 34 96 e8 3e 43 76 af 3e be 68 d7 3e f8 94 a0 be
       0.45427096 0.34269914 0.420721 -0.31363654
000210 19 d6 ae be d2 23 e7 3e f8 59 c2 be 60 16 a9 3e
       -0.3414772 0.45144516 -0.37959266 0.33024883
000220 fc 2e dd be 3f 6c d2 be 55 fd 9c be e5 5a bb 3e
       -0.4319991 -0.4109821 -0.30662027 0.36592785
000230 e2 53 be be 5b 87 88 3e e3 4e b9 3e 3c 49 dc 3e
       -0.37173373 0.26665768 0.36192998 0.43024623
000240 3c de db 3e fa 6d 99 be 80 98 e3 3e 78 42 da be
       0.4294299 -0.29966718 0.44452286 -0.42628837
000250 c7 3f c3 3e 30 7e 93 be 75 81 d0 be 33 d0 d9 3e
       0.38134596 -0.2880721 -0.40723768 0.42541656
000260 1a 23 8e be d0 af e0 3e bc 4d d8 3e dd eb a3 be
       -0.27761155 0.43884134 0.42246807 -0.32015887
000270 6b 02 87 be dd c2 94 be ad 66 dc be 66 0a c2 3e
       -0.26369032 -0.2905492 -0.43047085 0.37898558
000280 e0 a1 b0 3e f0 47 a3 3e f3 29 de 3e ee 6d 81 3e
       0.344985 0.3189082 0.4339138 0.25279182
000290 f1 b0 d6 be a9 a1 bc 3e 22 ea 98 3e 6d 4d ba be
       -0.4193187 0.36842087 0.2986613 -0.36387196
0002a0 e8 eb bc 3e bc 0b e0 3e ea 87 dc 3e 41 c9 8f be
       0.36898732 0.43758953 0.43072444 -0.28083232
0002b0 8a a4 c2 be b5 a8 a5 3e b3 f0 ab be 74 55 a1 3e
       -0.38016158 0.32355276 -0.33582076 0.31510508
0002c0 29 4a e3 be 8f 38 d8 3e 55 53 db be ac 5f db be
       -0.44392517 0.4223065 -0.42837015 -0.4284643
0002d0 80 80 d5 3e 9a 1f e4 3e e0 eb 9f be 89 52 8a 3e
       0.416996 0.4455536 -0.31234646 0.27016094
0002e0 88 ba d8 3e ae f3 c3 be 0a f5 d4 be 53 e7 ba 3e
       0.42329812 -0.3827185 -0.415932 0.3650461
0002f0 29 bc e0 3e 04 80 b0 3e 96 72 bb be b6 6e b7 be
       0.43893555 0.34472668 -0.3661086 -0.35826653
000300 b6 c0 ae 3e 26 72 c2 3e 5b 00 7e 3e 09 4d f8 3e
       0.34131402 0.37977713 0.24804823 0.48496273
000310 75 f8 ea 3e 67 6b ed 3e 81 23 ea 3e ea 2a a2 3e
       0.45892683 0.46371004 0.45730212 0.31673366
000320 17 da be 3e 2c ad 92 3e 7f 71 80 3e 9f c2 9c 3e
       0.37275764 0.28647745 0.2508659 0.30617234
000330 83 7c b1 3e 24 a3 4c 3e 90 14 ef 3e b6 40 97 3e
       0.34665307 0.19984108 0.46695375 0.29541558
000340 c7 85 ce 3e c4 29 9e 3e f6 b3 d2 3e 2e aa dd 3e
       0.4033644 0.3089124 0.41152924 0.432939
000350 ca 40 7f 3e 5f 81 e1 3e e4 6f dc 3e f7 19 cc 3e
       0.24927059 0.44044015 0.43054116 0.3986356
000360 49 b6 b5 3e 2d 9a 02 3f 87 d8 c7 3e 4f 55 f3 3e
       0.35490635 0.51016504 0.39032385 0.47526023
000370 1f 7b e4 3e 7d 14 84 3e 41 4b a6 3e 5a 2f d6 3e
       0.44625184 0.2579688 0.3247929 0.41833
000380 16 70 a7 3e 7d 03 98 3e d9 77 c6 3e f0 d7 ca 3e
       0.32702702 0.2969016 0.38763312 0.39617872
000390 48 0f 86 3e 73 02 05 3f b5 b8 a6 3e 77 62 bd 3e
       0.26183534 0.5195686 0.32562795 0.36989185
0003a0 c4 18 94 3e 17 36 d1 3e 54 2c 01 3f 4b 4f b4 3e
       0.28925145 0.4086158 0.50458264 0.35216746
0003b0 b1 e4 c6 3e 2f d2 89 3e 31 9c 83 3e 60 b6 e4 3e
       0.38846353 0.2691817 0.25705102 0.4467039
0003c0 bd db 88 3e c7 42 ca 3e fd 96 c5 3e 4d de ef 3e
       0.26730147 0.39504072 0.38591757 0.4684929
0003d0 9a 8f e1 3e 45 fe 9c 3e ad df a0 3e 66 e6 c7 3e
       0.44054872 0.30662742 0.3142065 0.39042968
0003e0 dd 15 ea 3e a5 0e 9a 3e cd 26 88 3e 20 3b d0 3e
       0.45719805 0.30089298 0.26592103 0.4067011
0003f0 cc d3 bb 3e dd 88 dc 3e c8 98 c5 3e 4c 2f c3 3e
       0.36685026 0.43073168 0.38593125 0.38122022

lstm.bias_hh_l0 f4 [256]
000000 d3 57 a2 3e 0c 72 b2 3e 64 3b 8b 3e 5d 47 9f 3e
       0.3170763 0.34852636 0.2719375 0.31109133
000010 8c 93 fc 3e 2c b9 a0 3e f2 fe b6 3e 1c 42 e2 3e
       0.4933132 0.31391275 0.35741383 0.44191062
000020 47 81 d5 3e 0d 30 be 3e 59 b7 c9 3e 3d bf 6a 3e
       0.41700193 0.37146035 0.39397696 0.22924514
000030 70 d6 89 3e 3d a5 c7 3e e3 99 e8 3e ce c0 71 3e
       0.26921415 0.38993254 0.45429906 0.23608705
000040 2c 0b e7 3e 9c 76 91 3e 00 a8 ba 3e 21 d6 bc 3e
       0.4512571 0.28410804 0.364563 0.36882117
000050 50 39 de 3e 98 a3 a9 3e ee 21 94 3e 82 47 c2 3e
       0.434031 0.33132625 0.28932136 0.3794518
000060 4d 8f 8e 3e f1 14 c4 3e 27 66 a0 3e b2 94 d4 3e
       0.27843705 0.38297227 0.31327936 0.41519696
000070 b2 e4 c7 3e 41 be af 3e d4 db bc 3e e3 28 ad 3e
       0.39041668 0.3432484 0.36886466 0.33820257
000080 ad e5 cf 3e 2f d4 94 3e 38 24 f4 3e 8b 14 f8 3e
       0.40604916 0.29068133 0.47683883 0.48453173
000090 3b 53 d9 3e 49 ac d6 3e a6 b7 82 3e 0e 26 ed 3e
       0.42446312 0.41928318 0.25530738 0.46318096
0000a0 e1 b1 d7 3e f8 37 bf 3e 80 65 c5 3e 14 da d6 3e
       0.42127898 0.37347388 0.38554 0.41963255
0000b0 f2 de 8f 3e 01 eb c0 3e a7 6c e0 3e a5 a9 e7 3e
       0.2809978 0.37679294 0.43832895 0.45246616
0000c0 88 75 ab 3e ed 6f d2 3e 17 85 b0 3e c9 74 b2 3e
       0.33488107 0.41101018 0.3447654 0.34854725
0000d0 c2 52 ba 3e 97 e1 ae 3e d2 f0 fb 3e e1 a4 b0 3e
       0.36391264 0.34156486 0.4920717 0.34500793
0000e0 6e ae fc 3e 37 98 bd 3e 21 1b ae 3e 9f 36 05 3f
       0.4935183 0.37030193 0.34005073 0.5203647
0000f0 ff 26 a5 3e e7 31 e5 3e 87 e9 ba 3e 1e b6 e6 3e
       0.32256314 0.44764635 0.36506292 0.4506082
000100 b4 28 a9 20 b0 d0 13 94 c6 5f f2 2f 76 d9 0d 9b
       2.8656649e-19 -7.46276e-27 4.4087595e-10 -1.1733512e-22
000110 a2 24 ac 04 72 06 77 24 94 ba 6b 87 04 27 d6 8b
       4.0470648e-36 5.3565047e-17 -1.7734265e-34 -8.2488506e-32
000120 c7 75 af 2e 03 b2 fc 06 47 93 96 1d 96 57 a2 8b
       7.979e-11 9.505343e-35 3.985695e-21 -6.2531915e-32
000130 70 28 20 96 a3 1b 4c 8f 13 7c 56 8d 68 b8 c3 ad
       -1.2937457e-25 -1.0063299e-29 -6.609319e-31 -2.2250826e-11
000140 08 f4 26 9c 28 59 aa 04 0a e2 12 84 cd 27 13 84
       -5.5240196e-22 4.0048685e-36 -1.726601e-36 -1.7298043e-36
000150 61 6e ee 82 dc d9 48 98 60 06 db 0e 6e 32 b7 2e
       -3.5034311e-37 -2.5959385e-24 5.3993807e-30 8.3308346e-11
000160 69 a6 ee 89 be 6d 6e 8d 66 1f 68 03 3f 8f 27 2a
       -5.7452907e-33 -7.347151e-31 6.8214716e-37 1.4882278e-13
000170 8c 9b a5 0d e7 cd 3a 25 57 fe 8d 93 21 86 11 04
       1.0206357e-30 1.6202691e-16 -3.5844202e-27 1.7106257e-36
000180 d8 10 48 2b 45 7e 51 18 8c 01 9a 9f 35 ee f8 82
       7.107765e-13 2.7076367e-24 -6.5224096e-20 -3.657705e-37
000190 06 f6 29 04 96 c5 c5 8b 43 f5 72 9d c6 c5 a3 02
       1.9978823e-36 -7.6178934e-32 -3.215523e-21 2.4064214e-37
0001a0 d4 9d a0 9c 61 c8 79 82 a5 94 84 03 ba e1 42 2d
       -1.0628709e-21 -1.8351137e-37 7.79239e-37 1.1077745e-11
0001b0 ba b0 2a 83 42 9a 95 12 bb a6 d5 8b 82 d6 21 27
       -5.016138e-37 9.441249e-28 -8.2295484e-32 2.2459523e-15
0001c0 88 e1 86 20 de 8d a8 84 80 01 c2 a3 0f 96 6a 03
       2.2849727e-19 -3.9626895e-36 -2.1034157e-17 6.893868e-37
0001d0 9a 86 d6 02 91 df a5 03 18 b2 83 90 f1 2c e1 2f
       3.1521731e-37 9.749157e-37 -5.1944786e-29 4.0959194e-10
0001e0 b4 14 5f 88 7f c2 2e 25 90 e5 83 a8 5f 07 f5 0b
       -6.713096e-34 1.5157992e-16 -1.4643478e-14 9.438166e-32
0001f0 58 4f b3 2e 6d 12 b2 a1 f0 b0 c7 9d 76 1c 7f 2f
       8.154072e-11 -1.2066626e-18 -5.285781e-21 2.3202226e-10
000200 0c 06 9b 3e 6e 6c b5 3e c6 9a d9 3e 1a 19 ee be
       0.3027805 0.35434288 0.42500895 -0.46503526
000210 dd c7 e1 be b8 d5 e6 3e 08 57 89 be 08 d1 b7 3e
       -0.44097796 0.4508493 -0.26824212 0.35901666
000220 39 1b b5 be ed d9 c7 be f9 c9 e6 be c7 b3 bc 3e
       -0.35372332 -0.39033452 -0.45075968 0.3685591
000230 2b b7 97 be a5 2f 94 3e 73 a2 bb 3e 2d 8c b1 3e
       -0.29631934 0.289426 0.36647376 0.34677258
000240 cc 73 a7 3e 46 24 e8 be d6 16 b1 3e 46 5a b2 be
       0.32705534 -0.45340174 0.34587735 -0.34834498
000250 45 70 be 3e c3 d9 f9 be 0d b4 bf be cb 4e 70 3e
       0.3719503 -0.48798952 -0.37442055 0.23467557
000260 3f bf b2 be 13 02 97 3e db 6d d6 3e 62 7e e1 be
       -0.34911534 0.2949377 0.41880688 -0.44041735
000270 05 97 dc be 78 72 e0 be f1 e7 9d be 42 8e dc 3e
       -0.4308397 -0.43837333 -0.3084102 0.43077284
000280 96 82 8a 3e 74 57 e3 3e f0 2c 93 3e 44 59 ca 3e
       0.27052754 0.4440266 0.28745222 0.3952123
000290 7b 40 e0 be d3 47 f3 3e ab e9 dc 3e 85 80 bf be
       -0.43799195 0.47515735 0.43147025 -0.3740274
0002a0 0c 38 cc 3e 89 c1 c0 3e 0c 8e a9 3e 55 9b d2 be
       0.3988651 0.37647656 0.33116186 -0.41134134
0002b0 48 f1 ce be 55 5e d1 3e 76 18 c6 be 75 88 d2 3e
       -0.40418458 0.40892282 -0.38690537 0.41119733
0002c0 92 5e a9 be ae a9 e2 3e 54 51 92 be ec 16 b1 be
       -0.33079964 0.4427008 -0.28577673 -0.345878
0002d0 36 79 c4 3e 93 a7 bc 3e c7 3b e4 be 42 1d b5 3e
       0.38373727 0.368466 -0.44576856 0.35373884
0002e0 34 06 99 3e 83 16 d2 be 30 9f a6 be eb 50 dd 3e
       0.29887545 -0.410328 -0.32543325 0.43225798
0002f0 e2 57 6e 3e 34 91 d5 3e 56 d7 ae be e1 5e b9 be
       0.23275712 0.41712344 -0.34148663 -0.362052
000300 78 17 f6 3e 3e de 9f 3e 46 a3 8b 3e 14 10 a7 3e
       0.4806478 0.31224245 0.27273005 0.32629454
000310 79 63 af 3e d9 dd fd 3e 58 73 80 3e 49 f7 c6 3e
       0.3425558 0.4958332 0.25088 0.3886054
000320 d5 50 d6 3e 08 81 6f 3e 69 e5 bb 3e 5d a6 c6 3e
       0.41858545 0.23389065 0.36698464 0.387988
000330 20 e1 d2 3e 4d b7 8d 3e cb 97 b2 3e 14 a3 b7 3e
       0.41187382 0.2767891 0.34881434 0.35866606
000340 67 50 b8 3e f9 22 00 3f 4b 18 f8 3e 6b af b4 3e
       0.35998842 0.50053364 0.48456034 0.35290083
000350 e0 7f ef 3e 97 99 8f 3e 40 a6 8b 3e 4f b8 5d 3e
       0.46777248 0.28046867 0.27275276 0.2165234
000360 e8 87 6e 3e fd 27 ce 3e 23 0b cd 3e 1f c0 b4 3e
       0.23294032 0.40264884 0.4004756 0.35302827
000370 9b f0 c5 3e 8c 3b 93 3e 69 93 d4 3e 6e 34 a6 3e
       0.3866013 0.28756368 0.41518715 0.32461876
000380 2e 09 c7 3e 4d ae d9 3e bb 28 b5 3e 6d 0b a4 3e
       0.3887419 0.42515793 0.35382637 0.32039967
000390 0d 89 e2 3e 52 25 c4 3e 1d f6 9f 3e 5a 9e e5 3e
       0.44245186 0.38309723 0.31242457 0.44847375
0003a0 3b f1 ad 3e 29 cb 89 3e 31 1d 95 3e 8e e4 90 3e
       0.33973107 0.2691281 0.29123834 0.28299373
0003b0 97 29 dd 3e 27 91 c1 3e ae 04 d0 3e d0 eb a2 3e
       0.43195793 0.37806055 0.4062857 0.31820536
0003c0 c0 07 ca 3e 05 bb e8 3e d3 f3 8c 3e 73 9d f2 3e
       0.39459038 0.45455185 0.27529773 0.4738575
0003d0 ac 3f f4 3e df 9d e4 3e 68 ee c8 3e 23 a8 e0 3e
       0.47704828 0.44651696 0.3924439 0.43878278
0003e0 68 14 9c 3e 65 f3 c8 3e f3 4f a9 3e 8a 74 bb 3e
       0.3048432 0.39248195 0.3306881 0.3661235
0003f0 0f 9e 80 3e 87 cd ef 3e d9 fb d0 3e 61 c1 03 3f
       0.2512059 0.46836492 0.40817145 0.5146695

lstm.weight_ih_l1 f4 [256, 64]
000000 bc bc b1 3e 2c 09 d8 3e 66 8b b3 3e ba 0d d5 be
       0.34714305 0.42194498 0.3506729 -0.41612035
000010 85 82 a7 be c5 2d 8c 3e 76 46 7f be be d6 84 3e
       -0.32716766 0.2737867 -0.24929222 0.25945085
000020 3a 30 6b be 0c 3f c6 be 53 99 9f be db f7 94 3e
       -0.22967616 -0.38719976 -0.31171665 0.2909535
000030 ac 03 3b be 6d e7 8e 3e 53 6a 91 3e 98 d1 2b 3e
       -0.1826312 0.2791094 0.2840143 0.16779172
000040 93 32 8c 3e 8c 00 4a be 4b 79 4e 3e 22 3e cd be
       0.27382335 -0.19726771 0.20163457 -0.40086466
000050 43 9d c5 3e ec 0f d3 be cb 10 d1 be b7 f5 5d 3e
       0.38596544 -0.41223085 -0.40833125 0.21675764
000060 6a f5 c7 be 5f c4 8c 3e 7d 6e 6d 3e 58 6c d7 be
       -0.39054424 0.2749357 0.23186679 -0.42074847
000070 b0 38 ac be 0e 49 8c be 08 4a 9c be 4d 54 dd 3e
       -0.33637 -0.27399486 -0.3052523 0.4322838
000080 54 a6 b1 3e f4 64 7b 3e d9 7f 28 3e ae 46 b8 3e
       0.3469721 0.2455023 0.1645502 0.35991424
000090 44 c3 35 be a0 76 a0 3e 19 95 98 3e a4 08 b6 be
       -0.17750269 0.31340504 0.29801252 -0.35553467
0000a0 b8 6a c8 3e 22 dd 6e 3e ad a8 e0 3e 0e 59 4f be
       0.3914392 0.23326543 0.4387869 -0.20248815
0000b0 e4 0f db be da 42 a4 3e 7e 87 64 be d3 8c 8f 3e
       -0.4278556 0.32082254 -0.22317311 0.28037128
0000c0 75 c7 e2 be 09 f6 91 3e 7e 1f 9d be 1b bc c2 be
       -0.442928 0.28508022 -0.3068809 -0.38034138
0000d0 8a 94 7d 3e aa 37 8f 3e 3b 4a cb be 3b 59 be 3e
       0.24763694 0.27972156 -0.3970507 0.37177452
0000e0 71 60 b4 3e 69 c5 ad be 8b 9f 43 be 87 d1 c8 3e
       0.3522983 -0.33939674 -0.1910383 0.39222357
0000f0 a0 ae 6e 3e bd 22 b7 3e 54 f3 95 be 27 85 ed be
       0.23308802 0.3576869 -0.29287207 -0.4639065
000100 d6 ab 94 3e 72 be a6 3e a3 3c 1a 3e 22 d3 b3 be
       0.2903735 0.32567173 0.15062194 -0.3512202
000110 bf 81 cf be 42 c1 71 3e 24 37 96 be 81 82 b8 3e
       -0.40528676 0.23608878 -0.29338944 0.36037067
000120 cd f4 d2 be fe de ca be 4f 41 99 be 5b fa d4 3e
       -0.41202393 -0.39623255 -0.2993264 0.41597256
000130 80 7e a8 be 25 46 a4 3e 71 53 c9 3e 7f c1 12 3e
       -0.32909012 0.32084766 0.39321473 0.14331625
000140 49 cc c6 3e 49 91 ad be 1c bd 92 3e 40 ea a3 be
       0.38827732 -0.33899906 0.28659904 -0.32014656
000150 e3 ad c2 3e 08 f7 46 be 23 41 a3 be 94 13 1a 3e
       0.3802329 -0.19430172 -0.31885633 0.15046531
000160 07 23 b8 be 8f 14 d9 3e 59 b6 bb 3e 92 69 53 be
       -0.35964224 0.42398497 0.36662558 -0.2064574
000170 2b 7a 96 be 04 86 94 be 0b 5a f4 be a3 bc 8e 3e
       -0.29390082 -0.29008496 -0.47724947 0.27878293
000180 aa ab be 3e 15 5c 88 3e b6 b8 74 3e e3 d3 ad 3e
       0.37240344 0.26632753 0.23898587 0.3395072
000190 9a 32 69 be c6 15 20 3e ac f1 44 3e f0 06 99 be
       -0.22773209 0.15633306 0.19232816 -0.29888105
0001a0 76 dd 9b 3e 56 98 a2 3e 81 0b d2 3e fd ed d1 be
       0.304424 0.31756848 0.41024402 -0.41001883
0001b0 fa 1d 37 be e3 cd d0 3e e8 34 3b be d6 ef 78 3e
       -0.17882529 0.4078208 -0.18281901 0.2431024
0001c0 9f 10 f3 be bc a8 72 3e f9 f0 bd be 7e 8c 83 be
       -0.47473618 0.2369718 -0.3709791 -0.25693125
0001d0 67 af 31 3e b2 a3 94 3e 01 ed ac be 31 00 b9 3e
       0.17352067 0.2903114 -0.3377457 0.3613296
0001e0 b7 98 c4 3e 2b f2 76 be 3c 60 ad be 21 86 63 3e
       0.38397762 -0.24115817 -0.33862484 0.22219135
0001f0 6c 32 c9 3e 87 e7 db 3e ff 20 65 be 53 a9 ca be
       0.3929628 0.4295008 -0.22375868 -0.3958231
000200 70 a9 90 3e 2e 73 81 3e f6 d9 91 3e d3 be 6b be
       0.2825427 0.25283188 0.28486603 -0.23022012
000210 64 5e aa be 90 f2 35 3e bd 6d bb be bc ca 3a 3e
       -0.3327514 0.17768312 -0.3660716 0.182414
000220 f6 8f db be 3b 00 af be 36 bf a0 be f5 09 d2 3e
       -0.4288327 -0.34179863 -0.31395882 0.41023222
000230 e6 f3 79 be 3f 47 87 3e 64 03 44 3e e4 22 c0 3e
       -0.24409446 0.26421544 0.19141918 0.3752662
000240 e7 11 cf 3e 8e 18 ab be 09 2a 8f 3e 9d d2 b4 be
       0.40443346 -0.3341717 0.27961758 -0.35316935
000250 78 fe eb 3e 27 38 cf be 20 d2 b6 be 3b a4 59 3e
       0.46092582 -0.40472528 -0.35707188 0.21254055
000260 2e 14 aa be 8c 56 96 3e 45 11 7e 3e 90 a8 91 be
       -0.3321852 0.29362905 0.24811275 -0.28448915
000270 38 ad b5 be 60 ff 87 be 1b 1b 94 be a3 43 a9 3e
       -0.35483718 -0.26562023 -0.2892693 0.33059415
000280 4c a4 cc 3e 59 7a ba 3e 9f ab 42 3e a7 f5 d5 3e
       0.399691 0.3642147 0.19010781 0.4178898
000290 e8 ce d2 be 9c da bc 3e f5 4a 76 3e 1f 67 b7 be
       -0.41173482 0.36885536 0.24052031 -0.35820863
0002a0 d9 84 bd 3e f9 44 c6 3e fe 1d 69 3e f7 85 98 be
       0.37015417 0.38724497 0.22765347 -0.29789707
0002b0 48 c5 83 be 63 1d 9e 3e dd 8e 84 be f3 49 2f 3e
       -0.2573645 0.30881795 -0.25890246 0.17118053
0002c0 29 4f d2 be 85 a0 a9 3e 75 65 75 be ac 8c 8e be
       -0.4107602 0.3313028 -0.23964484 -0.278417
0002d0 f9 dd 64 3e 1f ac 89 3e 7e d8 45 be f1 63 a4 3e
       0.22350301 0.2688913 -0.19320866 0.321075
0002e0 b5 5f 99 3e 95 8d d7 be 69 ee 96 be 4f 80 ce 3e
       0.2995583 -0.42100206 -0.29478768 0.40332267
0002f0 64 2a 5d 3e fe 1c c3 3e 36 8e 7e be c1 82 71 be
       0.21598202 0.38108057 -0.24858937 -0.23585035
000300 9a 79 7e 3e 7c f4 c0 3e 9b 6c 87 3e 6d 5e 9b be
       0.24851075 0.37686527 0.26450047 -0.3034548
000310 10 c8 74 be 58 6d 8b 3e 57 de 24 be f8 c0 a8 3e
       -0.23904443 0.2723186 -0.16100441 0.32959723
000320 94 7c af be 8c 98 66 be fc 49 89 be 6a 24 ca 3e
       -0.34274733 -0.2251913 -0.26814258 0.39480907
000330 9d 49 ad be 37 33 a8 3e 73 35 c5 3e 8a 08 94 3e
       -0.33845225 0.32851574 0.3851734 0.28912765
000340 c0 9f 5d 3e af af af be ec 08 bf 3e 06 87 94 be
       0.21642971 -0.34313723 0.37311494 -0.29009265
000350 8f 60 bc 3e 18 8c 47 be 70 a0 91 be e6 00 c5 3e
       0.36792418 -0.19487035 -0.28442717 0.38477248
000360 cd 4d 97 be ba 4b 3d 3e 97 5e 95 3e b3 0c aa be
       -0.29551545 0.18485919 0.2917373 -0.33212814
000370 81 82 b8 be 09 cd 9b be 01 0d b9 be a2 a9 47 3e
       -0.36037067 -0.30429867 -0.36142734 0.19498304
000380 b1 2f e0 3e 86 78 c0 3e bb da 35 3e 0a b2 8f 3e
       0.43786386 0.37591952 0.1775922 0.2806552
000390 a8 5e a9 be 81 c2 49 3e bb f9 90 3e 9d 11 af be
       -0.3308003 0.19703104 0.2831553 -0.34193125
0003a0 9c 5d c1 3e dd 1d c0 3e 03 ad c4 3e f8 88 bf be
       0.3776673 0.37522784 0.38413247 -0.37409186
0003b0 9e 7c af be 85 58 bf 3e 13 e6 5f be 1c 6b 94 3e
       -0.34274763 0.37372223 -0.2186511 0.28987968
0003c0 cf ce b4 be 49 bb 90 3e 13 50 6b be 74 6e ce be
       -0.35314032 0.28267887 -0.22979765 -0.40318644
0003d0 7d bb a4 3e ab 79 5d 3e 84 54 bd be 05 71 c5 3e
       0.32174292 0.21628444 -0.36978543 0.3856279
0003e0 69 8f 8e 3e e1 21 b6 be 8e 8a 21 be 0f b6 88 3e
       0.27843788 -0.35572723 -0.1577551 0.267014
0003f0 18 ec a5 3e 73 35 aa 3e 67 99 a9 be a4 cc e1 be
       0.32406688 0.33243904 -0.3312485 -0.4410144

lstm.weight_hh_l1 f4 [256, 64]
000000 a2 6a a8 84 98 2e 8a 02 ff 2c d6 2c d2 13 2d ab
       -3.9594537e-36 2.030402e-37 6.0872414e-12 -6.1489453e-13
000010 f4 30 e5 0b 4f 96 b7 a7 74 4b 38 02 ce ca 58 25
       8.828125e-32 -5.095567e-15 1.3539839e-37 1.8803726e-16
000020 c8 82 4a 80 e8 f9 3a 23 72 4f 84 1a 1b 43 13 84
       -6.842742e-39 1.0136e-17 5.472227e-23 -1.731058e-36
000030 2a 92 f5 2a ee 6a 16 84 78 c0 f2 9c be ac 1d ae
       4.3622164e-13 -1.7681515e-36 -1.6063969e-21 -3.5851093e-11
000040 5f c9 2b 93 d5 e5 3a 98 a9 4a 7b 1c 2a 34 a9 84
       -2.1682518e-27 -2.4155972e-24 8.314543e-22 -3.9779614e-36
000050 08 ea a4 1d e9 58 e8 a6 57 b8 1a 2e c2 fc 13 84
       4.365242e-21 -1.6122333e-15 3.5179273e-11 -1.7395828e-36
000060 47 17 ab 04 13 78 d1 8b f8 0a 3d 02 48 ba 0f 04
       4.0223284e-36 -8.068454e-32 1.3888675e-37 1.6895105e-36
000070 31 27 d8 98 48 06 4f 19 61 d7 c3 02 3c 71 00 03
       -5.5874265e-24 1.0702918e-23 2.8776296e-37 3.7745806e-37
000080 71 10 e2 0b 52 6e cc 1d 0f d8 3b 86 82 cd 36 10
       8.707677e-32 5.411242e-21 -3.5329526e-35 3.605149e-29
000090 a0 65 20 80 14 db 81 92 70 25 e7 82 01 b8 ed 10
       -2.975192e-39 -8.195051e-28 -3.3963887e-37 9.376352e-29
0000a0 c9 97 8a 03 ed 58 c6 0d f9 93 0f 84 20 c2 29 8f
       8.145759e-37 1.22241e-30 -1.6877515e-36 -8.3697304e-30
0000b0 b3 ab e8 a7 6b 41 88 a8 82 0a 0b 11 5e 76 a5 02
       -6.457909e-15 -1.5127404e-14 1.0968405e-28 2.431251e-37
0000c0 7d 1b 99 25 e9 3c 08 27 57 1e 2b 8d 4b 0d 64 22
       2.6559896e-16 1.890681e-15 -5.2729964e-31 3.09068e-18
0000d0 d4 68 af 0d f4 29 fb 02 56 2a 1c af 4d 3c 99 9e
       1.0810444e-30 3.6905215e-37 -1.4203158e-10 -1.6224445e-20
0000e0 db a8 9b 04 fe 4d c5 ad b7 a8 b4 a5 85 f4 72 ac
       3.6595394e-36 -2.2430943e-11 -3.1339348e-16 -3.4526004e-12
0000f0 f8 3f 45 ad 24 fb c5 9d c7 7b 35 02 61 f4 e6 95
       -1.1212357e-11 -5.240514e-21 1.3333302e-37 -9.328182e-26
000100 a8 ba fd af 8a f3 88 03 56 a5 c3 ae ac 5c 67 2e
       -4.615306e-10 8.049275e-37 -8.896943e-11 5.2605628e-11
000110 f8 69 25 15 c2 49 b3 82 a7 0c 2c 8a a2 50 32 25
       3.340508e-26 -2.634402e-37 -8.2838784e-33 1.5466358e-16
000120 57 4d 19 28 da b8 a1 05 a6 d4 10 ac d1 be 34 85
       8.5099765e-15 1.5208271e-35 -2.0581674e-12 -8.498607e-36
000130 6a f0 23 99 9c a7 3f 29 3d 06 36 03 ae e5 95 03
       -8.475454e-24 4.2555897e-14 5.3492154e-37 8.810165e-37
000140 f1 7f 30 a1 8e c7 bd 2d 44 88 48 83 30 16 1b 83
       -5.980045e-19 2.1575432e-11 -5.8931143e-37 -4.5575876e-37
000150 40 31 a9 84 13 14 1e a3 32 e7 bc a9 90 ce da 27
       -3.9776938e-36 -8.569448e-18 -8.388983e-14 6.073111e-15
000160 0a 8e 14 83 cb fd 77 82 01 80 50 15 aa 71 8b 25
       -4.3656344e-37 -1.8219529e-37 4.2106243e-26 2.4189678e-16
000170 bc 2e 86 01 c7 d0 89 03 12 1b 15 84 61 4a a4 aa
       4.9290886e-38 8.100069e-37 -1.7527296e-36 -2.9183863e-13
000180 eb 02 88 8e 41 3e f9 02 5a 31 12 04 51 6c 5a 26
       -3.35294e-30 3.6622994e-37 1.7184879e-36 7.578074e-16
000190 86 0f fa 01 4d 36 9f 0e f3 60 bd 0e 67 b7 f0 a2
       9.185777e-38 3.9248816e-30 4.6685456e-30 -6.5246315e-18
0001a0 ac 3d 80 af b5 65 67 2e f4 6c 00 14 0f 38 27 8b
       -2.3326885e-10 5.2613653e-11 6.483836e-27 -3.2205204e-32
0001b0 19 5d b3 ab cd 79 20 16 8a 2a 09 a7 9c 5b 34 85
       -1.2744555e-12 1.2963131e-25 -1.903563e-15 -8.480385e-36
0001c0 0e d4 12 84 1d cc a9 04 3c b6 0d 84 4f 78 6c 19
       -1.7259588e-36 3.9919158e-36 -1.6658148e-36 1.222521e-23
0001d0 eb eb 40 0f fa c3 10 04 1c 88 9b 0b da c1 4b ab
       9.511767e-30 1.7017107e-36 5.990862e-32 -7.238911e-13
0001e0 98 83 3c 2b fc 26 bd 06 e2 ca 67 1d f5 3e 2a 8d
       6.697364e-13 7.115118e-35 3.0677483e-21 -5.2461076e-31
0001f0 28 d6 1d 16 fa 55 d9 aa 86 40 b4 29 72 9c 41 a9
       1.2749935e-25 -3.8606602e-13 8.004799e-14 -4.2990303e-14
000200 09 f2 07 2c d0 f2 64 ac cc 40 51 ad 3d cf b8 05
       1.931901e-12 -3.2535537e-12 -1.1894662e-11 1.7379404e-35
000210 8a 64 f8 18 47 9b 34 85 ae 14 31 87 19 56 d2 a1
       6.4208016e-24 -8.492079e-36 -1.3322077e-34 -1.4252943e-18
000220 8b 68 2b 2d 93 22 8b 07 72 11 0a 03 c7 62 13 04
       9.743438e-12 2.0934716e-34 4.057458e-37 1.7325123e-36
000230 7c 81 c1 0d 87 7f 93 1d 24 26 b9 07 79 9c 4c ae
       1.1925716e-30 3.9042436e-21 2.7858123e-34 -4.6523205e-11
000240 4c 79 6e a9 47 f7 d9 0c fb cf 20 83 4b 9e 9f 07
       -5.2951824e-14 3.3582968e-31 -4.7258524e-37 2.4016697e-34
000250 67 b4 96 03 7b 3f e6 2a cf 90 13 16 f2 e4 c0 1d
       8.857626e-37 4.0900256e-13 1.1920259e-25 5.10587e-21
000260 fa 17 0e 03 7d 1d 14 04 08 77 bd 99 9f 78 ab 84
       4.1757573e-37 1.7410857e-36 -1.9590218e-23 -4.031268e-36
000270 fb 09 5e 95 a5 e6 0e 04 b6 9e 98 0b 54 bd 8c 82
       -4.4840416e-26 1.6797927e-36 5.878707e-32 -2.067982e-37
000280 0b a7 56 99 25 99 7f 8d 79 58 83 82 0f 38 26 99
       -1.1097275e-23 -7.8762283e-31 -1.92995e-37 -8.59332e-24
000290 e8 25 ae 98 b0 f7 e6 82 a4 ec 46 ab 64 90 fa 02
       -4.501622e-24 -3.3937628e-37 -7.0672136e-13 3.6817075e-37
0002a0 93 40 a5 25 3a ea 15 9e ca af 1a 01 9c 94 81 83
       2.8666695e-16 -7.936431e-21 2.8411455e-38 -7.616058e-37
0002b0 66 4f ab 87 81 f5 0a 14 67 f1 07 a9 2c ff 7a 23
       -2.5775887e-34 7.015637e-27 -3.0185405e-14 1.3606562e-17
0002c0 dc ad ff 23 a8 3f 16 03 8b 18 76 03 b9 fa 37 24
       2.7720788e-17 4.415411e-37 7.2321077e-37 3.989417e-17
0002d0 b1 6e 14 ac 08 4f b6 14 ae 74 2c 2d e9 61 36 82
       -2.109351e-12 1.8408476e-26 9.802976e-12 -1.3399347e-37
0002e0 bd 82 a5 27 93 db e2 86 16 d5 9e 8e d5 34 a5 0d
       4.5938446e-15 -8.5334387e-35 -3.91552e-30 1.0181629e-30
0002f0 9e 45 80 2b 18 db 11 b0 bf 6e fc ad 02 43 d8 2e
       9.11427e-13 -5.3062044e-10 -2.8698264e-11 9.834446e-11
000300 fc 8c 86 01 b7 04 03 28 7d ba 94 1e c0 a8 aa 04
       4.942613e-38 7.272983e-15 1.574724e-20 4.012178e-36
000310 a4 8d 1a 0b fd 4a 05 a7 6d 36 ec 2c 6d 81 33 05
       2.976588e-32 -1.849811e-15 6.713566e-12 8.440311e-36
000320 9a d3 b0 02 dc e4 04 0f cf a3 58 a7 42 a4 fe 02
       2.598233e-37 6.552179e-30 -3.0064822e-15 3.7416225e-37
000330 23 4c c9 1d 58 3a d4 2b 6b 22 e7 9e fb 55 83 04
       5.328298e-21 1.50797e-12 -2.4472311e-20 3.0876913e-36
000340 be 25 aa 04 3a 48 8a 01 d3 6d 8b a7 4a 55 d8 2d
       4.000147e-36 5.0796834e-38 -3.869932e-15 2.4594233e-11
000350 2e c7 11 84 9e b7 8d 9d 8b ca 17 aa 4d 43 5f af
       -1.7136127e-36 -3.7512245e-21 -1.3481765e-13 -2.0305642e-10
000360 d2 8d 7b ad f4 63 ae 18 2a 8a 1b 02 69 2c 67 25
       -1.4299189e-11 4.5078873e-24 1.1427253e-37 2.0051103e-16
000370 a4 fe bc 86 e5 2c a9 84 65 34 b9 05 85 76 1a a9
       -7.10919e-35 -3.9772938e-36 1.7416563e-35 -3.429767e-14
000380 b4 4b 98 18 19 4d 0f 84 79 e2 c7 17 47 ee 07 03
       3.936752e-24 -1.684497e-36 1.2917243e-24 3.9946463e-37
000390 a4 fe 1b 96 3e d1 df 28 6c 00 9a 23 ca da 9a 98
       -1.2601151e-25 2.4848718e-14 1.6696892e-17 -4.0028987e-24
0003a0 9f de c3 aa 97 b7 0c 2a d1 73 e7 03 f1 17 bc aa
       -3.4793433e-13 1.2498193e-13 1.360355e-36 -3.341212e-13
0003b0 cc f0 33 98 56 9e 8f 9d ca 17 d7 10 60 a6 85 82
       -2.325678e-24 -3.80155e-21 8.48392e-29 -1.9638088e-37
0003c0 79 36 a9 84 9e 5b b9 0b c9 0d ac 02 d9 74 97 1d
       -3.9781734e-36 7.139726e-32 2.528104e-37 4.0090185e-21
0003d0 1a 18 12 03 0d f6 57 8e 78 f6 80 0e 42 6d 8d 03
       4.293321e-37 -2.6619265e-30 3.1791777e-30 8.3123195e-37
0003e0 0b 56 b3 0e 64 95 bb 18 3a 06 aa 04 f7 e5 98 03
       4.4209763e-30 4.8489213e-24 3.9972526e-36 8.986554e-37
0003f0 2b 96 b3 83 bd 69 b4 a5 7a 58 9c 8e 91 da 00 24
       -1.0555151e-36 -3.1296674e-16 -3.854217e-30 2.794071e-17

lstm.bias_ih_l1 f4 [256]
000000 1d e9 bf 3e b9 4f a7 3e 0d e9 b9 3e 79 fa a2 3e
       0.3748254 0.3267801 0.36310616 0.3183172
000010 e8 45 61 3e 2b 24 bd 3e 95 02 84 3e 9b 15 34 3e
       0.21999323 0.36941656 0.2578322 0.17586367
000020 28 93 95 3e 8f ff 8c 3e 2e f1 b2 3e 0b 1e 96 3e
       0.29213834 0.27538726 0.3494963 0.29319796
000030 e3 92 9e 3e 90 f3 a6 3e e4 01 80 3e ef 11 cb 3e
       0.3097144 0.32607698 0.25001442 0.3966212
000040 2c 1c ce 3e dd 0f 95 3e cc d0 2b 3e 16 63 ba 3e
       0.40255868 0.29113665 0.16778868 0.36403722
000050 8c c9 b7 3e 4c 57 5b 3e 94 9e d2 3e 25 94 5e 3e
       0.35895956 0.2142002 0.4113661 0.217362
000060 78 fe db 3e 5b 56 34 3e 34 27 b7 3e 93 12 96 3e
       0.42967582 0.17611067 0.35772097 0.29311046
000070 43 76 86 3e 04 5b 5b 3e c6 c7 93 3e 19 25 6b 3e
       0.26262102 0.21421438 0.28863353 0.2296337
000080 32 ea 86 3e b6 3e d0 3e c9 e1 1a 3e 3d 5e 82 3e
       0.26350552 0.40672845 0.15125193 0.25462523
000090 aa 2d c4 3e b4 e3 ae 3e d9 a4 3e 3e 1d 6e d2 3e
       0.3831609 0.341581 0.18617572 0.41099635
0000a0 e6 4b b4 3e a3 bc ac 3e c9 bd 5f 3e 93 29 a0 3e
       0.35214156 0.33737668 0.21849741 0.3128172
0000b0 c9 d2 6d 3e fc a0 79 3e 97 2c ae 3e 33 79 bc 3e
       0.2322494 0.24377817 0.34018394 0.36811218
0000c0 0e 40 c6 3e c0 0d a7 3e ea e0 4b 3e f9 38 89 3e
       0.38720745 0.32627678 0.19910017 0.2680128
0000d0 07 a7 d3 3e 67 68 9f 3e 32 11 8d 3e 1e 9e a0 3e
       0.4133837 0.3113434 0.2755218 0.31370634
0000e0 73 84 be 3e 34 ef bd 3e 0b 01 ca 3e ed 4e 19 3e
       0.37210426 0.3709656 0.3945392 0.14971514
0000f0 34 17 bb 3e 5d 23 4b 3e 98 5b 4a 3e cb 72 66 3e
       0.3654114 0.19837709 0.19761503 0.22504728
000100 19 17 6c 07 49 de 92 a7 33 52 53 10 a2 f9 84 af
       1.7761454e-34 -4.0764142e-15 4.1675737e-29 -2.4188035e-10
000110 c4 99 db 2d cd 3d ab 8b bf 20 8a 94 b9 07 0e 25
       2.4965703e-11 -6.595979e-32 -1.3947355e-26 1.2319153e-16
000120 47 17 11 30 79 73 71 82 84 6f af 1c 9a f1 a3 07
       5.278377e-10 -1.7739023e-37 1.1609355e-21 2.4667515e-34
000130 af 38 a2 95 d0 c4 24 02 fc 68 4a 82 ad bc a9 04
       -6.552071e-26 1.21053e-37 -1.4870745e-37 3.990498e-36
000140 37 43 41 2e 72 99 ce 2e 0e 1b c1 aa c7 2c fc a9
       4.3942818e-11 9.395053e-11 -3.430246e-13 -1.1198816e-13
000150 b9 d5 54 2d ed 26 da 8e f8 5f ef 13 81 cf 37 23
       1.2098261e-11 -5.3778633e-30 6.0426715e-27 9.9643905e-18
000160 7d 0e 17 94 59 0d c5 af b7 e4 e5 15 b0 78 31 00
       -7.626409e-27 -3.5843575e-10 9.285321e-26 4.543234e-39
000170 19 0a c7 82 51 3b 48 9e 96 44 a1 2d d5 9d 1d 28
       -2.9246218e-37 -1.0600178e-20 1.833404e-11 8.749475e-15
000180 20 0e 68 94 30 dc 38 88 be a1 a7 a4 1e 03 a7 83
       -1.17157924e-26 -5.5629315e-34 -7.269871e-17 -9.8160935e-37
000190 59 30 23 2d d5 3a 82 2f a8 a8 fb 12 20 6a 89 97
       9.276213e-12 2.3688665e-10 1.5881904e-27 -8.880207e-25
0001a0 05 d0 93 2f d2 16 99 9e 78 4c 30 ae ea 5b 44 a7
       2.688695e-10 -1.6208943e-20 -4.0085685e-11 -2.725029e-15
0001b0 c8 04 ae 25 18 58 80 15 c7 80 a6 82 0f d4 0e 84
       3.0187428e-16 5.1837776e-26 -2.4465422e-37 -1.6789392e-36
0001c0 ca 90 bd 82 5c 5d 82 83 c4 a1 d9 94 dd d9 8f 83
       -2.785416e-37 -7.6621475e-37 -2.1975206e-26 -8.454804e-37
0001d0 70 b1 68 ac ae cd ce aa 90 60 ba 8e 01 01 24 05
       -3.306768e-12 -3.673567e-13 -4.5945526e-30 7.711427e-36
0001e0 b2 12 d7 83 95 ac 19 03 00 dd 87 83 6b 19 ef 02
       -1.26408565e-36 4.5160773e-37 -7.985326e-37 3.5132483e-37
0001f0 a2 90 35 17 31 aa 36 82 36 20 c9 21 91 08 b5 02
       5.8666807e-25 -1.3420091e-37 1.3628816e-18 2.6600477e-37
000200 21 6d 89 3e 18 7a 8b bd b5 35 4f be 7e c5 35 3e
       0.2684107 -0.06810397 -0.20235331 0.17751119
000210 6c 0a 7a be 86 41 a0 bd 95 fb 91 3e fe 38 e3 bd
       -0.24418038 -0.078249976 0.28512254 -0.11094855
000220 2e 9f 05 be 35 20 7c be fc 58 92 3e 57 f1 ed bd
       -0.13049003 -0.24621661 0.28583515 -0.116182975
000230 2e c8 75 3e 7e e7 66 be e8 7e 4a be 04 fa 73 3e
       0.24002144 -0.22549245 -0.19774973 0.23825842
000240 b0 b2 20 3e 04 dd b5 3d d5 5d 01 be ac 28 ee 3d
       0.15693164 0.08880046 -0.1263345 0.11628851
000250 e9 bf 3c 3e f9 b0 96 3e 63 24 1f 3e bf b1 5e 3e
       0.18432583 0.29431894 0.15541224 0.21747492
000260 e6 9d 22 3e 50 2b 9b bd 60 df 7e 3e 24 42 2e 3e
       0.15880546 -0.075766206 0.24889898 0.17017418
000270 3f f9 80 3e ef 47 24 be 63 3d 8b 3e f9 5a 07 be
       0.2519016 -0.16043065 0.27195272 -0.13218297
000280 61 a9 90 3e 59 7d 37 3e 2d c4 3e 3e fe 96 0a be
       0.28254226 0.1791891 0.18629523 -0.13534161
000290 f1 1c 51 bd 92 ec 36 3e b8 d9 82 3e 49 f0 eb bd
       -0.05105299 0.17863682 0.2555673 -0.1152044
0002a0 9a cb b8 bd a3 29 45 bd 96 bb c9 bd 8b c8 28 3e
       -0.09023209 -0.04813541 -0.09850232 0.16482751
0002b0 0c d2 0f 3e 1d 1e ab bd f6 81 f5 bd 3a b4 90 bd
       0.1404497 -0.08355353 -0.11987679 -0.070656255
0002c0 27 ff 8f 3d 56 83 06 be b4 a5 84 3e 55 4a 35 3e
       0.07031088 -0.13136038 0.2590767 0.17704137
0002d0 d7 70 b4 bd 65 60 f7 bd d7 47 3d 3e bd 42 27 3e
       -0.08810585 -0.12078933 0.18484436 0.16334052
0002e0 d8 d6 1e 3e e0 8c 6a be 37 f2 61 be 2b 98 23 3d
       0.15511644 -0.22905302 -0.22065054 0.03994004
0002f0 9b e3 b1 bd 82 58 81 be cd c0 7d bd 3c 4f 3a 3e
       -0.086859904 -0.2526284 -0.061951447 0.18194288
000300 5f 80 3c 3e fc 61 45 3e f5 63 64 3e eb da cc 3e
       0.18408345 0.1927566 0.22303756 0.4001077
000310 aa 99 66 3e ad b0 9c 3e 99 da a0 3e ca 6d 89 3e
       0.22519556 0.30603543 0.31416777 0.26841575
000320 e3 68 bf 3e c5 09 9e 3e 3d 93 46 3e 64 31 89 3e
       0.3738471 0.3086683 0.19392104 0.26795495
000330 33 62 9e 3e a0 3c 81 3e 8e 6c 44 3e a1 ce bd 3e
       0.30934295 0.25241566 0.19182035 0.37071708
000340 0a 4e a5 3e d2 74 90 3e 70 d3 d4 3e d6 13 57 3e
       0.32286102 0.28214127 0.41567564 0.2100366
000350 e9 1d 75 3e da 14 8c 3e 13 72 b1 3e 50 2a 50 3e
       0.23937191 0.27359658 0.34657344 0.20328641
000360 c1 a7 c9 3e fb 05 39 3e b1 61 85 3e ff 74 44 3e
       0.393858 0.18068688 0.26051095 0.19185255
000370 10 83 d0 3e 14 89 ab 3e 71 b0 b1 3e fd a9 a4 3e
       0.40724993 0.3350302 0.34704927 0.3216094
000380 12 57 e5 3e 8d b0 8e 3e be 92 27 3e f0 53 4e 3e
       0.44792992 0.27869073 0.16364571 0.20149207
000390 0d f3 c1 3e c8 8c 9c 3e a6 b3 e1 3e 78 0b b5 3e
       0.37880746 0.30576158 0.44082373 0.35360312
0003a0 de ce 9e 3e c7 f3 da 3e d4 02 ce 3e 53 73 a0 3e
       0.31017202 0.42764112 0.40236533 0.31337985
0003b0 a8 7c b0 3e ea 0b 9d 3e c8 91 af 3e 84 3a d8 3e
       0.34470105 0.30673152 0.3429091 0.42232144
0003c0 c2 e6 86 3e 45 df af 3e 78 8b 4a 3e 1c 9c 7b 3e
       0.2634793 0.3435003 0.19779766 0.2457127
0003d0 ea 1b ab 3e 9e dd 7d 3e d2 65 6e 3e 8c 46 d4 3e
       0.33419734 0.24791571 0.23281029 0.41460073
0003e0 f7 3c bb 3e 5d 16 8b 3e 06 2c a4 3e ae 4d 7b 3e
       0.3656995 0.271655 0.32064837 0.24541351
0003f0 15 21 6e 3e eb 4e cb 3e f9 d5 be 3e 51 3c b1 3e
       0.23254807 0.39708647 0.37272623 0.3461633
