model_checkpoints/model_epoch_80.pth (torch, 233370 bytes, 9 tensors)

lstm.weight_ih_l0 f4 [256, 28]
000000 86 7d a1 be a4 dd 1f 3e cf cf 6a be dc a7 c5 3d
       -0.3154108 0.15611893 -0.22930835 0.09651157
000010 f0 91 8b 3e 3b bc f7 bd 2f 73 db bc 36 76 e2 39
       0.2725978 -0.12096449 -0.026788322 0.00043194153
000020 d4 65 e9 bd 11 77 29 bd 79 fa a0 be 8d b8 7c be
       -0.11396375 -0.041373316 -0.31441095 -0.24679776
000030 4f 2b 63 be bc 47 7e be 61 2b 57 be ab f3 6c be
       -0.2218449 -0.24832052 -0.21012641 -0.23139827
000040 b3 ea 8a be 0c bf 08 be 2b 10 73 be 2d 3e 1d be
       -0.27132186 -0.13354129 -0.23736636 -0.1535575
000050 e4 3c e5 3d 17 01 c8 bc b1 89 32 3e 70 d7 0e 3e
       0.111932546 -0.024414582 0.17435338 0.1394937
000060 b1 98 94 bd dd 96 35 be f8 ef 1e 3d 07 34 84 be
       -0.07255686 -0.17733331 0.03880307 -0.25820944
000070 39 da 2b be f7 02 5d 3e e0 d3 7e be 79 06 93 3d
       -0.16782464 0.21583162 -0.24885511 0.07178969
000080 8d a3 ae 3e 42 ae a3 bd 03 04 4d bd 00 ea 0d be
       0.34109154 -0.079922214 -0.050052654 -0.13858795
000090 5e c2 17 bd 94 3a 0e be a2 51 0b be b2 30 50 be
       -0.037050597 -0.13889533 -0.13605359 -0.20331076
0000a0 93 0a 6e be ec 29 56 be b3 3a 32 be 83 ef 52 be
       -0.23246221 -0.2091443 -0.17405204 -0.20599179
0000b0 61 96 8f be a4 d6 31 be b6 9d a2 be 41 43 7d be
       -0.28044418 -0.17367035 -0.3176095 -0.24732687
0000c0 0e 1c c9 3d 4a d5 4b 3e a0 6b ac bd d5 f4 02 3c
       0.09819804 0.19905582 -0.08418965 0.007992943
0000d0 34 23 9b bd 51 16 ea bc 4d 4e 7a bd ce 1c cb be
       -0.07575074 -0.028575094 -0.06110983 -0.39670414
0000e0 65 8c 5c 3e 03 7d 8c bd 20 8a 88 bd 9e 0f 2a 3d
       0.21537931 -0.068597816 -0.0666697 0.0415188
0000f0 5f 71 74 be 93 00 05 3c 6f bf 21 be bb 64 19 bd
       -0.23871373 0.008117813 -0.15795682 -0.03744958
000100 ec e8 b1 3d 03 cc a4 bd e1 f1 85 3e 02 79 a9 3e
       0.086870044 -0.08046725 0.261611 0.33100134
000110 e5 ec fe 3d 78 4b 38 3e d8 78 14 3e 0b eb 14 3e
       0.12447528 0.17997539 0.14499223 0.14542787
000120 b1 e7 3c 3e 8c 8a 42 3e 70 13 a5 3e 7d 4e a8 3e
       0.18447758 0.18998164 0.32241392 0.32872382
000130 ce 47 06 be cb 32 ff bd e0 12 a7 3c 62 f8 b2 3d
       -0.13113329 -0.1246086 0.020394742 0.087387815
000140 31 5b ff bc 95 66 50 3e 66 05 a1 3e 21 9a 01 3e
       -0.031171413 0.20351632 0.3144943 0.12656452
000150 37 da 98 be 79 a1 02 3e b7 82 a4 be 45 41 27 3e
       -0.29853985 0.1275691 -0.32130978 0.16333492
000160 5a c1 3b 3e 16 9e 01 bd a0 08 08 bd de 7f c8 3d
       0.18335477 -0.031644903 -0.03321135 0.09790014
000170 f3 68 7b bd cc 64 0e bd 55 5f 87 be ce ba 8c be
       -0.061379384 -0.034764096 -0.2643992 -0.2748627
000180 10 dd a1 be 0f bc 7f be 23 34 09 be df 99 6d be
       -0.3161397 -0.24974082 -0.13398795 -0.23203228
000190 cb 98 9d be 69 45 15 be 16 62 db bd de 2c 7f be
       -0.30780634 -0.14577259 -0.10712068 -0.24919459
0001a0 a0 16 10 3e 80 3a 27 3d 96 78 86 bc 0d a6 f5 bd
       0.14071131 0.040827274 -0.016414922 -0.11994562
0001b0 be ed 0e be 04 9c 7c 3c 3c 85 ab bd 73 67 d9 be
       -0.13957879 0.015418056 -0.08375022 -0.42461738
0001c0 3e c5 2c 3e 43 8f 4f be e9 9e 0f bb 3d 2e 3e be
       0.16872117 -0.20269494 -0.0021914786 -0.18572326
0001d0 35 fe de bc 06 c4 9a bd e3 11 6e 3d d2 b5 1e 3d
       -0.027220825 -0.0755692 0.058122527 0.038747616
0001e0 4e b1 a1 bd c9 a5 58 3c 96 8a 4f 3e b6 49 57 3e
       -0.07895146 0.01322312 0.2026771 0.21024212
0001f0 32 b2 af 3e 20 8d 3c 3e eb 36 3a 3e 68 c5 ac 3e
       0.3431564 0.1841321 0.18185012 0.3374436
000200 90 eb 26 3e a0 fc 7e 3e 4c 6d a3 3e 90 e3 9f 3e
       0.16300797 0.24901056 0.31919324 0.31228304
000210 08 88 cd 3d 41 28 ba 3d 9f e2 f6 bd 1f 30 cc bd
       0.100357115 0.09089709 -0.12054943 -0.09970116
000220 fa 0e 18 be 01 c2 5c 3e 05 b6 52 bc c2 cf 59 bd
       -0.14849463 0.21558382 -0.01286078 -0.05317665
000230 e7 01 87 3e ac 1d 65 bc 1a e8 69 bc 6a e1 02 3d
       0.2636864 -0.013984125 -0.014276529 0.031953253
000240 77 49 51 bd 24 ec f6 bd 46 6b 02 be de 9c 19 bd
       -0.051095452 -0.12056759 -0.12736234 -0.037503116
000250 b3 89 65 3d e0 0a 4c bd 99 f2 51 3e 5a ad 7a 3e
       0.056039523 -0.04981506 0.205027 0.24480191
000260 7a 9b 5e 3e 1a db 39 3e 2c 6e 1c 3e b8 fc 6f 3e
       0.21738997 0.18149987 0.15276402 0.23436248
000270 14 f1 2e 3e d6 bc 28 3e 25 7c 2e 3e 97 0e f2 3d
       0.17084152 0.16478285 0.17039545 0.11819189
000280 b5 1b 0a 3d e3 4e 04 be b1 05 59 3d aa 7c 2a bd
       0.03371783 -0.12920718 0.052983943 -0.041622795
000290 dc 71 d9 3c 4a 60 4b 3e e6 e1 83 3e 30 86 61 3d
       0.02654355 0.1986095 0.25758284 0.05505961
0002a0 e8 76 76 3e 5d 7b 1c bc 5d 32 22 3d ef c8 67 bc
       0.24068797 -0.0095508965 0.03959881 -0.014147027
0002b0 70 af 69 be 17 de 3c bc af 3b 8f bd 8a 49 e2 3c
       -0.2282083 -0.01152756 -0.069938056 0.027622957
0002c0 ed cb 12 bd bb 8a 4f 3d 98 f6 a5 3e f1 e8 a7 3e
       -0.03583901 0.050669413 0.324147 0.32794908
0002d0 18 49 6e 3e 3c d3 a7 3e e4 55 85 3e a3 48 73 3e
       0.2327007 0.32778347 0.26042092 0.23758177
0002e0 57 c3 0d 3e d1 33 ae 3e 1c b8 27 3e 94 2b 80 3e
       0.13844047 0.34023908 0.16378826 0.25033247
0002f0 97 44 81 bd c6 39 bd bb 21 ad aa bd 9a ed 6c 3c
       -0.063119106 -0.0057747094 -0.08333803 0.0144609455
000300 e0 ca 67 3d 20 63 b7 3e 95 9d 8c 3e a7 00 20 3e
       0.05658996 0.35817814 0.27463976 0.15625249
000310 4f d5 f6 3d d7 b5 41 bd 9f a9 0b 3d e0 3e 22 3e
       0.12052404 -0.047292557 0.03409731 0.15844297
000320 46 74 88 be 32 0e 80 bd 57 ba d2 bd 0a 41 ff bd
       -0.2665121 -0.062527075 -0.10289448 -0.12463577
000330 21 81 2e bd 12 96 9b bd 4d 88 69 3e 92 4c 50 3e
       -0.042603616 -0.07596983 0.22805901 0.2034171
000340 87 57 1c 3e 3f 05 63 3e 30 28 31 3e f2 45 81 3e
       0.15267764 0.2216997 0.17300487 0.25248677
000350 55 99 80 3e 1f a0 67 3e c2 d7 a2 3e 3e 7b b0 3d
       0.25116983 0.22619675 0.31805235 0.086172566
000360 71 f8 f6 bd 12 fe 69 be a4 f1 66 3d bd 39 12 3d
       -0.12059105 -0.22850826 0.05638279 0.035699595
000370 00 48 dc bc a7 64 c0 3e d0 18 b0 3e 89 60 29 3e
       -0.026889801 0.37576792 0.3439393 0.16540731
000380 9e f4 e5 bd ae 20 56 3e 0c d6 39 be 3c 76 18 3d
       -0.11228298 0.20910904 -0.18148059 0.037222132
000390 fd a8 98 3e 0f a4 23 be 76 1c 23 3c 16 a1 3f 3c
       0.29816428 -0.15980552 0.009955516 0.011696121
0003a0 cf 5a 4d 3d 0a bb 69 bd fd da 89 be 57 9c 51 be
       0.05013543 -0.05706314 -0.26924887 -0.20469795
0003b0 59 b1 c0 bd fe 5c 81 be d4 65 84 be aa aa 5e be
       -0.094088264 -0.2526626 -0.2585894 -0.2174479
0003c0 dd e7 20 be b9 0e a0 be bb eb 11 be 1c fe e2 bd
       -0.15713449 -0.31261232 -0.1425008 -0.11083624
0003d0 0b cc d4 3a 76 e5 76 3e 95 db 97 bc b5 04 77 3b
       0.0016235126 0.2411097 -0.018537322 0.0037692015
0003e0 24 a6 37 be 93 fa 10 bd 83 e5 03 be 48 34 e0 be
       -0.17934471 -0.035395216 -0.1288052 -0.43789887
0003f0 54 e7 82 3e 95 7f 0a bd 81 1c cc bc 12 f3 1d 3e
       0.25567114 -0.033813078 -0.024915935 0.15424755

lstm.weight_hh_l0 f4 [256, 64]
000000 82 2c f7 88 94 65 76 03 61 35 9b 89 22 cb 52 81
       -1.48762355e-33 7.240951e-37 -3.736509e-33 -3.871665e-38
000010 d3 c7 92 24 ad 6b 7c 1d 73 05 80 a1 00 e4 7b 03
       6.365592e-17 3.340759e-21 -8.67506e-19 7.4024e-37
000020 11 f8 44 ac 89 13 fb 84 b9 73 7e 02 7f 14 33 a2
       -2.799098e-12 -5.9027757e-36 1.8694184e-37 -2.4269874e-18
000030 0f c2 6d 9c 1a ab 49 02 7b f0 1c 30 b4 87 56 03
       -7.8667537e-22 1.4816252e-37 5.709421e-10 6.3044727e-37
000040 46 e8 07 8e 88 cb a7 04 6f ff a7 2f fe 18 27 05
       -1.675187e-30 3.9448425e-36 3.055862e-10 7.8568926e-36
000050 33 72 e8 a5 33 ab 14 ad f1 78 b6 0e be 04 43 2f
       -4.032297e-16 -8.45084e-12 4.4982926e-30 1.7736831e-10
000060 ea 04 22 9b b3 e0 e9 2f 06 0e 30 10 dc 93 40 81
       -1.3401914e-22 4.2542112e-10 3.4720683e-29 -3.5370914e-38
000070 41 ed 34 af d3 a4 ca 08 af c8 4b 99 f5 76 32 2a
       -1.6455194e-10 1.2196183e-33 -1.0535382e-23 1.5850847e-13
000080 e1 0a a2 16 14 77 d5 02 1d 37 f9 01 c4 4c f3 83
       2.6179377e-25 3.1365885e-37 9.154724e-38 -1.4299881e-36
000090 55 16 90 14 5e 44 82 83 c0 8d a8 04 7f db 8d 82
       1.4549093e-26 -7.65641e-37 3.9626787e-36 -2.0844073e-37
0000a0 6a 71 92 a3 eb 60 88 2f 97 ea 19 a5 53 03 19 89
       -1.5877384e-17 2.480712e-10 -1.3350117e-16 -1.8418268e-33
0000b0 2a 31 72 1e 53 df a6 8e 4e 3c 35 10 0d 9f 15 af
       1.282154e-20 -4.1137213e-30 3.5742413e-29 -1.3607977e-10
0000c0 33 f1 15 8c 97 0f 5c 86 25 3c c5 82 ac a3 79 2c
       -1.1551126e-31 -4.1388855e-35 -2.898107e-37 3.5475884e-12
0000d0 15 60 2e a5 98 eb 63 1c 87 24 9c 82 11 bd 19 9a
       -1.5124648e-16 7.5412497e-22 -2.2943106e-37 -3.1792385e-23
0000e0 ac c2 3e 0f 5e 5f 22 83 6a a4 1e 03 3c 10 47 9e
       9.405216e-30 -4.7716997e-37 4.6620765e-37 -1.05383295e-20
0000f0 97 08 b1 0e 50 83 a2 82 74 eb 58 90 14 2a 25 1f
       4.364214e-30 -2.387913e-37 -4.2779875e-29 3.4974915e-20
000100 d0 4a 34 83 5e 72 30 2c 1e 4a 70 9e 22 5a 55 83
       -5.2983126e-37 2.507459e-12 -1.2720821e-20 -6.269854e-37
000110 76 f5 42 2f 3e e0 22 2c 9e 2f 94 93 ea 5c dd 82
       1.7731402e-10 2.3146064e-12 -3.7407407e-27 -3.2526361e-37
000120 61 57 b2 94 f6 2c a4 03 6f e6 f1 0f ed 14 28 9f
       -1.8007872e-26 9.649376e-37 2.3853195e-29 -3.5592693e-20
000130 44 a2 c1 27 1a 08 12 30 0c b6 7a 30 5c f2 14 2d
       5.374419e-15 5.3126004e-10 9.1208174e-10 8.466641e-12
000140 d4 6d 32 a6 ab 45 63 ac c9 1f 1e 2c 5a 81 ea ae
       -6.1905e-16 -3.2297314e-12 2.2470795e-12 -1.06640655e-10
000150 79 5a b7 01 56 d4 7a 0b 55 9c fd 2b 1c 18 96 18
       6.7353405e-38 4.8307992e-32 1.8020122e-12 3.8798435e-24
000160 56 78 79 83 8c 7c 1b 04 48 a2 82 82 b8 05 70 83
       -7.331266e-37 1.8277352e-36 -1.9194928e-37 -7.0536226e-37
000170 24 6a 06 15 ff 85 c8 99 31 b8 1d 9e 92 25 84 16
       2.7144815e-26 -2.0733636e-23 -8.349601e-21 2.134946e-25
000180 8f ee d2 1d c5 14 14 28 ac 6f 1a 9a 81 4f 02 83
       5.58332e-21 8.220154e-15 -3.193666e-23 -3.8294832e-37
000190 e8 53 1f 8b 5f fa 0e 25 2e c2 0c 83 0d 34 9a 81
       -3.068541e-32 1.2401366e-16 -4.136521e-37 -5.6645355e-38
0001a0 1d 2e 17 1f 1f db fd 99 e6 a7 2c 03 08 df 60 9e
       3.2013638e-20 -2.6248089e-23 5.0738995e-37 -1.1904583e-20
0001b0 60 b6 77 a5 f8 b4 a9 84 96 54 51 1e 8d 93 ab 23
       -2.1485626e-16 -3.9897903e-36 1.108186e-20 1.8602347e-17
0001c0 10 dc e0 ad ed 91 7d ae 44 3b 74 81 a0 30 e9 24
       -2.5563579e-11 -5.7655148e-11 -4.4858243e-38 1.01130016e-16
0001d0 83 f1 17 29 de a4 13 84 20 4f 11 10 7b e5 90 83
       3.3738213e-14 -1.735547e-36 2.8657163e-29 -8.5162455e-37
0001e0 87 7a a9 04 e7 8e 96 2a f6 b4 70 96 28 65 42 30
       3.9844233e-36 2.674451e-13 -1.9444147e-25 7.072054e-10
0001f0 8d 2b 11 30 70 47 76 a8 9e a8 09 82 83 4e c9 07
       5.281258e-10 -1.3671234e-14 -1.0113561e-37 3.0289264e-34
000200 2b 0b 11 04 fa 37 34 02 6e 01 d4 28 e1 73 c4 82
       1.7049796e-36 1.3240376e-37 2.3537348e-14 -2.8866123e-37
000210 32 87 70 17 23 cf 39 96 33 e3 1e 24 a5 a5 28 96
       7.7718823e-25 -1.5009542e-25 3.4453234e-17 -1.36232e-25
000220 be d7 fc 0f 14 31 48 2d 3e 1c d7 84 29 f7 a9 8e
       2.493222e-29 1.1379581e-11 -5.0572193e-36 -4.1899723e-30
000230 24 df 62 98 7c 9a 67 1e da 31 84 ad 58 76 13 84
       -2.9322473e-24 1.2260985e-20 -1.5028801e-11 -1.7334108e-36
000240 a6 10 02 15 eb a9 13 2a f4 bd f9 02 e4 12 ea a5
       2.6266424e-26 1.3115175e-13 3.669629e-37 -4.060533e-16
000250 23 08 a9 04 a1 a5 10 05 f4 b5 7b a9 7f ad 95 99
       3.973918e-36 6.801269e-36 -5.5891015e-14 -1.5476313e-23
000260 02 b9 0e 30 08 47 5d 81 28 ee 9a 81 5d 6b 41 ad
       5.192221e-10 -4.0642252e-38 -5.6912403e-38 -1.0994619e-11
000270 33 d1 0e 84 46 ac b4 2f b6 3a 82 2c b2 83 04 03
       -1.678808e-36 3.2864217e-10 3.7013404e-12 3.8942492e-37
000280 51 af 78 2c 05 d6 c1 96 28 fa 27 96 a5 d3 1d 84
       3.534024e-12 -3.1315897e-25 -1.3569088e-25 -1.8552444e-36
000290 cf a7 a5 89 90 d1 a9 04 35 5e 09 b0 c4 20 72 25
       -3.988011e-33 3.9924162e-36 -4.9974186e-10 2.1001255e-16
0002a0 da b5 1c a9 be 1a a9 04 24 df 8d 83 7a 4e 07 9e
       -3.479669e-14 3.9756268e-36 -8.338466e-37 -7.163069e-21
0002b0 77 eb 20 1a 46 26 de 28 f5 3e 06 12 c6 91 81 21
       3.327743e-23 2.466355e-14 4.2360545e-28 8.779966e-19
0002c0 f2 d9 a6 a1 26 29 3b 82 42 da bb 0f 37 1d e1 2b
       -1.1306287e-18 -1.3750399e-37 1.8523694e-29 1.599532e-12
0002d0 a5 a6 5e 15 fe ce 16 90 82 65 ac 01 90 4b d5 8a
       4.4964002e-26 -2.9741745e-29 6.332848e-38 -2.0539577e-32
0002e0 ec e2 81 86 6e 69 9d 83 fc f5 9f 04 ee ad 27 83
       -4.885784e-35 -9.251836e-37 3.760662e-36 -4.927655e-37
0002f0 90 5c ce 02 4f 2f ea 1c 92 41 10 9c 87 75 07 02
       3.0322108e-37 1.549705e-21 -4.773035e-22 9.951962e-38
000300 4e ad 12 84 07 70 81 82 0a 74 19 30 65 01 29 b0
       -1.7241795e-36 -1.9019147e-37 5.5825977e-10 -6.1483824e-10
000310 cf fd 10 1a 0d 5c 06 30 a7 81 b8 83 46 39 06 30
       2.9983527e-23 4.887973e-10 -1.0844315e-36 4.8830306e-10
000320 ad 7a 78 82 8a 8a 7d ad a4 b7 b1 82 d4 e7 51 83
       -1.8255369e-37 -1.4412147e-11 -2.6113217e-37 -6.1685705e-37
000330 ef 8f d9 25 54 f6 5b 0b e7 e4 d3 96 58 82 3e 91
       3.7741033e-16 4.2363182e-32 -3.4233346e-25 -1.5028522e-28
000340 93 a0 73 8e f6 81 b4 02 01 e8 d3 8c ba 53 00 81
       -3.0029376e-30 2.6523217e-37 -3.264933e-31 -2.3569958e-38
000350 7a 30 88 af f6 54 88 15 db f3 2e 1f 16 91 13 82
       -2.47727e-10 5.506401e-26 3.7047646e-20 -1.0841492e-37
000360 c6 d6 69 19 3e d3 06 2f 39 00 0f 04 55 57 a1 04
       1.2089191e-23 1.2262277e-10 1.6809671e-36 3.793112e-36
000370 7b 68 a6 91 5f ce 53 aa e5 0d 8f 03 32 c6 23 83
       -2.6254573e-28 -1.8812164e-13 8.407975e-37 -4.812891e-37
000380 c7 49 35 ac c2 1f a3 19 92 85 7d 20 ce d4 8b 82
       -2.5762602e-12 1.6866632e-23 2.1474128e-19 -2.0546358e-37
000390 2e 5a 60 ad a3 f0 15 9c 79 bc 03 26 12 1f aa 84
       -1.275295e-11 -4.961098e-22 4.5705183e-16 -3.999534e-36
0003a0 56 41 cb 81 fd b7 ba 2e 18 20 b6 0c 4e 58 59 1e
       -7.4664175e-38 8.4909836e-11 2.8060856e-31 1.1506145e-20
0003b0 59 30 85 2e 2b c4 21 15 d2 cc 9c a5 86 21 bd 8c
       6.056728e-11 3.266844e-26 -2.7200478e-16 -2.9140237e-31
0003c0 a0 0a e4 96 24 f4 17 15 b2 43 be 81 81 2b 88 86
       -3.6842092e-25 3.06868e-26 -6.9892115e-38 -5.122144e-35
0003d0 ae 20 0f 04 4d 43 56 9e 79 3e 22 26 ce df 0f 84
       1.6824575e-36 -1.1342983e-20 5.6289707e-16 -1.6912335e-36
0003e0 2a 0c 3b 85 53 49 cf 18 32 6e 83 83 2e 03 d5 84
       -8.794932e-36 5.3582284e-24 -7.724788e-37 -5.007898e-36
0003f0 d9 33 50 11 16 fb 6a a1 d1 ea db 15 8e 99 ae 8c
       1.6424284e-28 -7.9614593e-19 8.882387e-26 -2.6901362e-31

lstm.bias_ih_l0 f4 [256]
000000 1f 9e 9f 3e 79 47 c3 3e d3 a0 75 3e da a4 bd 3e
       0.31175324 0.38140467 0.23987131 0.37039834
000010 98 e1 ea 3e a0 64 df 3e 54 c7 82 3e 47 40 7d 3e
       0.4587524 0.43631458 0.255427 0.24731551
000020 96 f3 d5 3e 80 5a e9 3e 59 13 de 3e 6a 21 8c 3e
       0.41787404 0.4557686 0.43374136 0.27369243
000030 05 a1 b6 3e 40 98 b3 3e 63 06 cd 3e af c8 e4 3e
       0.35669723 0.35077095 0.40043935 0.4468436
000040 9e e4 9d 3e e2 4b e1 3e 94 44 b0 3e bb fa cf 3e
       0.30838484 0.44003206 0.3442732 0.4062098
000050 3c 63 8a 3e e0 a7 ad 3e c3 e5 ed 3e ee cd 92 3e
       0.27028835 0.3391714 0.46464357 0.28672737
000060 78 d0 89 3e fe 46 c1 3e 4c c0 8d 3e ba f2 b2 3e
       0.26916862 0.37749475 0.27685773 0.3495081
000070 19 b0 cc 3e 23 c9 ec 3e 37 17 ba 3e f9 f3 9d 3e
       0.39978102 0.46247205 0.36345837 0.308502
000080 f3 34 de 3e fa 84 c9 3e 18 61 f1 3e 80 6a 99 3e
       0.43399772 0.39359266 0.4714439 0.29964066
000090 36 b4 85 3e 4a 5a d8 3e 2e 03 b1 3e 99 8c 8f 3e
       0.26114053 0.42256385 0.34572738 0.28036955
0000a0 25 81 e4 3e 41 86 df 3e 44 e3 b6 3e 62 fa 9b 3e
       0.4462978 0.43657115 0.35720265 0.30464464
0000b0 90 d1 ca 3e dc f3 91 3e 8e 71 8b 3e 21 fa ae 3e
       0.39613008 0.28506362 0.27235073 0.34175208
0000c0 9d f3 ca 3e 26 9a 81 3e a1 e7 a8 3e 63 2e e1 3e
       0.39638987 0.25312918 0.3298922 0.43980703
0000d0 26 eb f7 3e d3 e0 00 3f 7a 97 d7 3e c6 2e cf 3e
       0.48421592 0.50343055 0.42107755 0.40465373
0000e0 11 c1 f6 3e de 6a b4 3e 95 12 82 3e 1a 2b e6 3e
       0.48194173 0.35237783 0.25404802 0.4495476
0000f0 02 91 a9 3e 77 2a a9 3e 6c ea 7b 3e 8b 69 da 3e
       0.33118445 0.3304021 0.24601144 0.42658648
000100 5c 06 ab 84 80 f0 48 8f 94 54 48 05 4e 2d 59 8f
       -4.0207747e-36 -9.90708e-30 9.419489e-36 -1.07076514e-29
000110 27 47 b9 2e 1c c7 78 0f c6 ae b4 ae 1a 77 fb 82
       8.425465e-11 1.2265691e-29 -8.216498e-11 -3.6949496e-37
000120 e8 07 e1 02 5d 66 69 24 73 22 b2 93 dd f9 4e 2c
       3.3065317e-37 5.0610526e-17 -4.4967487e-27 2.9413063e-12
000130 d0 aa 2e 14 0f 5d db ac 67 2d 1a 21 0c 45 b3 19
       8.818442e-27 -6.234686e-12 5.223732e-19 1.8536054e-23
000140 2e d4 e5 19 2a ad 7c 30 2b f1 79 ae bc 26 a8 2c
       2.3763744e-23 9.1923147e-10 -5.6830245e-11 4.7791476e-12
000150 62 8a 68 15 96 de 51 85 d3 b6 c6 8c 76 5c a9 83
       4.6961192e-26 -9.868015e-36 -3.0616764e-31 -9.954155e-37
000160 8b 18 23 a4 a9 c0 35 2e 8e 63 1a 8d 5f a4 18 ae
       -3.536578e-17 4.1325752e-11 -4.757475e-31 -3.470679e-11
000170 13 e2 3f 03 0c 3e d3 16 00 34 18 2c 61 79 b8 2e
       5.6389376e-37 3.4128046e-25 2.1629365e-12 8.3889125e-11
000180 ef 77 b3 2f 11 cc 0c 04 d4 b7 25 83 99 6d 03 ac
       3.2645128e-10 1.6550624e-36 -4.8700166e-37 -1.8677059e-12
000190 e7 cb dc a9 c6 ab 9d 83 7b 6b 07 29 97 ee 43 25
       -9.805334e-14 -9.267068e-37 3.0069246e-14 1.6994391e-16
0001a0 1a 2f 5d aa df 49 90 2f 54 f8 00 b0 6c f2 6f 30
       -1.9645085e-13 2.6245936e-10 -4.6919024e-10 8.7292196e-10
0001b0 d9 99 33 05 c4 11 9b 0e 06 93 cc 2d d4 c8 a9 0c
       8.444797e-36 3.8227558e-30 2.3257406e-11 2.6159442e-31
0001c0 54 63 01 26 24 cd f1 88 75 99 53 1e 1a 15 85 96
       4.489048e-16 -1.4552888e-33 1.1201981e-20 -2.1500626e-25
0001d0 62 11 6e 2d 90 f6 bf 18 74 d1 11 04 88 31 e5 0e
       1.35325934e-11 4.9621307e-24 1.7140844e-36 5.6500555e-30
0001e0 bd 7f 44 0f fd a5 2f 85 dc 55 f6 82 25 1a f2 82
       9.6881476e-30 -8.258948e-36 -3.6195732e-37 -3.557371e-37
0001f0 c6 85 a3 97 2c c4 bd 95 0d a5 95 2c 24 af 7d 80
       -1.0567397e-24 -7.6645997e-26 4.253159e-12 -1.1542266e-38
000200 0a f7 e7 3e 04 c5 ae 3e cf c7 d6 3e d8 fe 9f be
       0.45305663 0.34134686 0.41949317 -0.31249118
000210 bc 2e ae be 44 73 e6 3e 38 a4 c1 be 22 77 a8 3e
       -0.3402003 0.45009816 -0.378206 0.3290339
000220 6d 89 dc be b1 c5 d1 be 99 6b 9c be 71 b8 ba 3e
       -0.43073598 -0.4097114 -0.3055084 0.36468843
000230 fe 9b bd be ce dc 87 3e 07 a6 b8 3e 42 a5 db 3e
       -0.37033075 0.26535648 0.3606417 0.4289952
000240 0c 44 db 3e ae c0 98 be 7b f1 e2 3e 67 4b d9 be
       0.42825353 -0.29834503 0.4432486 -0.4244034
000250 66 ad c2 3e ca c6 92 be 9d e6 cf be 51 2b d9 3e
       0.38022918 -0.2866729 -0.4060563 0.4241586
000260 b8 82 8d be ed 16 e0 3e fc b4 d7 3e 74 3f a3 be
       -0.27638793 0.4376749 0.42130268 -0.31884348
000270 f5 41 86 be 61 22 94 be 2d ca db be 7d 71 c1 3e
       -0.26222196 -0.2893248 -0.42927685 0.37781897
000280 78 01 b0 3e bc b0 a2 3e 0c 8b dd 3e 07 c2 80 3e
       0.3437612 0.31775463 0.43270147 0.2514803
000290 67 ff d5 be e8 f9 bb 3e ca 3a 98 3e 9d b2 b9 be
       -0.4179642 0.367141 0.29732352 -0.36269084
0002a0 7e 50 bc 3e 1f 6a df 3e 83 df db 3e 70 21 8f be
       0.3678016 0.4363565 0.42943963 -0.27955198
0002b0 8f fb c1 be fa 16 a5 3e 3a 40 ab be 43 b5 a0 3e
       -0.37887236 0.32244092 -0.33447438 0.31388292
0002c0 70 ae e2 be 9a 8b d7 3e b3 a7 da be 3a ac da be
       -0.4427371 0.42098695 -0.4270607 -0.42709523
0002d0 fb cd d4 3e b4 6f e3 3e 9f 3f 9f be b8 9c 89 3e
       0.415634 0.4442116 -0.31103227 0.2687738
0002e0 08 fb d7 3e 93 54 c3 be 13 52 d4 be f4 39 ba 3e
       0.4218371 -0.38150463 -0.41468868 0.3637234
0002f0 85 14 e0 3e 0f cd af 3e be dd ba be 1a db b6 be
       0.43765655 0.34336135 -0.364973 -0.35714036
000300 03 df ad 3e 48 99 c1 3e 36 71 7c 3e 78 84 f7 3e
       0.33959207 0.37812257 0.24652562 0.48343253
000310 25 07 ea 3e fe 81 ec 3e 2a 3e e9 3e 9c 6c a1 3e
       0.45708576 0.46192926 0.4555524 0.31528175
000320 9c ff bd 3e fc d8 91 3e 5c 5e 7f 3e 73 db 9b 3e
       0.37109077 0.28485858 0.24938339 0.30440864
000330 41 6e b0 3e bc 04 4b 3e 4d 30 ee 3e 4e 71 96 3e
       0.34459117 0.19826025 0.46521226 0.2938332
000340 8e bb cd 3e 92 3b 9d 3e f9 d1 d1 3e 4b 6d dc 3e
       0.40182155 0.3070951 0.4098051 0.43052134
000350 d1 a5 7d 3e 6a b5 e0 3e fb 9f db 3e 8f 52 cb 3e
       0.24770285 0.43888408 0.42895493 0.39711425
000360 fa e7 b4 3e 63 2b 02 3f 75 18 c7 3e 31 6a f2 3e
       0.35333234 0.5084745 0.38885847 0.47346643
000370 8e 92 e3 3e 4d 48 83 3e b9 5e a5 3e 14 65 d5 3e
       0.4444775 0.256411 0.3229883 0.4167868
000380 57 89 a6 3e a9 34 97 3e 89 a8 c5 3e f7 f4 c9 3e
       0.32526657 0.29532364 0.38605145 0.39444706
000390 a8 25 85 3e cf 8a 04 3f dd cf a5 3e e5 85 bc 3e
       0.26005292 0.51774305 0.3238515 0.36820903
0003a0 91 35 93 3e d9 64 d0 3e bb be 00 3f fc 66 b3 3e
       0.28751805 0.4070194 0.5029103 0.35039508
0003b0 30 0c c6 3e 88 06 89 3e 23 d1 82 3e 35 da e3 3e
       0.38681173 0.26762795 0.25550184 0.44502416
0003c0 ae f8 87 3e 13 55 c9 3e 37 b1 c4 3e 23 f2 ee 3e
       0.26556915 0.3932272 0.38416454 0.4666911
0003d0 de 90 e0 3e 3b 12 9c 3e fa f4 9f 3e a8 fa c6 3e
       0.43860525 0.3048266 0.3124159 0.3886311
0003e0 0e 00 e9 3e 34 28 99 3e d9 55 87 3e 35 43 cf 3e
       0.45507854 0.29913485 0.26432684 0.40480962
0003f0 b5 06 bb 3e a9 93 db 3e 45 c7 c4 3e 4a 52 c2 3e
       0.36528555 0.42886093 0.3843328 0.37953407

lstm.bias_hh_l0 f4 [256]
000000 69 78 a1 3e 44 a9 b1 3e 9a 6b 8a 3e 81 88 9e 3e
       0.31537178 0.34699452 0.27035218 0.3096352
000010 d0 ab fb 3e 5a e7 9f 3e 4e 18 b6 3e 9d 7b e1 3e
       0.4915452 0.31231195 0.35565418 0.44039622
000020 58 b5 d4 3e 1c 5c bd 3e 2d ee c8 3e 8c 02 69 3e
       0.41544604 0.36984336 0.39244214 0.22754878
000030 ca e6 88 3e df dc c6 3e cc b5 e7 3e 5d 30 70 3e
       0.26738578 0.38840386 0.45255888 0.23455949
000040 10 39 e6 3e 8e 93 90 3e d5 cd b9 3e 9c a7 bb 3e
       0.4496541 0.28237575 0.3628985 0.36651313
000050 7f 6d dd 3e 72 c3 a8 3e 2b 56 93 3e 05 8c c1 3e
       0.432476 0.32961613 0.28776678 0.3780214
000060 fd b9 8d 3e 8c 3e c3 3e 09 ac 9f 3e 7c a0 d3 3e
       0.2768096 0.38133657 0.3118594 0.41333377
000070 4e f8 c6 3e 42 f9 ae 3e d7 f9 bb 3e cd 66 ac 3e
       0.38861316 0.34174544 0.3671405 0.3367218
000080 a1 18 cf 3e d9 08 94 3e 1f 4a f3 3e e8 42 f7 3e
       0.40448478 0.28913 0.47517487 0.48293233
000090 55 62 d8 3e 16 cf d5 3e 7f ca 81 3e 99 50 ec 3e
       0.4226252 0.41759557 0.25349805 0.4615524
0000a0 ef ec d6 3e 12 69 be 3e 40 94 c4 3e d3 f5 d5 3e
       0.4197764 0.37189537 0.38394356 0.41789111
0000b0 8e 01 8f 3e 33 29 c0 3e 25 9d df 3e 8a d1 e6 3e
       0.27930874 0.37531433 0.4367458 0.4508174
0000c0 92 93 aa 3e b0 8c d1 3e 38 a3 af 3e a3 87 b1 3e
       0.33315712 0.4092765 0.34304214 0.34673795
0000d0 24 52 b9 3e d8 e8 ad 3e b1 0f fb 3e 92 c5 af 3e
       0.3619548 0.33966708 0.4903541 0.34330422
0000e0 43 a5 fb 3e 02 cb bc 3e f0 44 ad 3e aa c0 04 3f
       0.49149522 0.36873633 0.33841658 0.5185648
0000f0 ba 51 a4 3e c8 4b e4 3e d7 17 ba 3e bd dc e5 3e
       0.32093602 0.44589067 0.36346313 0.44894972
000100 a9 77 3e 21 fe 42 ec 94 0f a5 47 30 fb 4f b5 9b
       6.4532873e-19 -2.3856334e-26 7.263034e-10 -2.9995624e-22
000110 a2 24 ac 04 09 0c 03 25 47 4e 9d 88 4e e0 e3 8c
       4.0470648e-36 1.1366516e-16 -9.467497e-34 -3.5109886e-31
000120 3a 3c 15 2f 49 21 25 08 22 9b 37 1e c4 16 be 8c
       1.3572868e-10 4.969201e-34 9.72002e-21 -2.9287837e-31
000130 9e db ec 96 be 2f 3a 90 a3 fd 54 8e 7b 4e 2a ae
       -3.8266454e-25 -3.671881e-29 -2.625314e-30 -3.872323e-11
000140 7c 52 d2 9c 28 59 aa 04 0a e2 12 84 cd 27 13 84
       -1.3917956e-21 4.0048685e-36 -1.726601e-36 -1.7298043e-36
000150 61 6e ee 82 f3 01 0e 99 0c 4a b7 0f 72 b1 1b 2f
       -3.5034311e-37 -7.3416216e-24 1.8073715e-29 1.4160209e-10
000160 32 e5 15 8b 68 46 78 8e 66 1f 68 03 fd ba 9d 2a
       -2.8868784e-32 -3.060226e-30 6.8214716e-37 2.8018552e-13
000170 42 63 a7 0e 41 37 c2 25 06 89 65 94 21 86 11 04
       4.126426e-30 3.3691077e-16 -1.15885685e-26 1.7106257e-36
000180 00 23 b8 2b f7 06 14 19 21 ed 2e a0 35 ee f8 82
       1.3083701e-12 7.652827e-24 -1.4816833e-19 -3.657705e-37
000190 06 f6 29 04 a7 fa d7 8c db 1b 10 9e c6 c5 a3 02
       1.9978823e-36 -3.327685e-31 -7.629057e-21 2.4064214e-37
0001a0 cb ac 48 9d 61 c8 79 82 a5 94 84 03 75 a0 ab 2d
       -2.6559111e-21 -1.8351137e-37 7.79239e-37 1.9511706e-11
0001b0 ba b0 2a 83 20 40 75 13 d7 27 f8 8c 16 a4 9f 27
       -5.016138e-37 3.0954964e-27 -3.8234428e-31 4.4309268e-15
0001c0 bf 1c 18 21 de 8d a8 84 a4 c0 50 a4 0f 96 6a 03
       5.153765e-19 -3.9626895e-36 -4.5265983e-17 6.893868e-37
0001d0 9a 86 d6 02 91 df a5 03 0b a5 5f 91 ab bd 39 30
       3.1521731e-37 9.749157e-37 -1.7642456e-28 6.757214e-10
0001e0 77 3e 90 89 c5 f3 b5 25 fa 9a ff a8 59 9c 0a 0d
       -3.472548e-33 3.156368e-16 -2.8377897e-14 4.271273e-31
0001f0 11 73 18 2f 40 1c 46 a2 e1 11 6f 9e 37 b9 d4 2f
       1.3865199e-10 -2.684896e-18 -1.2656252e-20 3.8694178e-10
000200 e2 66 9a 3e 2f bb b4 3e d7 f9 d8 3e fa 82 ed be
       0.30156618 0.3529906 0.42378113 -0.4638899
000210 80 20 e1 be 2a 25 e6 3e 48 a1 88 be ca 31 b7 3e
       -0.43970108 0.4495023 -0.26685548 0.35780174
000220 aa 75 b4 be 5f 33 c7 be 3d 38 e6 be 53 11 bc 3e
       -0.3524602 -0.3890638 -0.4496478 0.36731967
000230 47 ff 96 be 18 85 93 3e 97 f9 ba 3e 33 e8 b0 3e
       -0.29491636 0.2881248 0.36518547 0.34552154
000240 9c d9 a6 3e fa 76 e7 be d1 6f b0 3e 35 63 b1 be
       0.32587898 -0.4520796 0.3446031 -0.34646
000250 e4 dd bd 3e 5d 22 f9 be 35 19 bf be 17 05 6f 3e
       0.37083352 -0.4865903 -0.3732392 0.23341785
000260 dd 1e b2 be 30 69 96 3e 1b d5 d5 3e f9 d1 e0 be
       -0.34789172 0.29377127 0.4176415 -0.43910196
000270 8f d6 db be fc d1 df be 71 4b 9d be 59 f5 db 3e
       -0.42937133 -0.43714893 -0.3072162 0.42960623
000280 2e e2 89 3e 40 c0 e2 3e 09 8e 92 3e 5d ad c9 3e
       0.26930374 0.442873 0.2862399 0.39390078
000290 f1 8e df be 12 a0 f2 3e 53 3a dc 3e b5 e5 be be
       -0.43663743 0.4738775 0.43013248 -0.37284628
0002a0 a2 9c cb 3e ec 1f c0 3e a5 e5 a8 3e 84 f3 d1 be
       0.3976794 0.37524354 0.32987705 -0.410061
0002b0 4d 48 ce be 9a cc d0 3e fd 67 c5 be 44 e8 d1 3e
       -0.40289536 0.407811 -0.385559 0.40997517
0002c0 d9 c2 a8 be b9 fc e1 3e b2 a5 91 be 7a 63 b0 be
       -0.32961157 0.44138125 -0.28446728 -0.34450895
0002d0 b1 c6 c3 3e ad f7 bb 3e 86 8f e3 be 71 67 b4 3e
       0.38237527 0.367124 -0.44445437 0.3523517
0002e0 b4 46 98 3e 68 77 d1 be 39 fc a5 be 8c a3 dc 3e
       0.29741442 -0.40911412 -0.32418993 0.43093526
0002f0 99 08 6d 3e 3f de d4 3e 7e 42 ae be 45 cb b8 be
       0.23147811 0.4157581 -0.34035105 -0.36092582
000300 c5 35 f5 3e 60 05 9f 3e b6 db 8a 3e 83 47 a6 3e
       0.47892585 0.31058788 0.2712075 0.32476434
000310 29 72 ae 3e 70 f4 fc 3e fa 1b 7f 3e fb 38 c6 3e
       0.34071472 0.4940524 0.24913016 0.38715348
000320 5a 76 d5 3e b5 d8 6d 3e 1d 23 bb 3e 31 bf c5 3e
       0.41691858 0.23227198 0.36550227 0.3862243
000330 de d2 d1 3e 32 e8 8c 3e 88 b3 b1 3e ac d3 b6 3e
       0.4098119 0.275209 0.34707284 0.35708368
000340 2e 86 b7 3e d4 57 ff 3e 4e 36 f7 3e 88 72 b3 3e
       0.35844558 0.49871695 0.4828362 0.35048318
000350 5c b2 ee 3e a2 cd 8e 3e 57 d6 8a 3e 88 29 5c 3e
       0.46620452 0.2789126 0.27116653 0.21500218
000360 45 eb 6c 3e 2c 4a cd 3e 11 4b cc 3e 01 d5 b3 3e
       0.23136623 0.4009565 0.3990102 0.35123447
000370 0a 08 c5 3e 5c 6f 92 3e e1 a6 d3 3e 28 6a a5 3e
       0.38482696 0.28600585 0.41338256 0.32307553
000380 6f 22 c6 3e 79 df d8 3e 6b 59 b4 3e 74 28 a3 3e
       0.38698146 0.42357996 0.3522447 0.318668
000390 6d 9f e1 3e ba 35 c3 3e 45 0d 9f 3e c8 c1 e4 3e
       0.44066945 0.38126928 0.3106481 0.44679093
0003a0 08 0e ad 3e eb f9 88 3e b7 41 94 3e 3f fc 8f 3e
       0.33799767 0.26753172 0.28956386 0.28122136
0003b0 16 51 dc 3e 80 c5 c0 3e a0 39 cf 3e a5 0f a2 3e
       0.43030614 0.3765068 0.40473652 0.3165256
0003c0 b1 24 c9 3e 51 cd e7 3e 0d 0e 8c 3e 49 b1 f1 3e
       0.39285806 0.4527383 0.2735447 0.4720557
0003d0 f0 40 f3 3e d5 b1 e3 3e b5 03 c8 3e 65 bc df 3e
       0.4751048 0.44471613 0.39065328 0.4369842
0003e0 99 fe 9a 3e f4 0c c8 3e ff 7e a8 3e 9f 7c ba 3e
       0.30272368 0.39072382 0.3290939 0.36423203
0003f0 f8 a1 7f 3e 53 d8 ee 3e 56 2a d0 3e fe 52 03 3f
       0.2496413 0.46649417 0.406573 0.5129851

lstm.weight_ih_l1 f4 [256, 64]
000000 8b e7 b0 3e 98 37 d7 3e 5d dc b2 3e bc 4d d4 be
       0.34551653 0.42034602 0.3493375 -0.41465557
000010 ae c7 a6 be a5 70 8b 3e 81 b3 7d be 93 30 84 3e
       -0.3257422 0.27234378 -0.24775507 0.2581831
000020 b8 8d 69 be 6f 83 c5 be 3f cb 9e be 2d 27 94 3e
       -0.22807968 -0.38576838 -0.3101444 0.2893614
000030 f7 6e 39 be ca 2b 8e 3e 78 af 90 3e ec 6c 2a 3e
       -0.18108736 0.27767783 0.28258872 0.16643113
000040 c6 67 8b 3e 82 86 48 be de f6 4c 3e 72 08 cc be
       0.2722761 -0.1958256 0.20016047 -0.39850193
000050 02 cc c4 3e a2 5b d2 be 09 59 d0 be 11 9f 5c 3e
       0.38436896 -0.41085535 -0.40692928 0.21545054
000060 fd 30 c7 be 27 f3 8b 3e f5 21 6c 3e ef af d6 be
       -0.38904563 0.27333948 0.23059829 -0.41931102
000070 72 7f ab be 19 80 8b be c1 3d 9b be dc 8e dc 3e
       -0.3349567 -0.27246168 -0.30320552 0.43077743
000080 9e b8 b0 3e bc cc 79 3e 6f 1d 27 3e 67 71 b7 3e
       0.34515852 0.24394506 0.16319822 0.35828707
000090 bb 2c 34 be d0 c2 9f 3e b4 cf 97 3e 49 35 b5 be
       -0.17595188 0.31203318 0.29650652 -0.35392216
0000a0 39 93 c7 3e c8 3c 6d 3e ed d5 df 3e cb cd 4d be
       0.3897951 0.23167717 0.437179 -0.20098035
0000b0 65 43 da be 16 7d a3 3e c2 19 63 be 23 df 8e 3e
       -0.42629543 0.3193137 -0.22177795 0.27904615
0000c0 0f d8 e1 be f8 27 91 3e f2 53 9c be f1 03 c2 be
       -0.44110152 0.28350806 -0.30532795 -0.37893632
0000d0 81 14 7c 3e 0b 82 8e 3e 25 6b ca be ed 94 bd 3e
       0.24617197 0.2783359 -0.3953487 0.37027684
0000e0 c6 61 b3 3e 37 ef ac be c6 1e 42 be dc fa c7 3e
       0.35035533 -0.33776256 -0.18957052 0.39058578
0000f0 88 22 6d 3e e6 39 b6 3e 58 1e 95 be ba a7 ec be
       0.23157704 0.35591048 -0.29124713 -0.46221715
000100 c7 df 93 3e d0 f7 a5 3e b1 f6 18 3e 48 20 b3 be
       0.28881666 0.32415628 0.14937855 -0.34985566
000110 dd c8 ce be d8 78 70 3e 0a 86 95 be 07 f0 b7 3e
       -0.40387622 0.23483598 -0.29203826 0.35925314
000120 49 34 d2 be 5b 29 ca be 7d 7f 98 be dd 25 d4 3e
       -0.41055515 -0.39484677 -0.29784766 0.41435137
000130 96 b8 a7 be 1c 92 a3 3e 73 a4 c8 3e 85 86 11 3e
       -0.32758015 0.3194741 0.39187965 0.14211471
000140 99 0d c6 3e d3 dc ac be 0b 0a 92 3e 78 aa a2 be
       0.3868225 -0.33762226 0.28523287 -0.31770682
000150 c8 e1 c1 3e d4 a5 45 be e3 8d a2 be 86 e2 18 3e
       0.3786757 -0.1930154 -0.31748876 0.14930162
000160 9d 76 b7 be fd 51 d8 3e 3c 22 bb 3e ce f7 51 be
       -0.35832682 0.42250052 0.36549556 -0.20504686
000170 02 cd 95 be 9f c3 93 be 77 46 f3 be cc 00 8e 3e
       -0.2925797 -0.28860185 -0.47514698 0.27734983
000180 e2 c4 bd 3e 67 a0 87 3e ec 71 73 3e 93 08 ad 3e
       0.37064272 0.26489565 0.23773926 0.33795604
000190 64 98 67 be 72 c9 1e 3e 25 80 43 3e 17 3b 98 be
       -0.22616726 0.15506533 0.19091852 -0.29732582
0001a0 d8 0b 9b 3e 16 d7 a1 3e aa 3f d1 3e b3 2e d1 be
       0.30282474 0.3160941 0.40868884 -0.4085594
0001b0 17 9a 35 be f1 0c d0 3e 90 f2 39 be 09 b7 77 3e
       -0.17734562 0.40634874 -0.18158937 0.24190916
0001c0 fa 24 f2 be ba 26 71 3e 7a 30 bd be ea db 82 be
       -0.47293836 0.2354993 -0.36951047 -0.25558406
0001d0 33 36 30 3e 23 fa 93 3e b9 12 ac be a2 4c b8 3e
       0.17208175 0.28901777 -0.33608034 0.35995966
0001e0 22 95 c3 3e 56 56 75 be a5 b1 ac be 23 f3 61 3e
       0.38199717 -0.23958716 -0.33729282 0.22065406
0001f0 33 84 c8 3e 63 07 db 3e 25 85 63 be a2 d0 c9 be
       0.3916336 0.42779073 -0.2221876 -0.39416987
000200 fe d7 8f 3e dd a5 80 3e e2 34 91 3e ca 48 6a be
       0.28094476 0.25126544 0.2836066 -0.2287933
000210 5c a2 a9 be 86 a7 34 3e 7d c1 ba be 97 99 39 3e
       -0.33131683 0.1764203 -0.36475745 0.18124996
000220 83 c8 da be 0a 48 ae be bf f6 9f be 4a 2f d1 3e
       -0.42731103 -0.34039336 -0.3124294 0.4085639
000230 16 60 78 be 04 8c 86 3e 29 9f 42 3e 87 82 bf 3e
       -0.24255404 0.26278698 0.19006027 0.37404272
000240 6a 4d ce 3e 7e 5c aa be 6a 76 8e 3e 6a 97 b3 be
       0.40293437 -0.3327369 0.27824718 -0.35076457
000250 9b 2f eb 3e 30 8e ce be b5 19 b6 be b2 6c 58 3e
       0.45934758 -0.40342855 -0.35566488 0.21135214
000260 72 63 a9 be 13 8d 95 3e c7 e2 7c 3e 62 ef 90 be
       -0.33083683 0.29209194 0.24695884 -0.28307635
000270 17 fd b4 be cb 38 87 be 89 06 93 be 63 82 a8 3e
       -0.35349342 -0.26410517 -0.28715923 0.32911977
000280 7a b8 cb 3e 62 b8 b9 3e f9 5d 41 3e 3e 25 d5 3e
       0.39789182 0.36273485 0.18883504 0.41629976
000290 3c ff d1 be 26 36 bc 3e 03 e0 74 3e 2f 97 b6 be
       -0.4101504 0.36760062 0.23913579 -0.3566222
0002a0 c5 ae bc 3e eb 7e c5 3e eb 78 67 3e bf bd 97 be
       0.3685209 0.38573393 0.2260472 -0.29636952
0002b0 32 fe 82 be cb 56 9d 3e 58 e8 83 be 73 08 2e 3e
       -0.2558456 0.3073028 -0.25763202 0.1699541
0002c0 42 5f d1 be 59 db a8 3e 54 e3 73 be 06 dd 8d be
       -0.40892988 0.3297985 -0.23817188 -0.2770769
0002d0 40 63 63 3e de ff 88 3e 7c 18 44 be 8f ae a3 3e
       0.2220583 0.2675771 -0.19149965 0.31969115
0002e0 89 5c 98 3e 3e bd d6 be 99 3f 96 be 79 b1 cd 3e
       0.297581 -0.41941255 -0.29345396 0.40174463
0002f0 90 c5 5b 3e 96 36 c2 3e 9c eb 7c be 2c c7 6f be
       0.21462083 0.3793227 -0.24699253 -0.23415822
000300 3a d6 7c 3e 71 23 c0 3e 49 cb 86 3e bf 9e 9a be
       0.24691096 0.3752704 0.2632697 -0.3019924
000310 66 53 73 be c6 c8 8a 3e 12 86 23 be 5b 2c a8 3e
       -0.23762283 0.27106303 -0.15969113 0.3284634
000320 b9 af ae be 63 30 65 be f4 7d 88 be 8f 4e c9 3e
       -0.3411844 -0.2238174 -0.26658595 0.39317748
000330 ac 83 ac be ca 7e a7 3e fb 88 c4 3e 80 68 93 3e
       -0.33694208 0.3271392 0.38385758 0.28790665
000340 18 0e 5c 3e 27 f8 ae be 6c 5a be 3e 22 54 93 be
       0.21489751 -0.341737 0.3717836 -0.28775126
000350 92 91 bb 3e 7c 36 46 be 49 eb 90 be 7c 6b c4 3e
       0.366345 -0.19356722 -0.28304508 0.38363254
000360 51 a1 96 be af af 3b 3e 7e c9 94 3e ba 54 a9 be
       -0.2941995 0.18328737 0.29059976 -0.33072454
000370 83 d4 b7 be b5 03 9b be 9a fb b7 be 5c 1f 46 3e
       -0.3590432 -0.30276266 -0.35934144 0.193479
000380 e2 47 df 3e 79 b0 bf 3e 11 94 34 3e 84 de 8e 3e
       0.4360953 0.37439325 0.17634608 0.2790414
000390 d0 93 a8 be 25 73 48 3e cd 48 90 3e dd 41 ae be
       -0.32925272 0.19575174 0.28180543 -0.34034625
0003a0 da 88 c0 3e 3c 51 bf 3e 70 db c3 3e 3e c6 be be
       0.3760441 0.37366664 0.38253355 -0.37260622
0003b0 79 b2 ae be a0 98 be 3e 95 9c 5e be 60 ce 93 3e
       -0.3412054 0.3722582 -0.21739419 0.2886839
0003c0 99 e3 b3 be c1 f1 8f 3e 9f d5 69 be ef c1 cd be
       -0.3513458 0.2811413 -0.22835396 -0.40187022
0003d0 cd 01 a4 3e a0 23 5c 3e 18 78 bc be a1 c3 c4 3e
       0.32032624 0.21497965 -0.36810374 0.38430503
0003e0 c9 94 8d 3e a5 52 b5 be 0c 34 20 be 9e e3 87 3e
       0.27652577 -0.35414615 -0.15644854 0.26540846
0003f0 8c 3e a5 3e 30 4f a9 3e dd c7 a8 be 61 f2 e0 be
       0.32274282 0.33068228 -0.32964984 -0.4393492

lstm.weight_hh_l1 f4 [256, 64]
000000 a2 6a a8 84 98 2e 8a 02 d4 86 3e 2d d0 a4 9f ab
       -3.9594537e-36 2.030402e-37 1.08301874e-11 -1.1343374e-12
000010 a9 fb f8 0c 06 d3 33 a8 74 4b 38 02 d8 a3 e0 25
       3.8361913e-31 -9.9822545e-15 1.3539839e-37 3.896883e-16
000020 c8 82 4a 80 a1 29 cb 23 68 f9 29 1b 1b 43 13 84
       -6.842742e-39 2.2026935e-17 1.405994e-22 -1.731058e-36
000030 fd a9 63 2b ee 6a 16 84 4c ce 8e 9d b9 0d 88 ae
       8.0882507e-13 -1.7681515e-36 -3.7800393e-21 -6.1870016e-11
000040 22 b0 0b 94 a2 c1 f7 98 9c 7f 1d 1d 2a 34 a9 84
       -7.052443e-27 -6.4043523e-24 2.084475e-21 -3.9779614e-36
000050 37 53 44 1e ea c1 65 a7 80 8c 85 2e c2 fc 13 84
       1.0393362e-20 -3.1885255e-15 6.0730976e-11 -1.7395828e-36
000060 47 17 ab 04 d7 32 e2 8c f8 0a 3d 02 48 ba 0f 04
       4.0223284e-36 -3.4851412e-31 1.3888675e-37 1.6895105e-36
000070 46 d7 96 99 3e e7 0d 1a 61 d7 c3 02 3c 71 00 03
       -1.5596585e-23 2.9344913e-23 2.8776296e-37 3.7745806e-37
000080 c6 d6 f5 0c ac a5 75 1e 20 a7 12 87 18 b6 22 11
       3.787749e-31 1.3004452e-20 -1.1032933e-34 1.2835659e-28
000090 a0 65 20 80 49 20 55 93 70 25 e7 82 f8 39 cb 11
       -2.975192e-39 -2.6900297e-27 -3.3963887e-37 3.2063479e-28
0000a0 c9 97 8a 03 b8 75 ca 0e f9 93 0f 84 2f 24 1d 90
       8.145759e-37 4.9910204e-30 -1.6877515e-36 -3.0990665e-29
0000b0 86 62 63 a8 99 fa 03 a9 4f a1 ee 11 5e 76 a5 02
       -1.2622395e-14 -2.9305202e-14 3.7649193e-28 2.431251e-37
0000c0 eb 8b 1a 26 76 90 86 27 0a 38 33 8e 51 4b fb 22
       5.3619107e-16 3.7349096e-15 -2.2090435e-30 6.811343e-18
0000d0 3f 8f b1 0e f4 29 fb 02 ce 6b 83 af 88 b0 30 9f
       4.377181e-30 3.6905215e-37 -2.390536e-10 -3.7415473e-20
0000e0 db a8 9b 04 1d a9 2b ae 8a 87 37 a6 39 26 da ac
       3.6595394e-36 -3.90311e-11 -6.367457e-16 -6.2001762e-12
0000f0 49 ad ad ad ad e5 6c 9e c7 7b 35 02 36 30 a9 96
       -1.9744777e-11 -1.2541232e-20 1.3333302e-37 -2.7333848e-25
000100 4e d0 50 b0 8a f3 88 03 b8 12 26 af d8 45 c6 2e
       -7.596598e-10 8.049275e-37 -1.5104262e-10 9.016404e-11
000110 57 52 f1 15 c2 49 b3 82 0a 50 53 8b 6f 30 b3 25
       9.7469034e-26 -2.634402e-37 -4.0697337e-32 3.108437e-16
000120 d5 67 95 28 21 55 25 06 6f 20 83 ac d1 be 34 85
       1.6587353e-14 3.1095594e-35 -3.726845e-12 -8.498607e-36
000130 4a 8c e2 99 26 64 b7 29 3d 06 36 03 ae e5 95 03
       -2.3424515e-23 8.1442055e-14 5.3492154e-37 8.810165e-37
000140 c6 98 c5 a1 ce 39 25 2e 44 88 48 83 30 16 1b 83
       -1.3389678e-18 3.7567997e-11 -5.8931143e-37 -4.5575876e-37
000150 40 31 a9 84 89 20 ac a3 41 32 33 aa ce f6 55 28
       -3.9776938e-36 -1.8662057e-17 -1.5915829e-13 1.18773924e-14
000160 0a 8e 14 83 cb fd 77 82 c3 95 1d 16 a1 8d 0f 26
       -4.3656344e-37 -1.8219529e-37 1.2729615e-25 4.9805034e-16
000170 bc 2e 86 01 c7 d0 89 03 12 1b 15 84 44 33 19 ab
       4.9290886e-38 8.100069e-37 -1.7527296e-36 -5.4427665e-13
000180 84 e3 84 8f 41 3e f9 02 5a 31 12 04 df ff d8 26
       -1.3103841e-29 3.6622994e-37 1.7184879e-36 1.5057365e-15
000190 86 0f fa 01 d4 30 85 0f 81 8a ab 0f 3e 7e 83 a3
       9.185777e-38 1.313362e-29 1.6915252e-29 -1.4256514e-17
0001a0 6a d8 d5 af 84 4d c6 2e 2c 86 c5 14 b3 d7 26 8c
       -3.8898246e-10 9.017767e-11 1.9944838e-26 -1.2853084e-31
0001b0 05 9e 23 ac dd ea ec 16 73 79 87 a7 8a 96 38 85
       -2.3251412e-12 3.8276076e-25 -3.7601703e-15 -8.679288e-36
0001c0 0e d4 12 84 1d cc a9 04 3c b6 0d 84 16 a0 20 1a
       -1.7259588e-36 3.9919158e-36 -1.6658148e-36 3.321654e-23
0001d0 48 c5 2f 10 fa c3 10 04 65 30 ae 0c a5 7b bb ab
       3.4664645e-29 1.7017107e-36 2.6838071e-31 -1.3321467e-12
0001e0 f4 a8 ad 2b 5a 96 d2 07 8c 38 0e 1e b5 fb 1f 8e
       1.2339283e-12 3.1685657e-34 7.529111e-21 -1.9719456e-30
0001f0 b5 c3 e9 16 fb d8 49 ab 4d 18 2b 2a 5e 3d b9 a9
       3.7766689e-25 -7.1710666e-13 1.5196282e-13 -8.226296e-14
000200 58 69 76 2c 54 c5 cd ac 7c 0f b8 ad c7 e7 8b 06
       3.501718e-12 -5.8483583e-12 -2.0925255e-11 5.2626555e-35
000210 0c 79 a5 19 47 9b 34 85 f5 d8 57 88 9f a1 69 a2
       1.710949e-23 -8.492079e-36 -6.495424e-34 -3.166295e-18
000220 a6 48 97 2d 1a 2a b7 08 72 11 0a 03 c7 62 13 04
       1.7198975e-11 1.102381e-33 4.057458e-37 1.7325123e-36
000230 50 b8 c4 0e 9d 4f 2f 1e d8 b4 f6 08 4a bc af ae
       4.8495217e-30 9.2808865e-21 1.4848103e-33 -7.9915255e-11
000240 23 91 e3 a9 fa f4 d8 0d fb cf 20 83 43 12 dc 08
       -1.0106002e-13 1.3371004e-30 -4.7258524e-37 1.3245062e-33
000250 67 b4 96 03 e5 a8 55 2b 1d f8 d8 16 20 07 62 1e
       8.857626e-37 7.590719e-13 3.5053264e-25 1.1965814e-20
000260 fa 17 0e 03 7d 1d 14 04 de 95 74 9a 9f 78 ab 84
       4.1757573e-37 1.7410857e-36 -5.057908e-23 -4.031268e-36
000270 20 69 21 96 a5 e6 0e 04 98 e2 aa 0c 54 bd 8c 82
       -1.3038648e-25 1.6797927e-36 2.6329023e-31 -2.067982e-37
000280 7c e2 12 9a f4 a2 80 8e 79 58 83 82 7c 9b e5 99
       -3.0375045e-23 -3.1711354e-30 -1.92995e-37 -2.3740845e-23
000290 b9 6f 67 99 b0 f7 e6 82 29 1a b7 ab 64 90 fa 02
       -1.1964982e-23 -3.3937628e-37 -1.3010193e-12 3.6817075e-37
0002a0 fd 20 29 26 3b 27 af 9e ca af 1a 01 9c 94 81 83
       5.867836e-16 -1.8545071e-20 2.8411455e-38 -7.616058e-37
0002b0 d4 21 d9 88 c2 5a de 14 d9 a0 82 a9 8b d7 07 24
       -1.3068165e-33 2.2452069e-26 -5.8010623e-14 2.945603e-17
0002c0 fe ee 7f 24 a8 3f 16 03 8b 18 76 03 79 1c c4 24
       5.5496745e-17 4.415411e-37 7.2321077e-37 8.5049685e-17
0002d0 df 55 86 ac ea a9 84 15 48 31 98 2d e9 61 36 82
       -3.8180427e-12 5.358245e-26 1.7302285e-11 -1.3399347e-37
0002e0 44 46 22 28 2f 04 19 88 eb 25 97 8f 42 9a aa 0e
       9.008043e-15 -4.604668e-34 -1.4904355e-29 4.205678e-30
0002f0 10 3b eb 2b 2a 6d 6f b0 41 ad 5a ae 64 3c 37 2f
       1.6714147e-12 -8.7102825e-10 -4.972134e-11 1.6665208e-10
000300 fc 8c 86 01 7c c8 7f 28 24 39 2c 1f c0 a8 aa 04
       4.942613e-38 1.4198817e-14 3.6469682e-20 4.012178e-36
000310 de 12 2c 0c 3c ad 83 a7 c1 c9 51 2d 92 6b 90 05
       1.3256076e-31 -3.6547625e-15 1.1925073e-11 1.358121e-35
000320 9a d3 b0 02 1d 2e f1 0f 5a 32 d5 a7 42 a4 fe 02
       2.598233e-37 2.3782197e-29 -5.9173967e-15 3.7416225e-37
000330 ba 88 72 1e fc 16 41 2c 21 be 83 9f fb 55 83 04
       1.2839648e-20 2.7439708e-12 -5.57952e-20 3.0876913e-36
000340 be 25 aa 04 3a 48 8a 01 15 ea 08 a8 de e9 3b 2e
       4.000147e-36 5.0796834e-38 -7.600275e-15 4.2726593e-11
000350 2e c7 11 84 cc 15 2d 9e 79 14 8f aa c1 a2 ba af
       -1.7136127e-36 -9.163051e-21 -2.5416109e-13 -3.3948847e-10
000360 90 92 dc ad c1 67 74 19 2a 8a 1b 02 99 2c ef 25
       -2.5076191e-11 1.2635457e-23 1.1427253e-37 4.1490112e-16
000370 48 bd f0 87 e5 2c a9 84 bb b5 65 06 fb 31 94 a9
       -3.6222436e-34 -3.9772938e-36 4.3203627e-35 -6.5811905e-14
000380 fc 25 46 19 19 4d 0f 84 76 ec 83 18 47 ee 07 03
       1.0244031e-23 -1.684497e-36 3.410147e-24 3.9946463e-37
000390 35 36 e7 96 b2 90 57 29 b6 3c 26 24 08 7c 59 99
       -3.7354272e-25 4.7865093e-14 3.6046936e-17 -1.1243685e-23
0003a0 9d 2f 36 ab 29 c7 84 2a d1 73 e7 03 3e 0e 2f ab
       -6.4725466e-13 2.3586105e-13 1.360355e-36 -6.2192254e-13
0003b0 2b db e9 98 a8 58 2f 9e b6 02 bd 11 60 a6 85 82
       -6.045039e-24 -9.2827565e-21 2.9820613e-28 -1.9638088e-37
0003c0 79 36 a9 84 90 26 d0 0c c9 0d ac 02 63 13 34 1e
       -3.9781734e-36 3.2070683e-31 2.528104e-37 9.53313e-21
0003d0 1a 18 12 03 87 dc 53 8f 6f b7 74 0f 42 6d 8d 03
       4.293321e-37 -1.0445575e-29 1.2065457e-29 8.3123195e-37
0003e0 82 7e a1 0f 87 7a 76 19 3a 06 aa 04 f7 e5 98 03
       1.5924555e-29 1.2742646e-23 3.9972526e-36 8.986554e-37
0003f0 2b 96 b3 83 ef 88 37 a6 32 86 8d 8f 06 16 8a 24
       -1.0555151e-36 -6.367646e-16 -1.3955364e-29 5.988527e-17

lstm.bias_ih_l1 f4 [256]
000000 b5 41 bf 3e f6 c2 a6 3e 05 59 b9 3e f5 5d a2 3e
       0.37354818 0.32570618 0.3620073 0.3171231
000010 8e e8 5f 3e 2f 7a bc 3e 21 3e 83 3e af d0 32 3e
       0.21866056 0.3681197 0.25633338 0.17462419
000020 38 01 95 3e b6 68 8c 3e d5 59 b2 3e 94 6f 95 3e
       0.29102492 0.27423638 0.3483416 0.2918669
000030 ea f0 9d 3e 71 3e a6 3e e7 e5 7e 3e ab 58 ca 3e
       0.30847865 0.32469514 0.24892388 0.39520773
000040 0d 81 cd 3e 85 5a 94 3e e1 a9 2a 3e b7 c7 b9 3e
       0.4013752 0.2897531 0.16666366 0.36285183
000050 33 38 b7 3e 06 2d 5a 3e e0 ed d1 3e 4a 68 5d 3e
       0.35785064 0.21306238 0.41001797 0.21621814
000060 a4 65 db 3e c4 31 33 3e d8 94 b6 3e e6 80 95 3e
       0.42850983 0.17499453 0.35660434 0.29199904
000070 85 ec 85 3e 56 18 5a 3e 79 2b 93 3e 4b cf 69 3e
       0.26157013 0.21298346 0.28744105 0.22832982
000080 45 45 86 3e 8e 95 cf 3e 56 c9 19 3e 46 b8 81 3e
       0.26224723 0.4054379 0.1501821 0.25335902
000090 a8 97 c3 3e 3e 48 ae 3e f9 7a 3d 3e ac b5 d1 3e
       0.38201642 0.3403949 0.18503942 0.40958917
0000a0 56 93 b3 3e 5e 2f ac 3e de a2 5e 3e b1 71 9f 3e
       0.35073346 0.33629888 0.21741816 0.31141427
0000b0 26 ad 6c 3e ed 53 78 3e ab 83 ad 3e 99 d9 bb 3e
       0.23112926 0.24250765 0.33889517 0.3668945
0000c0 ce 96 c5 3e ae 73 a6 3e f0 aa 4a 3e cf 8d 88 3e
       0.38591617 0.32510132 0.1979177 0.2667069
0000d0 fe 14 d3 3e 31 bc 9e 3e 57 7a 8c 3e 10 02 a0 3e
       0.41226953 0.31002954 0.27437088 0.31251574
0000e0 1e ea bd 3e 5b 66 bd 3e 4a 67 c9 3e 74 f1 17 3e
       0.3709268 0.36992154 0.39336616 0.14838201
0000f0 98 82 ba 3e 64 ef 49 3e b6 0e 49 3e 2e 53 65 3e
       0.3642776 0.19720227 0.19634518 0.22395012
000100 da 4a a6 08 11 27 10 a8 ce 2a 33 11 8b 96 dd af
       1.0008359e-33 -8.002077e-15 1.41338e-28 -4.0306633e-10
000110 9b b3 3e 2e 19 7a bb 8c a3 23 56 95 71 7f 94 25
       4.336052e-11 -2.8885397e-31 -4.3245068e-26 2.5760265e-16
000120 da 31 6e 30 79 73 71 82 17 eb 5a 1d 8d 52 e1 08
       8.665474e-10 -1.7739023e-37 2.8973598e-21 1.35611025e-33
000130 49 ae 6b 96 d0 c4 24 02 fc 68 4a 82 ad bc a9 04
       -1.9038144e-25 1.21053e-37 -1.4870745e-37 3.990498e-36
000140 62 28 a6 2e 3e 32 2f 2f ef a6 33 ab d8 4c 6e aa
       7.5559795e-11 1.5934007e-10 -6.382524e-13 -2.1165307e-13
000150 29 28 bb 2d 33 1f cb 8f 72 01 c0 14 37 c4 c7 23
       2.1277273e-11 -2.0029363e-29 1.9387616e-26 2.1658723e-17
000160 53 58 f1 94 71 f5 22 b0 c7 d9 a6 16 b0 78 31 00
       -2.4369619e-26 -5.928405e-10 2.6956183e-25 4.543234e-39
000170 19 0a c7 82 43 51 e9 9e 08 cd 0c 2e 15 91 99 28
       -2.9246218e-37 -2.4703444e-20 3.201442e-11 1.7049332e-14
000180 c3 9d 37 95 32 9d 75 89 ed f4 30 a5 1e 03 a7 83
       -3.7081008e-26 -2.9564715e-33 -1.5348551e-16 -9.8160935e-37
000190 25 26 90 2d 57 19 d9 2f 1d 4d cd 13 47 cd 44 98
       1.6387844e-11 3.9490075e-10 5.1825315e-27 -2.5436045e-24
0001a0 e5 d1 f5 2f 92 16 31 9f 6d d2 97 ae 38 65 c1 a7
       4.471438e-10 -3.7499878e-20 -6.904064e-11 -5.3678003e-15
0001b0 50 39 30 26 50 92 41 16 c7 80 a6 82 0f d4 0e 84
       6.113994e-16 1.5636584e-25 -2.4465422e-37 -1.6789392e-36
0001c0 ca 90 bd 82 5c 5d 82 83 0f a8 9e 95 dd d9 8f 83
       -2.785416e-37 -7.6621475e-37 -6.408084e-26 -8.454804e-37
0001d0 d6 14 d1 ac 64 34 40 ab b9 76 b4 8f 01 01 24 05
       -5.9424505e-12 -6.828481e-13 -1.77951e-29 7.711427e-36
0001e0 b2 12 d7 83 95 ac 19 03 00 dd 87 83 6b 19 ef 02
       -1.26408565e-36 4.5160773e-37 -7.985326e-37 3.5132483e-37
0001f0 76 9d eb 17 31 aa 36 82 49 7f 5f 22 91 08 b5 02
       1.5226268e-24 -1.3420091e-37 3.028952e-18 2.6600477e-37
000200 a9 32 89 3e 8d d7 8a bd 2b e4 4e be 90 6a 35 3e
       0.26796463 -0.06779394 -0.20204227 0.17716432
000210 ab 88 79 be cc 9d 9f bd c3 b2 91 3e c0 78 e2 bd
       -0.24368541 -0.07793769 0.28456697 -0.110581875
000220 eb 5c 05 be 8a b4 7b be ca 2a 92 3e a8 3f ed bd
       -0.13023727 -0.24580589 0.2854827 -0.11584407
000230 15 6b 75 3e 1b 72 66 be 07 37 4a be 5d 6f 73 3e
       0.2396663 -0.22504465 -0.19747554 0.2377295
000240 40 5c 20 3e dc 0a b5 3d 5b 0c 01 be e6 5f ed 3d
       0.1566019 0.08839962 -0.1260237 0.11590557
000250 3d 74 3c 3e 7a 83 96 3e 9d c8 1e 3e 81 5c 5e 3e
       0.18403716 0.29397184 0.15506215 0.21714975
000260 32 46 22 3e fd 91 9a bd 1e 91 7e 3e 08 fa 2d 3e
       0.1584709 -0.07547376 0.24860045 0.1698991
000270 99 d5 80 3e ea e7 23 be 34 0b 8b 3e e3 ff 06 be
       0.25162962 -0.16006437 0.27156985 -0.1318355
000280 9c 74 90 3e ce 18 37 3e 06 82 3e 3e fa 3b 0a be
       0.28213966 0.17880556 0.18604288 -0.13499442
000290 c2 f6 4f bd 9e 9b 36 3e 3b ac 82 3e ab fa ea bd
       -0.050772436 0.17832801 0.25522026 -0.11473592
0002a0 f9 24 b8 bd 3e ed 43 bd b5 1d c9 bd 4f 4b 28 3e
       -0.08991427 -0.047833674 -0.09820119 0.16434978
0002b0 47 87 0f 3e 06 6e aa bd ba d9 f4 bd f3 01 90 bd
       0.14016448 -0.083217666 -0.119555905 -0.07031622
0002c0 5e 55 8f 3d 02 32 06 be aa 7c 84 3e 19 eb 34 3e
       0.069987044 -0.13105014 0.2587636 0.17667808
0002d0 95 be b3 bd f9 b7 f6 bd a6 f3 3c 3e 02 e8 26 3e
       -0.08776585 -0.12046809 0.1845232 0.16299441
0002e0 0f 88 1e 3e ee 47 6a be 3c 96 61 be 35 40 22 3d
       0.1548159 -0.22879001 -0.22029966 0.039612014
0002f0 5c 47 b1 bd c8 2a 81 be b1 6e 7c bd 7f 05 3a 3e
       -0.08656189 -0.25227952 -0.061629 0.18166159
000300 93 23 3b 3e 77 2f 44 3e 36 26 63 3e 45 2a cc 3e
       0.18275289 0.19158731 0.22182545 0.39876
000310 26 26 65 3e b0 fc 9b 3e 73 10 a0 3e 65 c7 88 3e
       0.22377834 0.30466223 0.3126255 0.26714626
000320 93 ca be 3e 20 61 9d 3e b3 5e 45 3e 5a 82 88 3e
       0.37263927 0.30738163 0.19274406 0.2666195
000330 2a ac 9d 3e 68 86 80 3e eb 49 43 3e 23 17 bd 3e
       0.30795413 0.25102544 0.19071166 0.36931714
000340 e2 ad a4 3e 2b c0 8f 3e d1 32 d4 3e 6c d2 55 3e
       0.32163912 0.280763 0.4144502 0.20881051
000350 c7 f0 73 3e 66 6f 8b 3e 61 bd b0 3e 5b ec 4e 3e
       0.23822318 0.27233428 0.34519485 0.2020735
000360 9d 05 c9 3e f4 d4 37 3e b0 bf 84 3e e1 47 43 3e
       0.39262095 0.17952329 0.25927496 0.19070388
000370 0c ee cf 3e ec db aa 3e 0d 06 b1 3e 93 0e a4 3e
       0.40611303 0.33370912 0.3457493 0.3204237
000380 ac b1 e4 3e bb 00 8e 3e 42 70 26 3e d4 fe 4c 3e
       0.44666803 0.27734932 0.1625376 0.20019084
000390 32 54 c1 3e 1f e6 9b 3e a6 16 e1 3e 8f 58 b4 3e
       0.37759548 0.30449006 0.43962592 0.35223815
0003a0 4d 14 9e 3e 33 58 da 3e 92 6c cd 3e cb b2 9f 3e
       0.30874863 0.42645416 0.40121895 0.31191096
0003b0 18 e2 af 3e 99 6a 9c 3e 4b e9 ae 3e be 96 d7 3e
       0.34352183 0.30550078 0.34162363 0.42107195
0003c0 d3 39 86 3e e3 38 af 3e 84 44 49 3e 1f 3b 7a 3e
       0.2621599 0.3422309 0.19655043 0.24436615
0003d0 ee 89 aa 3e 50 72 7c 3e 8e 2c 6d 3e 55 a0 d3 3e
       0.33308357 0.24652982 0.23161528 0.4133326
0003e0 a8 9c ba 3e f3 82 8a 3e 76 8a a3 3e b6 e3 79 3e
       0.36447644 0.2705303 0.31941575 0.24403271
0003f0 46 e9 6c 3e 18 a4 ca 3e 42 2c be 3e 69 ac b0 3e
       0.23135862 0.3957832 0.3714314 0.3450654
