model_checkpoints/model_epoch_120.pth (torch, 233384 bytes, 9 tensors)

lstm.weight_ih_l0 f4 [256, 28]
00000000: 1994 a1be 602a 203e ad6e 6bbe b09f c53d
00000010: 1c01 8c3e a656 f8bd 9c21 ddbc 00e9 c139
00000020: b673 e9bd 2801 2abd e817 a1be 82f8 7cbe
00000030: 8a6a 63be 6e86 7ebe d768 57be 8f30 6dbe
00000040: 5b09 8bbe b901 09be 1e5b 73be 9c8d 1dbe
00000050: 9adf e53d 8b42 c8bc fd13 333e c68a 0f3e
00000060: de2e 94bd f8dd 35be 66eb 1d3d 7ec8 84be
00000070: 0836 2cbe 3e82 5d3e 2d79 7fbe f2f7 923d
00000080: 5a03 af3e 1dac a4bd 3943 4ebd 0ed9 0dbe
00000090: 73b5 18bd c64d 0ebe 73b3 0bbe 9b97 50be
000000a0: c873 6ebe 9195 56be c7a7 32be 6c5c 53be
000000b0: 3dcc 8fbe 4c46 32be a6d9 a2be 15c1 7dbe
000000c0: 819d c93d 03f3 4b3e c73d acbd 2d84 ff3b
000000d0: 4e55 9cbd 6fa6 ebbc 2410 7bbd e58f cbbe
000000e0: 6b08 5d3e fe64 8cbd 3fb7 88bd 92d3 2a3d
000000f0: cd52 74be 015f 033c f1fd 21be a068 18bd
00000100: f224 b23d 45bc a4bd 542f 863e 15b6 a93e
00000110: 55de ff3d 56c6 383e aff3 143e d360 153e
00000120: b05b 3d3e e0fb 423e 494a a53e a684 a83e
00000130: 7e10 06be df31 ffbd 64d2 a83c 9a05 b33d
00000140: 81e8 febc 16f1 503e 174b a13e 661e 013e
00000150: 6ff5 98be ffb5 023e 9cd2 a4be 3f1b 273e
00000160: 957d 3c3e 3bbd 01bd 99c1 07bd c5b4 c83d
00000170: 70f4 7abd 6dc5 0dbd 887e 87be f5db 8cbe
00000180: ebfe a1be 5c02 80be a87f 09be d6e4 6dbe
00000190: 10bf 9dbe 3798 15be 111a dcbd e68b 7fbe
000001a0: 9b6f 103e 8c1b 283d 3261 88bc 936e f5bd
000001b0: 7231 0fbe 852c 783c d307 acbd fb01 dabe
000001c0: f17b 2d3e 2bac 4fbe 2148 13bb 4657 3ebe
000001d0: 5f3f dbbc 7782 9bbd 388c 6d3d 0dec 1d3d
000001e0: f04b a2bd 8978 503c 4b37 503e cef2 573e
000001f0: f004 b03e 1e2f 3d3e a4d7 3a3e ba15 ad3e
00000200: 1489 273e 8590 7f3e c2b2 a33e a326 a03e
00000210: 9369 ce3d 061a ba3d a113 f6bd c24f cbbd
00000220: 8af9 17be 8aa1 5c3e 1eb5 54bc 7594 5bbd
00000230: a22f 873e d8f4 66bc e9c7 69bc 10b2 033d
00000240: 5a51 50bd 1e86 f7bd d2b1 02be 6631 19bd
00000250: a58f 653d 2b58 4cbd 2f4b 523e 8a05 7b3e
00000260: b7f2 5e3e 5332 3a3e 1dc5 1c3e 4551 703e
00000270: eb44 2f3e ad0b 293e 8cc6 2e3e b49f f23d
00000280: 52d6 0a3d ae4d 04be 535e 593d bba9 29bd
00000290: 0e81 d73c dfc1 4b3e 3713 843e e964 5f3d
000002a0: 111d 773e 1e42 1fbc dec3 213d c07a 67bc
000002b0: 22be 69be b613 3bbc 63a0 8fbd 3c1d e33c
000002c0: b2ee 12bd db2e 503d ee47 a63e 403a a83e
000002d0: 7ce9 6e3e 8323 a83e b9a6 853e 85e7 733e
000002e0: 6061 0e3e 0182 ae3e 6552 283e af77 803e
000002f0: 0f35 80bd c2d6 b7bb 054b aabd 3182 6f3c
00000300: cf1b 673d 5fa2 b73e c1dd 8c3e fcac 1f3e
00000310: daae f73d 37a3 41bd 8ddb 0a3d 4260 223e
00000320: d578 88be 78ce 80bd 8c4b d3bd 0475 ffbd
00000330: 52cf 2ebd 9aaf 9bbd 3cf4 693e efb7 503e
00000340: 3ec1 1c3e 5671 633e c194 313e b479 813e
00000350: 21cc 803e 7e04 683e ab07 a33e f33a b13d
00000360: d85b f7bd 5e3a 6abe be0d 673d 9e66 123d
00000370: 4bd4 dbbc c9aa c03e 7e5f b03e 96fd 283e
00000380: 998f e6bd f56b 563e 5e6a 3abe 0ece 183d
00000390: 4cfb 983e d9bd 23be d265 223c ab74 433c
000003a0: ccbe 4d3d c46c 69bd 1b03 8abe 7dee 51be
000003b0: a855 c1bd 8e86 81be 828f 84be 51fe 5ebe
000003c0: 333c 21be de3a a0be 174a 12be c6c1 e3bd
000003d0: 867e 023b 1b0d 773e 115e 98bc 0554 6d3b
000003e0: dc9f 37be daf3 10bd 55e0 03be b2bf e0be
000003f0: 4121 833e 0482 0abd 8231 cbbc 510d 1e3e
-0.31558302 0.15641165 -0.22991438 0.096495986 0.27344596 -0.12125902 -0.026993565 0.00036985427
-0.11399023 -0.04150501 -0.31463552 -0.24704173 -0.2220861 -0.24855968 -0.21036087 -0.23163055
-0.27155575 -0.13379563 -0.23765227 -0.15386051 0.11224289 -0.024445793 0.17488094 0.14017782
-0.07235502 -0.17760456 0.03855457 -0.25934213 -0.16817486 0.21631715 -0.24948569 0.07176198
0.34182245 -0.080406405 -0.050357077 -0.13852331 -0.03728242 -0.13896856 -0.13642673 -0.20370333
-0.23286355 -0.20955493 -0.17446814 -0.20640725 -0.2808551 -0.17409629 -0.31806678 -0.24780686
0.098444946 0.1991692 -0.084102206 0.007797739 -0.07633458 -0.028765885 -0.06129469 -0.3975822
0.21585242 -0.068552 -0.066755764 0.041705675 -0.23859711 0.008018256 -0.15819527 -0.037209153
0.08698453 -0.08043722 0.26207983 0.3314673 0.12493578 0.18044409 0.14546083 0.14587717
0.18492007 0.19041395 0.32283238 0.32913703 -0.13092229 -0.12460684 0.020608135 0.08741303
-0.031116726 0.20404467 0.31502602 0.12609252 -0.2987475 0.12764739 -0.32191932 0.16318987
0.1840728 -0.031674605 -0.033143613 0.09800104 -0.06126827 -0.034612108 -0.26463723 -0.27511564
-0.316398 -0.250018 -0.13427603 -0.23231825 -0.30809832 -0.14608847 -0.10747159 -0.24955711
0.14105074 0.041041896 -0.016647909 -0.11983981 -0.13983706 0.015147333 -0.0839993 -0.42579636
0.16941811 -0.2028052 -0.0022473412 -0.1858798 -0.026763616 -0.075932436 0.05799505 0.038555194
-0.0792464 0.01272405 0.20333593 0.21088716 0.34378767 0.18475005 0.18246323 0.3380564
0.16360885 0.24957474 0.3197232 0.31279477 0.100787304 0.09086995 -0.12015463 -0.09927322
-0.14841285 0.21545997 -0.012982635 -0.053608377 0.26403528 -0.014096461 -0.014268854 0.032152236
-0.050858833 -0.12086128 -0.12763146 -0.037400626 0.056045193 -0.04988877 0.20536493 0.24513832
0.21772276 0.1818326 0.15309568 0.23468502 0.17116134 0.1650836 0.17067927 0.11846867
0.033895798 -0.12920257 0.05306847 -0.041421633 0.026306655 0.19898175 0.2579591 0.054539595
0.24132182 -0.009720353 0.039493434 -0.014128387 -0.22826436 -0.011418274 -0.07013013 0.027723901
-0.03587217 0.050825935 0.32476753 0.3285694 0.23331255 0.32839593 0.26103762 0.23818786
0.13904333 0.3408356 0.16437681 0.2509131 -0.0626012 -0.005610318 -0.0831509 0.014618442
0.056423005 0.35866067 0.27512935 0.15593332 0.12093897 -0.047274794 0.033900786 0.15857032
-0.26654688 -0.06289381 -0.10317144 -0.12473491 -0.042678185 -0.07601853 0.22847074 0.20382665
0.15308091 0.22211203 0.17341901 0.25288165 0.25155738 0.22657964 0.31841788 0.08653822
-0.12078065 -0.22873828 0.05640959 0.035742395 -0.026834628 0.376303 0.34447855 0.16502985
-0.11257858 0.2093962 -0.18204638 0.037305884 0.29879224 -0.1599039 0.009911971 0.011929671
0.050230786 -0.056988493 -0.26955494 -0.20501132 -0.09440166 -0.2529797 -0.25890738 -0.21776702
-0.1574562 -0.31294912 -0.14286076 -0.11120944 0.001991184 0.24126093 -0.018599542 0.003621341
-0.17932075 -0.035388805 -0.12878545 -0.43896252 0.25611308 -0.0338154 -0.02480388 0.15434767

lstm.weight_hh_l0 f4 [256, 64]
00000000: 30a5 cd87 9465 7603 d8ab 8688 22cb 5281
00000010: 7d55 1224 6adc da1c 762a f4a0 00e4 7b03
00000020: 9034 e4ab 8913 fb84 b973 7e02 132c aca1
00000030: 82c9 ca9b 1aab 4902 214c c62f b487 5603
00000040: 9e6a 188d 88cb a704 41ef 512f fe18 2705
00000050: 4d06 6fa5 231f afac 8917 c60d 9968 f12e
00000060: 1b72 889a fafb 922f 704e 560f dc93 4081
00000070: 16ad dfae 65a8 a207 daeb a798 76e8 c629
00000080: 7de2 ec15 1477 d502 1d37 f901 c44c f383
00000090: 20af c413 5e44 8283 c08d a804 7fdb 8d82
000000a0: e079 0fa3 8acd 292f 161f 9ba4 4b54 0188
000000b0: 6995 d91d f461 b88d 7494 5f0f 8c5f b8ae
000000c0: fdad 188b e257 b985 253c c582 441e 112c
000000d0: 8716 b0a4 81ee cf1b 8724 9c82 8cad 7799
000000e0: 2611 600e 5e5f 2283 6aa4 1e03 9062 b09d
000000f0: 6057 c30d 5083 a282 92c3 8d8f 0afc 991e
00000100: d04a 3483 d719 cc2b 109e d69d 225a 5583
00000110: 4d55 f12e 532f bc2b 0f60 c792 ea5c dd82
00000120: ca2e f493 f62c a403 c7ff 140f 81a9 9c9e
00000130: a37e 5027 2747 b82f 5ebb 1f30 3774 af2c
00000140: c9f0 b9a5 f4ee 03ac d09d b62b a3e3 8fae
00000150: 795a b701 c7f1 7d0a 8dfb 912b 8aa3 f617
00000160: 5678 7983 8c7c 1b04 48a2 8282 b805 7083
00000170: 7d4f 3914 4b60 1d99 d1bf 939d 5b65 c515
00000180: 66a0 3f1d 0bfd 9f27 babd 7899 814f 0283
00000190: a39c 158a ceee 8f24 2ec2 0c83 0d34 9a81
000001a0: 1ad4 8b1e 8186 4899 e6a7 2c03 3eb1 ca9d
000001b0: 1c9d fba4 f8b4 a984 45c7 b91d 4368 2823
000001c0: 22c2 86ad 62fe 19ae 443b 7481 020a 7724
000001d0: 3f61 a628 dea4 1384 d349 3f0f 7be5 9083
000001e0: 877a a904 f2e7 282a e22a af95 7b91 f62f
000001f0: f32b b72f 96a3 05a8 9ea8 0982 3c59 b506
00000200: 2b0b 1104 fa37 3402 654a 6728 e173 c482
00000210: 1aa8 b516 94f7 8a95 f81f 9d23 7679 7495
00000220: 66ee 250f 23e6 ec2c 3e1c d784 d03d c98d
00000230: b002 ad97 478f d01d be1d 1dad 5876 1384
00000240: f424 3914 3033 a429 f4bd f902 98bc 70a5
00000250: 2308 a904 a1a5 1005 bd91 0aa9 43b6 f898
00000260: 5407 b42f 0847 5d81 28ee 9a81 1ec3 e4ac
00000270: 33d1 0e84 f40f 622f ae80 172c b283 0403
00000280: 2c8e 102c a92e 0e96 627e 7395 a5d3 1d84
00000290: 6146 8f88 90d1 a904 1228 adaf 21d8 f524
000002a0: e5a7 aba8 be1a a904 24df 8d83 8f98 6d9d
000002b0: 1f17 8119 b778 7228 466a 2b11 d923 f720
000002c0: 186c 1fa1 2629 3b82 4984 d80e 1c5c 812b
000002d0: b45a 9d14 ecc1 348f 8265 ac01 e94a c689
000002e0: b132 b985 6e69 9d83 fcf5 9f04 eead 2783
000002f0: 905c ce02 aa1d 491c 9405 759b 8775 0702
00000300: 4ead 1284 0770 8182 afd0 c12f a0d3 d5af
00000310: 5324 6a19 324c a92f a781 b883 921f a92f
00000320: ad7a 7882 f491 16ad a4b7 b182 d4e7 5183
00000330: 4d64 5f25 92e5 4e0a 898f 1d96 3b66 6d90
00000340: 73d8 828d f681 b402 aa55 dc8b ba53 0081
00000350: 3f90 29af d895 cc14 69ed a21e 1691 1382
00000360: 43e0 be18 abd8 a52e 3900 0f04 5557 a104
00000370: c58e d790 6d91 eca9 e50d 8f03 32c6 2383
00000380: a3c8 d1ab 2ce3 fe18 ebbb ef1f ced4 8b82
00000390: 17fb 04ad 53c1 7e9b cb1a 8c25 121f aa84
000003a0: 5641 cb81 1042 642e cab5 b60b f850 c71d
000003b0: 77e7 212e a0df 6514 cff2 1fa5 daf1 c18b
000003c0: a83f 2996 ab0d 5814 b243 be81 8021 b985
000003d0: ae20 0f04 494f be9d 94a5 ac25 cedf 0f84
000003e0: 2647 3485 93ad 2918 326e 8383 2e03 d584
000003f0: 9dd8 8910 def1 dfa0 c0a8 2415 bf40 af8b
-3.094206e-34 7.240951e-37 -8.105232e-34 -3.871665e-38 3.1731115e-17 1.4483006e-21 -4.1363306e-19 7.4024e-37
-1.6214963e-12 -5.9027757e-36 1.8694184e-37 -1.166684e-18 -3.3548318e-22 1.4816252e-37 3.6070083e-10 6.3044727e-37
-4.696695e-31 3.9448425e-36 1.909344e-10 7.8568926e-36 -2.073208e-16 -4.977256e-12 1.2208358e-30 1.09779914e-10
-5.643263e-23 2.6736285e-10 1.0566121e-29 -3.5370914e-38 -1.0171612e-10 2.4474024e-34 -4.3406637e-24 8.833292e-14
9.5676976e-26 3.1365885e-37 9.154724e-38 -1.4299881e-36 4.9650043e-27 -7.65641e-37 3.9626787e-36 -2.0844073e-37
-7.7778536e-18 1.5443483e-10 -6.7273196e-17 -3.891861e-34 5.759391e-21 -1.1363457e-30 1.102334e-29 -8.384324e-11
-2.940503e-32 -1.74296e-35 -2.898107e-37 2.062254e-12 -7.6365996e-17 3.4399407e-22 -2.2943106e-37 -1.2804648e-23
2.7618388e-30 -4.7716997e-37 4.6620765e-37 -4.6688723e-21 1.2038838e-30 -2.387913e-37 -1.3979004e-29 1.6303746e-20
-5.2983126e-37 1.4502244e-12 -5.680876e-21 -6.269854e-37 1.09745636e-10 1.3371339e-12 -1.2582346e-27 -3.2526361e-37
-6.1640397e-27 9.649376e-37 7.346224e-30 -1.6587248e-20 2.8934449e-15 3.3519962e-10 5.811013e-10 4.9867016e-12
-3.2255547e-16 -1.8748865e-12 1.297568e-12 -6.5433235e-11 6.7353405e-38 1.222698e-32 1.0372689e-12 1.593866e-24
-7.331266e-37 1.8277352e-36 -1.9194928e-37 -7.0536226e-37 9.3557894e-27 -8.136156e-24 -3.910891e-21 7.972758e-26
2.5361564e-21 4.4405715e-15 -1.28596145e-23 -3.8294832e-37 -7.203549e-33 6.2420915e-17 -4.136521e-37 -5.6645355e-38
1.480492e-20 -1.03669205e-23 5.0738995e-37 -5.365222e-21 -1.0912005e-16 -3.9897903e-36 4.9175132e-21 9.1293765e-18
-1.5320249e-11 -3.501411e-11 -4.4858243e-38 5.3568064e-17 1.8471876e-14 -1.735547e-36 9.431245e-30 -8.5162455e-37
3.9844233e-36 1.500187e-13 -7.0749594e-26 4.485051e-10 3.3318734e-10 -7.418455e-15 -1.0113561e-37 6.821575e-35
1.7049796e-36 1.3240376e-37 1.2839208e-14 -2.8866123e-37 2.9348214e-25 -5.6128366e-26 1.7035513e-17 -4.9371223e-26
8.181042e-30 6.7330737e-12 -5.0572193e-36 -1.2402462e-30 -1.1180541e-24 5.5205287e-21 -8.931021e-12 -1.7334108e-36
9.347401e-27 7.2919427e-14 3.669629e-37 -2.088058e-16 3.973918e-36 6.801269e-36 -3.0768563e-14 -6.4290535e-24
3.2747016e-10 -4.0642252e-38 -5.6912403e-38 -6.501812e-12 -1.678808e-36 2.0560248e-10 2.1529822e-12 3.8942492e-37
2.0542552e-12 -1.1485392e-25 -4.9173158e-26 -1.8552444e-36 -8.623045e-34 3.9924162e-36 -3.1496988e-10 1.0661795e-16
-1.9057626e-14 3.9756268e-36 -8.338466e-37 -3.144556e-21 1.3347626e-23 1.34598745e-14 1.352227e-28 4.186715e-19
-5.4014356e-19 -1.3750399e-37 5.3375497e-30 9.191567e-13 1.5888725e-26 -8.912033e-30 6.332848e-38 -4.773721e-33
-1.7415937e-35 -9.251836e-37 3.760662e-36 -4.927655e-37 3.0322108e-37 6.654366e-22 -2.0267727e-22 9.951962e-38
-1.7241795e-36 -1.9019147e-37 3.5254774e-10 -3.8894843e-10 1.2104852e-23 3.079506e-10 -1.0844315e-36 3.0763353e-10
-1.8255369e-37 -8.558921e-12 -2.6113217e-37 -6.1685705e-37 1.937615e-16 9.9617166e-33 -1.2727651e-25 -4.6818764e-29
-8.063977e-31 2.6523217e-37 -8.486981e-32 -2.3569958e-38 -1.5421707e-10 2.0657839e-26 1.7250608e-20 -1.0841492e-37
4.9340295e-24 7.541819e-11 1.6809671e-36 3.793112e-36 -8.502252e-29 -1.0505733e-13 8.407975e-37 -4.812891e-37
-1.4906031e-12 6.5886846e-24 1.0153132e-19 -2.0546358e-37 -7.5590844e-12 -2.1072854e-22 2.4304284e-16 -3.999534e-36
-7.4664175e-38 5.1899873e-11 7.0377376e-32 5.275858e-21 3.6812744e-11 1.1605648e-26 -1.3873318e-16 -7.4704794e-32
-1.3671798e-25 1.0907909e-26 -6.9892115e-38 -1.7409622e-35 1.6824575e-36 -5.037456e-21 2.9949444e-16 -1.6912335e-36
-8.476627e-36 2.193037e-24 -7.724788e-37 -5.007898e-36 5.437072e-29 -3.7937724e-19 3.3252657e-26 -6.750497e-32

lstm.bias_ih_l0 f4 [256]
00000000: 326b a03e a2ff c33e 1e1e 773e 6853 be3e
00000010: 2db7 eb3e ee24 e03e 379b 833e d9ab 7e3e
00000020: 43ae d63e 051d ea3e dfcb de3e b2ed 8c3e
00000030: 4d7e b73e 4250 b43e f2d7 cd3e 8180 e53e
00000040: b7a5 9e3e 5b1c e23e 020d b13e ae14 d13e
00000050: 851e 8b3e 9075 ae3e b5a0 ee3e 7179 933e
00000060: b694 8a3e f10b c23e 706a 8e3e b7d3 b33e
00000070: 2a8a cd3e ea7d ed3e 06e7 ba3e e3a5 9e3e
00000080: 39f3 de3e ff3f ca3e 8b29 f23e ff2a 9a3e
00000090: 9b91 863e 5c25 d93e 0add b13e ab50 903e
000000a0: 0536 e53e d243 e03e 3ca3 b73e 60cc 9c3e
000000b0: b39c cb3e 42a5 923e f12f 8c3e 03c0 af3e
000000c0: 92c3 cb3e 2d6b 823e 70b7 a93e 9308 e23e
000000d0: 76d7 f83e 6b53 013f 3566 d83e e2fb cf3e
000000e0: b6b5 f73e e126 b53e 4cd7 823e fa03 e73e
000000f0: 8e54 aa3e 09fe a93e d36a 7d3e 0c31 db3e
00000100: 5c06 ab84 ae14 778e 1e3d 3405 69d4 768e
00000110: 8277 622e 58af 8d0e e7c1 5cae 1a77 fb82
00000120: e807 e102 4ff7 e723 f20c f092 0ff9 ef2b
00000130: ae83 7913 7999 80ac df85 9220 2d56 0c19
00000140: c950 4019 b301 2130 2bc1 17ae 845d 442c
00000150: d4d6 a214 3a78 3485 3aeb cb8b 765c a983
00000160: f556 a1a3 3c8d db2d 8f52 188c e0dc b7ad
00000170: 13e2 3f03 be15 1d16 7cae af2b e577 612e
00000180: 5f87 602f 11cc 0c04 d4b7 2583 c861 97ab
00000190: 41ac 74a9 c6ab 9d83 a61b 9428 1e3b c624
000001a0: f12c f7a9 ebd3 332f 7563 a2af 9fc0 1830
000001b0: d999 3305 1276 a70d b6d4 742d 390e a30b
000001c0: 2163 8525 eda2 c787 85dc bb1d bbf4 c195
000001d0: da3d 0d2d e534 1318 74d1 1104 7152 010e
000001e0: 5347 690e fda5 2f85 dc55 f682 251a f282
000001f0: fa6d f796 09e6 0895 0873 2e2c 24af 7d80
00000200: 4588 e83e 1367 af3e a85a d73e 8987 a0be
00000210: e2c7 aebe 5814 e73e 584a c2be 7308 a93e
00000220: 5020 ddbe de5d d2be 88f0 9cbe ba4c bb3e
00000230: 2644 bebe b078 883e 5340 b93e 433b dc3e
00000240: efd0 db3e ed5e 99be 038a e33e f52e dabe
00000250: f832 c33e 886e 93be ff73 d0be d4c1 d93e
00000260: 5115 8ebe 8ca2 e03e 5c40 d83e e0dc a3be
00000270: a5f2 86be f8b4 94be 1259 dcbe 28fd c13e
00000280: 1894 b03e 003b a33e 211c de3e 1f5f 813e
00000290: 7ba1 d6be 0493 bc3e 17db 983e bb3f babe
000002a0: 96de bc3e 71fd df3e 3279 dc3e e1ba 8fbe
000002b0: bc95 c2be 0a9c a53e 95e1 abbe 2847 a13e
000002c0: c93c e3be bb29 d83e 9e44 dbbe 7150 dbbe
000002d0: 1f71 d53e 8510 e43e c8dc 9fbe 2443 8a3e
000002e0: 44aa d83e c5e5 c3be f6e6 d4be 63d8 ba3e
000002f0: 9bad e03e 1971 b03e 5865 bbbe 9661 b7be
00000300: 62ae ae3e 8a60 c23e dede 7d3e 133c f83e
00000310: a5e5 ea3e 7658 ed3e a910 ea3e 961a a23e
00000320: dbc7 be3e 9f9b 923e 5461 803e ebaf 9c3e
00000330: 2968 b13e 1d81 4c3e e601 ef3e a62f 973e
00000340: 7175 ce3e 3116 9e3e c1a1 d23e 2f94 dd3e
00000350: 701f 7f3e 3970 e13e cf5e dc3e 5409 cc3e
00000360: e8a5 b53e 4f91 023f 15c8 c73e 8142 f33e
00000370: a768 e43e 1304 843e a638 a63e b01e d63e
00000380: 2d5e a73e e1f2 973e a966 c63e c1c5 ca3e
00000390: 3afc 853e 1cf9 043f 98a5 a63e d550 bd3e
000003a0: e506 943e 9724 d13e 7d23 013f 5a3c b43e
000003b0: 0ed3 c63e 14c1 893e 6f8b 833e baa3 e43e
000003c0: abc9 883e f82f ca3e 7484 c53e 4acb ef3e
000003d0: 8d7b e13e 33eb 9c3e abcc a03e 81d3 c73e
000003e0: bd00 ea3e e8fb 993e 8d15 883e 4f27 d03e
000003f0: a9c2 bb3e bd75 dc3e 9987 c53e 371d c33e
0.31331784 0.3828097 0.24132583 0.3717301 0.4603819 0.43778175 0.25704357 0.24870242
0.41929826 0.45725265 0.43514916 0.27525097 0.35838547 0.35217482 0.40203816 0.44824603
0.30985805 0.44162259 0.34580237 0.4083609 0.27171722 0.34074068 0.46606985 0.2880359
0.27066582 0.37899736 0.2781558 0.35122463 0.40144473 0.46385127 0.36504382 0.30985937
0.4354494 0.3950195 0.4729732 0.30110928 0.26282963 0.42411315 0.34738952 0.28186545
0.44767776 0.43801743 0.35866725 0.30624676 0.3976799 0.28641707 0.27380326 0.3432618
0.39797646 0.25472394 0.33147764 0.44147167 0.48601884 0.5051791 0.42265478 0.4062186
0.48380822 0.35381225 0.25554883 0.4512022 0.33267635 0.33201626 0.24747781 0.42810857
-4.0207747e-36 -3.0455057e-30 8.474785e-36 -3.0424113e-30 5.1492595e-11 3.4928034e-30 -5.019443e-11 -3.6949496e-37
3.3065317e-37 2.514981e-17 -1.5149321e-27 1.7051099e-12 3.1493142e-27 -3.6550177e-12 2.482195e-19 7.2552334e-24
9.942482e-24 5.8573874e-10 -3.4504993e-11 2.7905187e-12 1.6442554e-26 -8.4856415e-36 -7.8546685e-32 -9.954155e-37
-1.7492483e-17 2.4960138e-11 -1.1734498e-31 -2.090278e-11 5.6389376e-37 1.268922e-25 1.2482927e-12 5.1265565e-11
2.0420775e-10 1.6550624e-36 -4.8700166e-37 -1.0756335e-12 -5.432829e-14 -9.267068e-37 1.6443291e-14 8.596896e-17
-1.09767996e-13 1.6355244e-10 -2.9538297e-10 5.557101e-10 8.444797e-36 1.0320594e-30 1.39170255e-11 6.2806716e-32
2.3138995e-16 -3.0037951e-34 4.97265e-21 -7.8338196e-26 8.028656e-12 1.902601e-24 1.7140844e-36 1.5940172e-30
2.8753809e-30 -8.258948e-36 -3.6195732e-37 -3.557371e-37 -3.9974407e-25 -2.7646447e-26 2.4790742e-12 -1.1542266e-38
0.45416465 0.34258327 0.42061353 -0.31353405 -0.34136873 0.4513271 -0.37947345 0.3301426
-0.43188715 -0.4108724 -0.3065226 0.36581975 -0.37161368 0.26654577 0.36181888 0.43013963
0.4293284 -0.29955235 0.44441232 -0.4261395 0.38124824 -0.28795266 -0.40713498 0.42530692
-0.27750638 0.43874013 0.42236602 -0.32004452 -0.26356998 -0.29044318 -0.43036705 0.37888455
0.34487987 0.3188095 0.43380836 0.25267884 -0.41920075 0.36830914 0.29854652 -0.36376747
0.3688857 0.43748048 0.43061215 -0.28072265 -0.38004863 0.3234561 -0.33570543 0.314996
-0.44382313 0.42219338 -0.42825788 -0.4283481 0.41687867 0.44543853 -0.3122313 0.2700435
0.42317402 -0.38261238 -0.4158246 0.36493215 0.4388245 0.34461287 -0.36600757 -0.3581664
0.3411742 0.37964278 0.24792048 0.48483333 0.4587833 0.46356553 0.45715836 0.31660908
0.37261853 0.28634354 0.25074255 0.30602965 0.3464978 0.19971128 0.46681136 0.2952854
0.40323976 0.30876306 0.41139033 0.43277118 0.24914336 0.44030932 0.43041083 0.39850867
0.3547814 0.51002973 0.39019838 0.47511676 0.44611093 0.25784358 0.32465094 0.41820288
0.32689038 0.2967749 0.38750198 0.39604 0.26168996 0.5194261 0.32548213 0.36975732
0.2891151 0.40848228 0.50444776 0.35202295 0.38832897 0.2690512 0.25692317 0.44656163
0.2671636 0.39489722 0.38577616 0.46834785 0.44039574 0.30648193 0.3140615 0.39028552
0.45703688 0.30075002 0.26578942 0.4065499 0.3667195 0.43058577 0.38580015 0.38108227

lstm.bias_hh_l0 f4 [256]
00000000: 7c45 a23e 6d61 b23e 3b2a 8b3e 0f37 9f3e
00000010: 6581 fc3e a8a7 a03e 31ec b63e 6e31 e23e
00000020: 0570 d53e a11e be3e b3a6 c93e 139b 6a3e
00000030: 12c4 893e e194 c73e 5b87 e83e f89f 713e
00000040: 29fa e63e 0764 913e 4396 ba3e 8fc1 bc3e
00000050: c828 de3e 2291 a93e 1d11 943e 8837 c23e
00000060: 3b7e 8e3e 7f03 c43e 2d56 a03e 7981 d43e
00000070: 5fd2 c73e 09ae af3e a6c9 bc3e b718 ad3e
00000080: e7d6 cf3e dec3 943e 9212 f43e 6703 f83e
00000090: ba3f d93e 289a d63e 5ba4 823e ab14 ed3e
000000a0: cfa1 d73e a326 bf3e 3854 c53e d1c7 d63e
000000b0: b1cc 8f3e 99da c03e 885b e03e 6c97 e73e
000000c0: 8763 ab3e b75d d23e 0773 b03e d361 b23e
000000d0: 743e ba3e e4cd ae3e 6cde fb3e ae92 b03e
000000e0: e899 fc3e 0587 bd3e a709 ae3e 1b2d 053f
000000f0: 4615 a53e 5a1f e53e 1ed8 ba3e 3ea4 e63e
00000100: d042 b520 5c7a 2294 2259 fd2f 9872 199b
00000110: a224 ac04 29bf 8324 b8e4 8687 d8f3 ef8b
00000120: bee3 b72e 3a63 0307 ba51 a21d d003 b78b
00000130: 9916 2f96 1d64 628f 183f 6f8d 8d81 cdad
00000140: 1469 349c 2859 aa04 0ae2 1284 cd27 1384
00000150: 616e ee82 bbdf 5a98 c084 f10e 59fc bf2e
00000160: d915 078a e763 858d 661f 6803 ac0e 312a
00000170: f3f0 b80d cef1 4625 8333 9c93 2186 1104
00000180: 7406 532b 1a48 6418 2e22 a59f 35ee f882
00000190: 06f6 2904 22f8 dd8b 39af 829d c6c5 a302
000001a0: 0175 ad9c 61c8 7982 a594 8403 6fd3 4c2d
000001b0: bab0 2a83 33bb a412 87bc f08b b8a5 2b27
000001c0: 498c 9020 de8d a884 052a cfa3 0f96 6a03
000001d0: 9a86 d602 91df a503 895d 9190 0666 eb2f
000001e0: 82a1 7a88 3c23 3a25 abb1 8ba8 dbd0 090c
000001f0: 17eb bb2e 0da3 bea1 88f8 d69d 3f77 852f
00000200: 1df8 9a3e 3e5d b53e b08c d93e ab0b eebe
00000210: a6b9 e1be 3ec6 e63e 6847 89be 1bc3 b73e
00000220: 8d0c b5be 8ccb c7be 2cbd e6be 9ca5 bc3e
00000230: 6fa7 97be fa20 943e e393 bb3e 347e b13e
00000240: 7f66 a73e 3915 e8be 5908 b13e c346 b2be
00000250: 7663 be3e 1bca f9be 97a6 bfbe 1b32 703e
00000260: 76b1 b2be cff4 963e 7b60 d63e 656f e1be
00000270: 3f87 dcbe 9364 e0be 56da 9dbe 0481 dc3e
00000280: ce74 8a3e 844a e33e 1e1f 933e 754a ca3e
00000290: 0531 e0be 2e39 f33e a0da dc3e d372 bfbe
000002a0: ba2a cc3e 3eb3 c03e 547f a93e f58c d2be
000002b0: 7ae2 cebe aa51 d13e 5809 c6be 297a d23e
000002c0: 3251 a9be da9a e23e 9d42 92be b107 b1be
000002d0: d569 c43e 7e98 bc3e af2c e4be dd0d b53e
000002e0: f0f5 983e 9a08 d2be 1c91 a6be fb41 dd3e
000002f0: b83a 6e3e 4982 d53e 18ca aebe c151 b9be
00000300: 2405 f63e a2cc 9f3e 8492 8b3e 1eff a63e
00000310: a950 af3e e8ca fd3e 8060 803e f5e6 c63e
00000320: 993e d63e 115e 6f3e 3ed5 bb3e a993 c63e
00000330: c6cc d23e 44a6 8d3e 2185 b23e 0492 b73e
00000340: 1140 b83e 3319 003f 1606 f83e 6c99 b43e
00000350: 2a6f ef3e 7188 8f3e 2b95 8b3e 1d97 5d3e
00000360: 0e67 6e3e 1516 ce3e b1fa cc3e 51ad b43e
00000370: 23de c53e 222b 933e ce80 d43e c423 a63e
00000380: 45f7 c63e b19d d93e 8b17 b53e 3ef9 a33e
00000390: ff75 e23e 6112 c43e 00e3 9f3e b88c e53e
000003a0: 5cdf ad3e a9b9 893e 5b0b 953e 9dd1 903e
000003b0: f417 dd3e 0c80 c13e ecf3 cf3e 2ad9 a23e
000003c0: aef5 c93e 36a8 e83e 4ae1 8c3e 708a f23e
000003d0: 9f2b f43e cd8a e43e 66db c83e 3e95 e03e
000003e0: 48ff 9b3e a8e0 c83e b33e a93e b960 bb3e
000003f0: ec8c 803e 67ba ef3e aaea d03e 72b8 033f
0.31693637 0.34839955 0.27180657 0.31096694 0.4931747 0.31377912 0.35727075 0.44178337
0.41687027 0.37132743 0.39384994 0.22910719 0.26907402 0.38980773 0.45415768 0.2359618
0.45112732 0.28396627 0.36442766 0.36866423 0.4339049 0.3311854 0.28919306 0.37932992
0.2783068 0.38283917 0.31315747 0.4150503 0.39027688 0.34312466 0.36872596 0.33807918
0.40593645 0.29055685 0.47670418 0.48440096 0.42431432 0.41914487 0.25516018 0.4630483
0.42115638 0.37334165 0.38540816 0.41949323 0.28085855 0.37666777 0.43819833 0.45232713
0.3347437 0.41087124 0.3446276 0.3484026 0.36375773 0.34141457 0.49193132 0.34486908
0.4933617 0.37017074 0.3399174 0.5202195 0.32242793 0.44750482 0.3649301 0.45047182
3.0706805e-19 -8.203041e-27 4.6083765e-10 -1.269289e-22 4.0470648e-36 5.713603e-17 -2.0296508e-34 -9.2426347e-32
8.362332e-11 9.884505e-35 4.2965546e-21 -7.049477e-32 -1.4143518e-25 -1.11619414e-29 -7.3723507e-31 -2.3363334e-11
-5.9692814e-22 4.0048685e-36 -1.726601e-36 -1.7298043e-36 -3.5034311e-37 -2.8288795e-24 5.953892e-30 8.7305004e-11
-6.504123e-33 -8.220808e-31 6.8214716e-37 1.5725848e-13 1.1397882e-30 1.7255689e-16 -3.943073e-27 1.7106257e-36
7.4971214e-13 2.9504711e-24 -6.9936764e-20 -3.657705e-37 1.9978823e-36 -8.549945e-32 -3.459189e-21 2.4064214e-37
-1.1478424e-21 -1.8351137e-37 7.79239e-37 1.1643005e-11 -5.016138e-37 1.0396003e-27 -9.27283e-32 2.3820853e-15
2.4487382e-19 -3.9626895e-36 -2.2460781e-17 6.893868e-37 3.1521731e-37 9.749157e-37 -5.733653e-29 4.2818743e-10
-7.542149e-34 1.6144866e-16 -1.5509151e-14 1.0616946e-31 8.545536e-11 -1.291806e-18 -5.6902304e-21 2.4277289e-10
0.3026742 0.354227 0.4249015 -0.46493277 -0.4408695 0.45073122 -0.2681229 0.3589104
-0.35361138 -0.3902248 -0.45066202 0.368451 -0.2961993 0.2893141 0.36636266 0.34666598
0.32695386 -0.45328692 0.3457668 -0.34819612 0.37185258 -0.48787007 -0.37431785 0.23456614
-0.34901017 0.2948365 0.41870484 -0.440303 -0.43071935 -0.43826732 -0.3083064 0.4306718
0.2704224 0.44392788 0.28734678 0.3950993 -0.437874 0.47504562 0.43135548 -0.3739229
0.39876348 0.3763675 0.33104956 -0.41123167 -0.40407163 0.40882617 -0.38679004 0.41108826
-0.3306976 0.44258767 -0.28566447 -0.3457618 0.38361993 0.36835092 -0.4456534 0.3536214
0.29875135 -0.41022187 -0.32532585 0.43214402 0.23264587 0.41700962 -0.3413856 -0.36195186
0.48050797 0.3121081 0.2726022 0.32616514 0.34241226 0.49568868 0.25073624 0.3884808
0.41844633 0.23375727 0.36686128 0.3878453 0.41171855 0.27665913 0.34867194 0.3585359
0.3598638 0.5003845 0.48442143 0.35273302 0.467645 0.28033784 0.27262244 0.21639676
0.232815 0.40251222 0.40035012 0.3528848 0.3864604 0.28743845 0.4150452 0.32449162
0.38860527 0.42503121 0.35369524 0.32026094 0.4423065 0.38295272 0.31227875 0.44833922
0.33959472 0.2689946 0.29110226 0.28284922 0.43182337 0.37793005 0.40615785 0.31806308
0.3944525 0.45440835 0.27515632 0.47371244 0.4768953 0.44637147 0.39229888 0.43863863
0.30468202 0.392339 0.33055648 0.3659723 0.25107515 0.468219 0.40804034 0.51453316

lstm.weight_ih_l1 f4 [256, 64]
00000000: 8daa b13e a5f7 d73e 1e7c b33e 3efd d4be
00000010: a972 a7be 931d 8c3e 2224 7fbe 4ac8 843e
00000020: 590d 6bbe 622f c6be 4a88 9fbe 1be7 943e
00000030: 3fe2 3abe 8dd7 8e3e 795a 913e 16b3 2b3e
00000040: cb21 8c3e fce0 49be f258 4e3e 7a27 cdbe
00000050: 4b8c c53e ac00 d3be 5501 d1be f0d7 5d3e
00000060: 0ae5 c7be beb2 8c3e 3e51 6d3e 7b5c d7be
00000070: 3b29 acbe 5a38 8cbe 3c35 9cbe ca43 dd3e
00000080: 3e93 b13e 7342 7b3e 7f61 283e 5c34 b83e
00000090: 10a1 35be f066 a03e 9c84 983e 25f7 b5be
000000a0: e458 c83e eab9 6e3e eb96 e03e 8a37 4fbe
000000b0: f4fe dabe fd31 a43e 7c69 64be 8f7d 8f3e
000000c0: a8b4 e2be 8ee4 913e ba0e 9dbe 7fac c2be
000000d0: 5173 7d3e 0728 8f3e 6537 cbbe 9548 be3e
000000e0: 244c b43e 93b3 adbe 1780 43be a6bf c83e
000000f0: 768d 6e3e 1810 b73e c4e1 95be d372 edbe
00000100: 629a 943e b6ad a63e d81f 1a3e aec3 b3be
00000110: f371 cfbe 6da4 713e ca27 96be 6375 b83e
00000120: 99e4 d2be a9cf cabe 1731 99be 3be9 d43e
00000130: ee6d a8be a236 a43e 4744 c93e e3a5 123e
00000140: 67bc c63e da81 adbe d6ad 923e 19d3 a3be
00000150: 4d9d c23e f7d9 46be 0a32 a3be 6bf8 193e
00000160: 4214 b8be da03 d93e 24a9 bb3e 334a 53be
00000170: 756b 96be c375 94be cb44 f4be c5ac 8e3e
00000180: f898 be3e db4b 883e 3b9c 743e 28c2 ad3e
00000190: 1210 69be 53f8 1f3e 54d2 443e e5f5 98be
000001a0: 04cc 9b3e ba87 a23e 2afa d13e 75dd d1be
000001b0: a1fd 36be 52bd d03e c719 3bbe a3d3 783e
000001c0: eefd f2be 8787 723e c8e0 bdbe 577d 83be
000001d0: 7d8e 313e ee94 943e 8dda acbe aaf0 b83e
000001e0: 2f84 c43e a7cf 76be 9751 adbe 2964 633e
000001f0: 7423 c93e 77d5 db3e e0fe 64be 4d97 cabe
00000200: 9d97 903e 0262 813e 71cb 913e 9b9e 6bbe
00000210: 534e aabe 69d5 353e 925e bbbe 5eaf 3a3e
00000220: 247f dbbe aaf0 aebe 8dae a0be 64f8 d13e
00000230: 5ad2 79be 4137 873e 9ee4 433e cc14 c03e
00000240: 9a01 cf3e a708 abbe a71a 8f3e 88bb b4be
00000250: 9ded eb3e 7629 cfbe 6bc2 b6be 9488 593e
00000260: 0e05 aabe 6d45 963e 24f6 7d3e cc98 91be
00000270: 3f9e b5be b7ee 87be b005 94be 5333 a93e
00000280: 2d91 cc3e c669 ba3e 798e 423e 7ae3 d53e
00000290: 64bd d2be f3cb bc3e e32b 763e be55 b7be
000002a0: 1673 bd3e 0e34 c63e 64fa 683e e674 98be
000002b0: bcb4 83be 420c 9e3e f780 84be fc2c 2f3e
000002c0: 623c d2be 998f a93e ce44 75be 877d 8ebe
000002d0: 07bd 643e 1d9d 893e deb2 45be 3354 a43e
000002e0: 2e4b 993e 237c d7be b8df 96be e26e ce3e
000002f0: ba0b 5d3e 870a c33e 636b 7ebe 235e 71be
00000300: 0c56 7e3e 2ae3 c03e 8b5e 873e 084e 9bbe
00000310: 86a8 74be f55e 8b3e 65c0 24be c2b3 a83e
00000320: 7b6b afbe 457a 66be 2d39 89be 5013 ca3e
00000330: 2039 adbe d123 a83e 8d26 c53e a4fa 933e
00000340: 827e 5d3e 1da0 afbe 06fa be3e 7a70 94be
00000350: c44f bc3e e36e 47be 4291 91be 9bf3 c43e
00000360: 163f 97be eb28 3d3e 6151 953e 40fd a9be
00000370: dc73 b8be 50bc 9bbe e5f7 b8be ae88 473e
00000380: 091d e03e 8567 c03e 90be 353e de9f 8f3e
00000390: a04d a9be 2da5 493e aaea 903e 5c00 afbe
000003a0: 004c c13e 870c c03e 539b c43e 6178 bfbe
000003b0: d66b afbe 1d48 bf3e c4ca 5fbe 0a5d 943e
000003c0: 3dbc b4be 1caa 903e 5c30 6bbe b85f cebe
000003d0: 4dab a43e 185c 5d3e e641 bdbe f961 c53e
000003e0: 767b 8e3e 8810 b6be c66d 21be 81a4 883e
000003f0: 3edd a53e 1b23 aa3e 2b88 a9be 86ba e1be
0.34700432 0.42181125 0.3505563 -0.41599458 -0.32704666 0.27366313 -0.24916127 0.25934058
-0.2295431 -0.38708025 -0.31158668 0.2908257 -0.18250369 0.27898827 0.28389338 0.16767535
0.27369532 -0.19714731 0.20151117 -0.4006918 0.38583598 -0.4121145 -0.4082133 0.21664405
-0.3904193 0.2748012 0.23175523 -0.42062744 -0.33625206 -0.27386743 -0.30509365 0.4321578
0.3468265 0.24537067 0.16443442 0.35977447 -0.17737222 0.31328535 0.29788673 -0.3554012
0.39130318 0.23313108 0.4386514 -0.2023603 -0.4277264 0.32069388 -0.22305864 0.2802548
-0.44278455 0.28494686 -0.30675298 -0.3802223 0.24751021 0.27960226 -0.396907 0.3716475
0.3521434 -0.33926067 -0.19091831 0.39208716 0.2329615 0.35754466 -0.29273808 -0.46376666
0.29024035 0.32554406 0.1505121 -0.3511023 -0.40516624 0.2359788 -0.29327232 0.3602706
-0.4119003 -0.39611557 -0.29920265 0.4158419 -0.3289637 0.32072932 0.39309904 0.14321093
0.38815615 -0.3388813 0.2864825 -0.31996992 0.38010636 -0.19419084 -0.31874114 0.1503617
-0.35952955 0.4238575 0.36652482 -0.20633774 -0.29378858 -0.28996095 -0.47708735 0.27866188
0.3722608 0.26620373 0.23887722 0.33937192 -0.22760037 0.15622072 0.19220859 -0.29875103
0.3042909 0.31744176 0.41011173 -0.4098927 -0.17870189 0.4076944 -0.18271552 0.24299483
-0.47459358 0.23684512 -0.37085557 -0.25681564 0.17339511 0.29019874 -0.3376049 0.36121112
0.38382098 -0.2410265 -0.3385131 0.22206177 0.3928486 0.42936298 -0.22362852 -0.39568558
0.28240672 0.25270087 0.28475526 -0.23009722 -0.33262882 0.17757191 -0.3659559 0.1823096
-0.42870438 -0.34167987 -0.31383172 0.4100982 -0.24396649 0.26409343 0.1913018 0.37515867
0.4043091 -0.3340504 0.27950022 -0.35299325 0.46079722 -0.4046132 -0.35695204 0.21243507
-0.3320698 0.29349843 0.24800926 -0.28436887 -0.35472295 -0.26549312 -0.2891059 0.3304697
0.3995451 0.36408824 0.18999662 0.41775113 -0.4116012 0.3687435 0.24040179 -0.35807604
0.37001866 0.3871159 0.22751766 -0.29776686 -0.25723827 0.30868727 -0.25879642 0.17107004
-0.41061693 0.3311737 -0.23952028 -0.27830145 0.22337733 0.2687768 -0.19306514 0.3209549
0.2994017 -0.42086896 -0.2946756 0.40318972 0.21586505 0.3809397 -0.24845652 -0.23571067
0.24837512 0.37673312 0.26439318 -0.3033297 -0.23892412 0.27220884 -0.16089018 0.32949644
-0.3426169 -0.2250758 -0.26801434 0.3946786 -0.33832645 0.32839826 0.38505974 0.2890216
0.2163029 -0.34301844 0.37300128 -0.28992063 0.36779606 -0.19475894 -0.28431135 0.38467106
-0.29540318 0.1847264 0.2916365 -0.33201027 -0.36025894 -0.3041711 -0.3612663 0.19485733
0.43772152 0.3757898 0.17748475 0.28051656 -0.33067036 0.19691916 0.28304034 -0.34179962
0.37753296 0.37509558 0.38399753 -0.3739653 -0.3426196 0.37359706 -0.21854693 0.28977233
-0.35299864 0.28254783 -0.22967666 -0.40307403 0.32161942 0.21617162 -0.3696434 0.3855131
0.27828568 -0.35559487 -0.15764531 0.26688007 0.32395357 0.33229908 -0.331117 -0.4408762

lstm.weight_hh_l1 f4 [256, 64]
00000000: a26a a884 982e 8a02 d949 e12c 2397 36ab
00000010: bf92 000c 529b c2a7 744b 3802 2dd2 6625
00000020: c882 4a80 c8ce 4723 812e 8f1a 1b43 1384
00000030: 4496 012b ee6a 1684 217e 029d e071 25ae
00000040: e80d 3d93 40b8 4a98 3ab9 871c 2a34 a984
00000050: 3775 b11d 6e7a f6a6 5959 222e c2fc 1384
00000060: 4717 ab04 dced ea8b f80a 3d02 48ba 0f04
00000070: f653 eb98 2719 6119 61d7 c302 3c71 0003
00000080: bda7 fd0b 4e22 dc1d 0fd8 3b86 d56c 4a10
00000090: a065 2080 c4ff 8e92 7025 e782 0342 0311
000000a0: c997 8a03 1fa5 dd0d f993 0f84 007a 3c8f
000000b0: 9597 f6a7 714e 90a8 8e95 1911 5e76 a502
000000c0: 89ae a225 b782 1027 d589 3f8d fef6 7322
000000d0: ffe7 c30d f429 fb02 7086 23af b27e a49e
000000e0: dba8 9b04 d12a cfad 7b0d c0a5 f9c0 7fac
000000f0: b94f 4fad 191f d59d c77b 3502 2451 fc95
00000100: 5299 04b0 8af3 8803 f802 cdae 92a0 722e
00000110: c6a8 3415 c249 b382 669d 428a 4066 3d25
00000120: 6c70 2228 dab8 a105 f88f 18ac d1be 3485
00000130: c75a 3299 5cc8 4a29 3d06 3603 aee5 9503
00000140: 530b 3da1 e646 c72d 4488 4883 3016 1b83
00000150: 4031 a984 4af4 28a3 bcbb c7a9 e6e8 e727
00000160: 0a8e 1483 cbfd 7782 204a 6415 6764 9425
00000170: bc2e 8601 c7d0 8903 121b 1584 d778 adaa
00000180: 398d 978e 413e f902 5a31 1204 deca 6726
00000190: 860f fa01 138f af0e 67f4 d10e ffab 00a3
000001a0: 8d2e 86af 0faa 722e 57c9 0c14 ce93 3a8b
000001b0: af0d bdab 006a 2f16 a17e 11a7 9c5b 3485
000001c0: 0ed4 1284 1dcc a904 3cb6 0d84 1779 8019
000001d0: 56f7 550f fac3 1004 7fd8 ae0b 0dea 56ab
000001e0: e1da 462b fc26 bd06 3efd 791d 4a35 3d8d
000001f0: 7391 2c16 5968 e5aa 7898 be29 bed9 4ca9
00000200: e436 0f2c 2d07 71ac b0e8 5bad 3dcf b805
00000210: 8cc2 0619 479b 3485 bd24 3687 7f26 e1a1
00000220: c72f 342d e14f 9e07 7211 0a03 c762 1304
00000230: 7a2d d80d b8b2 9e1d 38fe cc07 dc9c 56ae
00000240: e743 7ca9 c82a f30c fbcf 2083 d989 b307
00000250: 67b4 9603 4205 f32a 5e41 2116 c451 cf1d
00000260: fa17 0e03 7d1d 1404 0d1b cd99 9f78 ab84
00000270: ac71 7295 a5e6 0e04 a691 ab0b 54bd 8c82
00000280: 275d 6999 ffad 8e8d 7958 8382 68d4 3499
00000290: e1ec bc98 b0f7 e682 aed2 51ab 6490 fa02
000002a0: b9c6 af25 2217 219e caaf 1a01 9c94 8183
000002b0: df7d be87 53c1 1814 55e2 0fa9 4b12 8623
000002c0: aebe 0724 a83f 1603 8b18 7603 b050 4424
000002d0: f859 1cac b213 c714 4549 352d e961 3682
000002e0: 6675 af27 56f0 ec86 d7ab b08e 3cc0 b80d
000002f0: f541 872b 276a 18b0 8d7a 04ae 8594 e22e
00000300: fc8c 8601 43d8 0a28 3db5 9f1e c0a8 aa04
00000310: aaad 2d0b 7a63 0da7 996f f82c 6d81 3305
00000320: 9ad3 b002 ad59 130f 79ba 65a7 42a4 fe02
00000330: b2cd d81d 5aa5 df2b 29e7 f79e fb55 8304
00000340: be25 aa04 3a48 8a01 ccd3 93a7 fe1d e32d
00000350: 2ec7 1184 ecc9 989d 9369 20aa fda7 69af
00000360: e825 84ad c3ea bd18 2a8a 1b02 801a 7625
00000370: a4fe bc86 e52c a984 6534 b905 4a77 23a9
00000380: 77f6 a418 194d 0f84 1dbd d817 47ee 0703
00000390: 4390 2a96 6bef ec28 b87c a423 e4aa a898
000003a0: 2ec6 ceaa b9b8 142a d173 e703 0993 c6aa
000003b0: 19e4 4298 a9d5 9a9d 80f9 ed10 60a6 8582
000003c0: 7936 a984 b068 d00b c90d ac02 fcf5 a21d
000003d0: 1a18 1203 4bb3 708e 226b 8f0e 426d 8d03
000003e0: 13be c60e 0e55 cb18 3a06 aa04 f7e5 9803
000003f0: 2b96 b383 dccf bfa5 2053 ad8e d58c 0924
-3.9594537e-36 2.030402e-37 6.4030834e-12 -6.4869133e-13 9.904921e-32 -5.4014215e-15 1.3539839e-37 2.002053e-16
-6.842742e-39 1.0831599e-17 5.9218545e-23 -1.731058e-36 4.603854e-13 -1.7681515e-36 -1.7270564e-21 -3.7617798e-11
-2.386201e-27 -2.620091e-24 8.981431e-22 -3.9779614e-36 4.6972707e-21 -1.7102864e-15 3.6913892e-11 -1.7395828e-36
4.0223284e-36 -9.049141e-32 1.3888675e-37 1.6895105e-36 -6.0830855e-24 1.1637307e-23 2.8776296e-37 3.7745806e-37
9.770444e-32 5.8268985e-21 -3.5329526e-35 3.9921317e-29 -2.975192e-39 -9.024511e-28 -3.3963887e-37 1.0354419e-28
8.145759e-37 1.3659928e-30 -1.6877515e-36 -9.292612e-30 -6.844306e-15 -1.602123e-14 1.2115657e-28 2.431251e-37
2.822079e-16 2.0054875e-15 -5.902233e-31 3.3063398e-18 1.2073654e-30 3.6905215e-37 -1.4872525e-10 -1.7416575e-20
3.6595394e-36 -2.355219e-11 -3.3315825e-16 -3.63448e-12 -1.178429e-11 -5.6412785e-21 1.3333302e-37 -1.01910007e-25
-4.82392e-10 8.049275e-37 -9.322848e-11 5.5167045e-11 3.648385e-26 -2.634402e-37 -9.3703636e-33 1.642778e-16
9.017184e-15 1.5208271e-35 -2.1680418e-12 -8.498607e-36 -9.220717e-24 4.5026794e-14 5.3492154e-37 8.810165e-37
-6.405068e-19 2.2655166e-11 -5.8931143e-37 -4.5575876e-37 -3.9776938e-36 -9.1590285e-18 -8.869942e-14 6.436789e-15
-4.3656344e-37 -1.8219529e-37 4.6102708e-26 2.5741943e-16 4.9290886e-38 8.100069e-37 -1.7527296e-36 -3.0814823e-13
-3.7360366e-30 3.6622994e-37 1.7184879e-36 8.041916e-16 9.185777e-38 4.3278606e-30 5.175783e-30 -6.9753155e-18
-2.4407534e-10 5.5175472e-11 7.107901e-27 -3.5933493e-32 -1.3433056e-12 1.4169835e-25 -2.0191438e-15 -8.480385e-36
-1.7259588e-36 3.9919158e-36 -1.6658148e-36 1.3283798e-23 1.0549346e-29 1.7017107e-36 6.734811e-32 -7.6352883e-13
7.0647486e-13 7.115118e-35 3.3085799e-21 -5.8304266e-31 1.3939945e-25 -4.0750977e-13 8.464144e-14 -4.548596e-14
2.0351993e-12 -3.4252143e-12 -1.2500376e-11 1.7379404e-35 6.966926e-24 -8.492079e-36 -1.3702955e-34 -1.5256783e-18
1.0242424e-11 2.3820146e-34 4.057458e-37 1.7325123e-36 1.3322976e-30 4.2007043e-21 3.0843925e-34 -4.8797286e-11
-5.6014136e-14 3.7465826e-31 -4.7258524e-37 2.7013946e-34 8.857626e-37 4.316912e-13 1.3026103e-25 5.4876987e-21
4.1757573e-37 1.7410857e-36 -2.1207429e-23 -4.031268e-36 -4.8961182e-26 1.6797927e-36 6.608595e-32 -2.067982e-37
-1.206463e-23 -8.793314e-31 -1.92995e-37 -9.348677e-24 -4.8836048e-24 -3.3937628e-37 -7.454409e-13 3.6817075e-37
3.049232e-16 -8.528053e-21 2.8411455e-38 -7.616058e-37 -2.8662003e-34 7.712165e-27 -3.194869e-14 1.4536056e-17
2.943497e-17 4.415411e-37 7.2321077e-37 4.256907e-17 -2.2218876e-12 2.0101633e-26 1.0304928e-11 -1.3399347e-37
4.869954e-15 -8.9126475e-35 -4.3552826e-30 1.1386154e-30 9.610634e-13 -5.544813e-10 -3.0122172e-11 1.03036725e-10
4.942613e-38 7.707433e-15 1.6909738e-20 4.012178e-36 3.3449238e-32 -1.9621607e-15 7.0609738e-12 8.440311e-36
2.598233e-37 7.2649305e-30 -3.1881221e-15 3.7416225e-37 5.7387408e-21 1.5890997e-12 -2.6247748e-20 3.0876913e-36
4.000147e-36 5.0796834e-38 -4.1030327e-15 2.5820231e-11 -1.7136127e-36 -4.0442847e-21 -1.4247483e-13 -2.1250908e-10
-1.5023496e-11 4.9092404e-24 1.1427253e-37 2.1346077e-16 -7.10919e-35 -3.9772938e-36 1.7416563e-35 -3.6296737e-14
4.2641872e-24 -1.684497e-36 1.4006412e-24 3.9946463e-37 -1.3778012e-25 2.6305094e-14 1.7833736e-17 -4.3599538e-24
-3.6730466e-13 1.3209129e-13 1.360355e-36 -3.5273892e-13 -2.5189072e-24 -4.098438e-21 9.386443e-29 -1.9638088e-37
-3.9781734e-36 8.02762e-32 2.528104e-37 4.3135385e-21 4.293321e-37 -2.966861e-30 3.5355387e-30 8.3123195e-37
4.8993803e-30 5.2560153e-24 3.9972526e-36 8.986554e-37 -1.0555151e-36 -3.327407e-16 -4.272784e-30 2.982643e-17

lstm.bias_ih_l1 f4 [256]
00000000: 7dda bf3e 3c43 a73e 35dc b93e a1ec a23e
00000010: 8927 613e 5815 bd3e f0f1 833e 23f9 333e
00000020: 3c86 953e 08f2 8c3e c3e3 b23e da0e 963e
00000030: ab84 9e3e 03e4 a63e 38ea 7f3e 0b02 cb3e
00000040: 650e ce3e 4100 953e 9ab6 2b3e 2a55 ba3e
00000050: 9bbc b73e d13c 5b3e 528f d23e 9979 5e3e
00000060: ebf0 db3e 3e3c 343e 2f1a b73e 9305 963e
00000070: 0c6a 863e a43e 5b3e dbb9 933e 5e07 6b3e
00000080: b7db 863e e62f d03e acc8 1a3e ab4f 823e
00000090: 6620 c43e dbd5 ae3e 698a 3e3e 635e d23e
000000a0: 293c b43e 23b0 ac3e 7da4 5f3e c919 a03e
000000b0: 8ab8 6d3e ee83 793e ce1d ae3e 136b bc3e
000000c0: 5131 c63e 2900 a73e a5c5 4b3e 1d2a 893e
000000d0: 149a d33e 5c59 9f3e b703 8d3e 2c90 a03e
000000e0: b376 be3e 1ce3 bd3e 5cf3 c93e ab30 193e
000000f0: 040a bb3e 3e08 4b3e 723e 4a3e 2459 663e
00000100: a178 8707 80b5 9ba7 733b 6910 a720 8baf
00000110: eb8a e62d 5b39 c08b be81 9794 9b53 1725
00000120: da9d 1730 7973 7182 7a71 bd1c 87da b707
00000130: b81e b195 d0c4 2402 fc68 4a82 adbc a904
00000140: edb9 4a2e c578 d82e 0fdc cbaa 8846 05aa
00000150: fbaa 5f2d 154d f28e f697 0314 8e6d 4423
00000160: 4c09 2694 b50a ceaf c8fd fa15 b078 3100
00000170: 190a c782 5d1d 579e ad60 a92d cc01 2728
00000180: dde5 7e94 bb2c 5188 a9bc b2a4 1e03 a783
00000190: cb8e 2b2d 7742 882f 2f82 0a13 afe1 9597
000001a0: 40a0 9a2f a960 a49e ddf4 38ae 513c 50a7
000001b0: 99f2 b825 ea80 8c15 c780 a682 0fd4 0e84
000001c0: ca90 bd82 5c5d 8283 11ae ed94 ddd9 8f83
000001d0: 0ef7 74ac 844d daaa 568c cf8e 0101 2405
000001e0: b212 d783 95ac 1903 00dd 8783 6b19 ef02
000001f0: 03a1 4417 31aa 3682 614c d721 9108 b502
00000200: 9867 893e f46a 8bbd 1e2e 4fbe ffbc 353e
00000210: 97fe 79be 6032 a0bd ccf4 913e e426 e3bd
00000220: db98 05be 1016 7cbe e154 923e a1e0 edbd
00000230: 74bf 753e 8cdc 66be 3278 4abe 3ced 733e
00000240: b2aa 203e 39c9 b53d 3756 01be be15 ee3d
00000250: d1b8 3c3e ddac 963e f81b 1f3e d5a9 5e3e
00000260: c195 223e d91c 9bbd 27d8 7e3e 523b 2e3e
00000270: a8f5 803e f63e 24be 0539 8b3e 9352 07be
00000280: b5a4 903e ff73 373e d8bd 3e3e 7f8e 0abe
00000290: 6c01 51bd f0e4 363e a6d5 823e 1fd9 ebbd
000002a0: 15bc b8bd 270c 45bd f9ac c9bd d2bc 283e
000002b0: 1dcb 0f3e 750d abbd 0b72 f5bd 85a3 90bd
000002c0: 6def 8f3d c67b 06be c0a1 843e 8141 353e
000002d0: 2060 b4bd 7450 f7bd fe3f 3d3e 693a 273e
000002e0: 94cf 1e3e 4686 6abe cfe9 61be c877 233d
000002f0: ddd4 b1bd 6c54 81be 64a1 7dbd 4548 3a3e
00000300: 1262 3c3e f346 453e 3348 643e abcb cc3e
00000310: 9e79 663e 31a1 9c3e 6dc9 a03e 3d5f 893e
00000320: e15a bf3e 04fb 9d3e 0078 463e 3d22 893e
00000330: a452 9e3e 052d 813e 9752 443e d4be bd3e
00000340: d33f a53e 6465 903e 41c5 d43e c9f7 563e
00000350: 2903 753e 5d06 8c3e 8162 b13e 4d0e 503e
00000360: 7e99 c93e 1feb 383e 5a53 853e 745a 443e
00000370: c275 d03e 017a ab3e 96a1 b13e 2b9c a43e
00000380: 7f48 e53e 65a1 8e3e cf78 273e 1f36 4e3e
00000390: 04e5 c13e 4a7e 9c3e aca5 e13e 05fc b43e
000003a0: edbe 9e3e f2e5 da3e 7ff5 cd3e e862 a03e
000003b0: e16e b03e a4fd 9c3e 0d83 af3e 112c d83e
000003c0: d5d7 863e bad0 af3e a76e 4a3e 627d 7b3e
000003d0: 180f ab3e 57be 7d3e 3d4a 6e3e ec37 d43e
000003e0: e12e bb3e 3f09 8b3e b61d a43e 9b2e 7b3e
000003f0: 8505 6e3e fb3f cb3e 40c7 be3e 872f b13e
0.3747138 0.32668483 0.36300817 0.3182116 0.21987738 0.36930346 0.2577052 0.17575507
0.29203975 0.27528405 0.34939393 0.29308206 0.30960593 0.32595834 0.24991691 0.39649996
0.40245357 0.29101756 0.16768876 0.363931 0.35886082 0.21409918 0.4112497 0.21726073
0.42957243 0.17601106 0.35762164 0.29301128 0.26252782 0.21410614 0.28852734 0.22952029
0.26339504 0.40661544 0.15115613 0.25451407 0.38305968 0.34147534 0.18607487 0.41087636
0.3520215 0.33728132 0.21840091 0.31269673 0.23214927 0.24366733 0.34007114 0.3680044
0.387095 0.3261731 0.19899614 0.26789942 0.4132849 0.31122863 0.27541897 0.31359994
0.37199935 0.37087333 0.3944348 0.14959972 0.3653108 0.19827363 0.19750383 0.22494942
2.0383442e-34 -4.3217925e-15 4.5996946e-29 -2.5307154e-10 2.6209665e-11 -7.404201e-32 -1.5298278e-26 1.3125489e-16
5.51578e-10 -1.7739023e-37 1.2536304e-21 2.7663219e-34 -7.1538196e-26 1.21053e-37 -1.4870745e-37 3.990498e-36
4.6094618e-11 9.843996e-11 -3.621274e-13 -1.1837243e-13 1.2714048e-11 -5.9731833e-30 6.643779e-27 1.064838e-17
-8.382692e-27 -3.747879e-10 1.0137459e-25 4.543234e-39 -2.9246218e-37 -1.13880774e-20 1.9256008e-11 9.270752e-15
-1.28690554e-26 -6.294623e-34 -7.75148e-17 -9.8160935e-37 9.751931e-12 2.4785482e-10 1.7482234e-27 -9.68587e-25
2.81263e-10 -1.7404153e-20 -4.205424e-11 -2.8898496e-15 3.2083303e-16 5.674894e-26 -2.4465422e-37 -1.6789392e-36
-2.785416e-37 -7.6621475e-37 -2.3999542e-26 -8.454804e-37 -3.4811628e-12 -3.8778366e-13 -5.116458e-30 7.711427e-36
-1.26408565e-36 4.5160773e-37 -7.985326e-37 3.5132483e-37 6.353424e-25 -1.3420091e-37 1.4589184e-18 2.6600477e-37
0.26836848 -0.06807509 -0.20232436 0.17747878 -0.24413525 -0.07822108 0.28507078 -0.11091402
-0.13046591 -0.24617791 0.28580382 -0.1161511 0.23998815 -0.2254507 -0.19772413 0.23820966
0.15690115 0.08876271 -0.12630545 0.11625241 0.18429877 0.2942876 0.15538013 0.21744473
0.15877439 -0.07573862 0.24887143 0.17014816 0.2518742 -0.16039643 0.2719194 -0.13215093
0.28250661 0.17915343 0.18627107 -0.1353092 -0.051026747 0.1786077 0.25553626 -0.11516022
-0.09020249 -0.048107293 -0.09847445 0.16478279 0.14042325 -0.08352176 -0.119846426 -0.07062439
0.07028089 -0.13133153 0.25904655 0.17700769 -0.08807397 -0.12075892 0.18481442 0.16330875
0.15508872 -0.22902784 -0.22061847 0.039909154 -0.086831786 -0.2525972 -0.061921492 0.18191631
0.18396786 0.19265346 0.22293167 0.39999136 0.22507331 0.3059173 0.31403676 0.26830474
0.37374023 0.30855572 0.19381714 0.26783934 0.30922425 0.2522966 0.1917213 0.37059653
0.32275257 0.28202355 0.41556743 0.2099296 0.23926987 0.27348605 0.34645465 0.20317955
0.39374918 0.18058442 0.26040155 0.1917513 0.40714842 0.3349152 0.34693593 0.32150397
0.44781873 0.2785751 0.16354679 0.20137833 0.37870038 0.305651 0.4407171 0.35348526
0.3100504 0.4275356 0.4022636 0.3132546 0.34459594 0.30662262 0.3427967 0.4222112
0.26336542 0.34338933 0.19768773 0.24559548 0.33409953 0.2477964 0.23270507 0.41448915
0.36559203 0.27155492 0.32053918 0.24529497 0.23244293 0.3969725 0.3726139 0.34606573
