model_checkpoints/model_epoch_20.pth (torch, 233370 bytes, 9 tensors)

lstm.weight_ih_l0 f4 [256, 28]
00000000: ddb6 9ebe a82d 153e 2674 57be de4e c83d
00000010: 9fa1 7d3e 6e39 e2bd 955a a6bc 65e8 693b
00000020: 540e e1bd a12c 11bd 088e 9dbe d236 75be
00000030: 09bb 5bbe 00cd 76be b5ad 4fbe 7180 65be
00000040: 9d30 87be 91eb 00be 921e 6abe 74ad 13be
00000050: 24b8 cd3d 053f d8bc 6c11 243e a142 ed3d
00000060: eb8a 9bbd db45 2dbe d057 3d3d c420 66be
00000070: bc2d 22be 16da 4b3e 4789 6cbe 9d5a 923d
00000080: 1c7d a23e 22e0 86bd 959c 29bd d301 0ebe
00000090: e36e e6bc 30df 08be 32e8 00be dc06 45be
000000a0: a985 62be 706f 4abe 968f 26be 3152 47be
000000b0: 47df 89be cf0f 26be e52f 9cbe 16c3 6fbe
000000c0: 0b9c b03d f587 443e 1221 b1bd eda2 523c
000000d0: 5e32 74bd faf2 c2bc b3d1 66bd e4a8 bdbe
000000e0: 012f 4d3e c349 8dbd 8640 82bd 1afd 173d
000000f0: 22a9 79be aaf9 3d3c baf3 1abe d605 34bd
00000100: 5fca ab3d 0ee2 a4bd 9baf 7c3e bc0e a23e
00000110: 9203 e23d e5c8 293e 78ee 053e 1807 073e
00000120: 4056 2f3e 1534 353e 51bf 9e3e 4b31 a23e
00000130: ef53 0cbe 7e8f fcbd 7df0 703c a1f5 b33d
00000140: 3261 01bd 031e 423e a0d8 993e 216a 113e
00000150: 0e31 96be 8eb8 003e 38a1 9abe 0756 2c3e
00000160: 8f9e 233e dd99 efbc 5944 16bd d507 c63d
00000170: bf45 81bd e048 16bd 6225 84be e72d 89be
00000180: 941c 9ebe f1b0 77be b916 01be a896 65be
00000190: eb7f 99be 0a4f 0cbe bfb7 c6bd c64f 74be
000001a0: 4e62 033e dae9 023d 4ebd 10bc bf4a fcbd
000001b0: 95db 06be 4f11 d03c a380 98bd bbd2 c6be
000001c0: 431e 173e b3af 4ebe bfef 973a 8fbe 37be
000001d0: 7985 38bd c324 7ebd 2b6f 723d a629 393d
000001e0: 0c78 8ebd d530 de3c 031f 3b3e c190 433e
000001f0: a524 a63e bd05 2a3e d7cf 273e 2fa6 a33e
00000200: f2f6 143e 45f1 6d3e 059b 9b3e cd68 983e
00000210: b465 ab3d 2f9e b83d 988a 08be 3187 dfbd
00000220: d0c5 13be 0bcb 613e e8d1 fcbb 9690 21bd
00000230: b351 813e c99c 30bc 7367 69bc a821 dc3c
00000240: 36e1 6dbd 49a7 e2bd 13db f7bd 0a7e 23bd
00000250: b7ce 683d 5f0c 3fbd a1ed 463e 50ee 6f3e
00000260: fe02 543e 0a4e 2f3e 3bc7 113e 96a4 653e
00000270: c5aa 243e 80ed 1e3e cd7a 253e 51bd e03d
00000280: 5054 df3c a17f 05be a1b8 4f3d 7693 3ebd
00000290: f581 183d d771 403e 26b7 7c3e d4f4 8f3d
000002a0: 5f34 633e c5bf aebb bf06 353d 9fae 7cbc
000002b0: e864 66be c869 57bc 41bf 84bd 4bc0 d03c
000002c0: 1034 09bd 70b2 3f3d 247b 9c3e 1d82 9e3e
000002d0: 16ab 5b3e b76f 9e3e 32b1 773e 4cc6 603e
000002e0: 7cdb f63d de07 a53e 72b0 153e 9f92 6e3e
000002f0: b0b4 a1bd 4123 39bc b817 b4bd 3e37 3c3c
00000300: 5ebb 833d a41d af3e ac45 843e ab13 293e
00000310: 39d4 db3d de3f 42bd 318e 2d3d 4303 1e3e
00000320: f033 88be ccd6 4ebd 26b2 c2bd 60da f0bd
00000330: c612 1ebd 3ea4 96bd 0621 5c3e 5139 433e
00000340: e7bd 0f3e cc3d 563e a405 243e ce2a 763e
00000350: 151e 753e 387f 5b3e 8823 9d3e 2805 9a3d
00000360: 0e96 e9bd a5f0 62be e310 653d 060a 113d
00000370: 21f8 dabc 5cde b83e 0a8b a83e 681d 353e
00000380: a1b6 d5bd 0398 4e3e 0477 28be 3d9c 0a3d
00000390: e562 8e3e c811 1fbe 3286 143c cce1 bb3b
000003a0: 5bac 483d 61aa 69bd 7aa0 85be acd8 48be
000003b0: bc0d afbd a1c3 79be a2f3 7fbe c2c3 55be
000003c0: 53f3 17be 5963 9bbe 4993 07be 7267 cdbd
000003d0: a709 45bc 3023 703e 53b1 83bc bb51 083c
000003e0: cd1d 39be 5f16 13bd dec3 04be 6ba3 cfbe
000003f0: f82c 773e 7027 0dbd d2c2 d7bc 3afa 1b3e
-0.3099889 0.14568198 -0.21040401 0.09780668 0.24768685 -0.1104611 -0.020306865 0.0035691496
-0.10989061 -0.035442952 -0.30772424 -0.23946694 -0.21458067 -0.24101639 -0.20281108 -0.22412278
-0.26404276 -0.12589861 -0.22863224 -0.14421636 0.10044888 -0.026397238 0.16022271 0.11584974
-0.07594856 -0.16921179 0.046226323 -0.22473437 -0.15837759 0.19907412 -0.23099242 0.07146189
0.31736076 -0.06585719 -0.041409094 -0.13867883 -0.028129047 -0.1336639 -0.12588575 -0.19240898
-0.221213 -0.19769073 -0.16265711 -0.19464947 -0.2692816 -0.16216968 -0.3050529 -0.23414263
0.08623513 0.19192488 -0.08648886 0.012856227 -0.059618346 -0.0237975 -0.05635233 -0.37042916
0.20037462 -0.068988346 -0.06359963 0.03710661 -0.24380925 0.011595169 -0.15132037 -0.043950878
0.083882086 -0.08050929 0.24676363 0.31651866 0.11035837 0.16580541 0.1307925 0.131863
0.17122746 0.17695649 0.31005338 0.31678233 -0.13703893 -0.123320565 0.014705774 0.08787084
-0.031586833 0.18956761 0.30048084 0.14200641 -0.293343 0.12570402 -0.30201125 0.16829692
0.15978454 -0.029248172 -0.036686275 0.096694626 -0.06312131 -0.036690593 -0.2580977 -0.26792833
-0.30881178 -0.24188592 -0.12606324 -0.22420752 -0.29980406 -0.13702026 -0.097030155 -0.23858556
0.12830469 0.0319613 -0.008834196 -0.12318944 -0.13169701 0.025398878 -0.074464105 -0.3883265
0.14757638 -0.20184211 0.0011591836 -0.17943786 -0.045049164 -0.062046777 0.05918805 0.045205735
-0.06956491 0.027122894 0.18273549 0.19098188 0.32449833 0.16603751 0.16387878 0.31962726
0.14547327 0.23236568 0.30391708 0.29767457 0.08369008 0.09014546 -0.1333412 -0.109144576
-0.14430928 0.22050111 -0.0077154525 -0.03944453 0.25257644 -0.010779568 -0.014245856 0.026871517
-0.058076106 -0.11067063 -0.12102332 -0.039915122 0.056837764 -0.046642657 0.19426586 0.23430753
0.20704266 0.17119613 0.14236157 0.22426066 0.16080768 0.15520287 0.16160126 0.10973609
0.027261883 -0.13036968 0.050713185 -0.04652735 0.03723331 0.18793426 0.2467924 0.07029119
0.22187947 -0.0053329193 0.044195887 -0.015422492 -0.2249943 -0.013147779 -0.06481791 0.025482317
-0.033496916 0.04680103 0.305627 0.30958644 0.21451983 0.30944607 0.24188688 0.21950644
0.12053582 0.32232565 0.1461809 0.23298119 -0.078957915 -0.011299909 -0.087935865 0.01148778
0.06432222 0.34202302 0.25834405 0.16511409 0.10733838 -0.04742419 0.042371932 0.15430932
-0.26602125 -0.050497815 -0.09506635 -0.11760402 -0.038592122 -0.073555455 0.21496972 0.19064833
0.14037286 0.20922011 0.16017777 0.24039766 0.23937257 0.21435249 0.3069117 0.07520515
-0.11405574 -0.22162111 0.055924308 0.03540995 -0.026729645 0.36107147 0.32918578 0.17686999
-0.10435224 0.20175175 -0.16451651 0.033840407 0.27809826 -0.15534127 0.009065198 0.005733704
0.048992496 -0.05704725 -0.26098996 -0.19613904 -0.085475415 -0.24391033 -0.24995282 -0.20875457
-0.14838915 -0.30349234 -0.13239779 -0.10029496 -0.012026227 0.23450923 -0.016075766 0.008320267
-0.18077774 -0.035910007 -0.12965342 -0.40554366 0.24138248 -0.03446144 -0.026338015 0.15232173

lstm.weight_hh_l0 f4 [256, 64]
00000000: dbc2 8ca8 7691 2d26 52e4 a4a7 feb1 6b27
00000010: 9c0b 4330 f414 2cac 4c26 8aae 041a 0fa5
00000020: 4377 9eb4 00af 3428 baaa b2a7 4527 03af
00000030: 3baf dc2a 890c 76a7 3c94 d936 9583 2d25
00000040: d084 2329 7583 28a8 93e4 9836 2df9 35a8
00000050: 72b2 ceb0 377d 19b5 dacf eb28 fb84 6036
00000060: 4d95 0aaa 4056 b836 4c61 f4a8 32f6 5f24
00000070: cd20 57b6 dbc3 9628 b44f d0a8 3b1d 5333
00000080: 752b 80a9 75a8 a2a6 dcd5 1127 a34a b0a7
00000090: c863 dca9 6264 3a27 4da7 1128 1a7c 3926
000000a0: 5d23 bfaf 23d9 8736 e492 89b0 feb9 af27
000000b0: dd59 76ad 28e6 1da9 7f05 f028 f006 41b6
000000c0: 8709 aaa8 b634 a5a5 ac73 0127 f6ce b634
000000d0: ac3f 91b0 bc7e a52d 520b 6427 8172 e32a
000000e0: bf6b 26a7 3b6d c226 5f25 85a7 a33f 162d
000000f0: 1af4 1b29 235f 1fa7 f66f 9529 a670 252d
00000100: e7bc bd25 ff42 9434 15d1 4c2d a83d c8a5
00000110: 447b 6036 af3d 8d34 863b eb29 4660 9827
00000120: b548 d329 30a1 41a6 8f4f f428 71c6 2bad
00000130: c367 9e31 c0ee d036 f084 0d37 90a8 1935
00000140: d50a ccb0 bfc2 acb4 1fba 8a34 7be7 27b6
00000150: 7322 f826 44a9 b7a8 de98 7234 2efe b029
00000160: ffdb 05a6 6e02 f6a6 f14e 3626 c42e 5026
00000170: 3623 b7a9 64ec 012b 26d5 deab 8afc 9228
00000180: 0386 9dad a695 da31 52f7 e42a 165f fda6
00000190: fd0c 91a7 7727 8530 116c 29a5 d262 1327
000001a0: 4755 932d b824 092b c805 7ba6 2f8d 862d
000001b0: 97d9 a7b0 7526 61a6 cdbd 20ad 8f13 d02f
000001c0: e21d 93b5 bfcd ebb5 fa10 26a7 ce8a 1d2f
000001d0: 4840 9632 2110 aca7 2f9e b429 63c2 0524
000001e0: f2fd d027 07cf 9333 f352 8229 f765 f536
000001f0: c73c d036 58d6 1eb2 7ce6 8d26 cec9 8428
00000200: 2bf9 0128 33f3 dd26 7fea 6932 0f63 eda6
00000210: 6035 e3a9 f8db e1a8 b695 0f30 a24f 7929
00000220: 7029 a829 4006 3735 00bc 1428 eb8b e427
00000230: 0418 5b2a 724c 83ad b898 57b5 29ed c527
00000240: 2476 8428 d89e 3a33 82ed b626 7a09 cfb0
00000250: daa1 18a8 bc6d 2aa8 7afa d3b2 146d fa29
00000260: ea40 ce36 d19c e325 9c5c d124 3b58 33b5
00000270: e0da 9026 ce51 9f36 6f88 bb34 03db bc26
00000280: 0863 b634 10d5 6e29 1d22 7929 b239 0f27
00000290: 7e80 58a7 78a4 17a8 5fdb c9b6 e159 a630
000002a0: f37b 99b2 00a9 24a3 8d1c 11a6 d2b2 c02c
000002b0: 47e9 f9aa 1cb5 7132 9304 95a8 063a 8b2e
000002c0: 07ae a3ae 7312 0827 cc17 c3a8 5c93 6134
000002d0: 395f 12a8 614b a328 ab15 0ca7 50cb 1528
000002e0: 4e72 9726 be45 41a7 1c92 99a7 0cac 1da7
000002f0: 6482 09a5 c165 8fab 4480 1a2a 4e66 b125
00000300: 02b9 1ca7 2cdd c0a6 63d8 d636 31d6 e2b6
00000310: ed74 d3aa 8c5a c736 2289 9626 543d c736
00000320: 2293 ae27 1b5a 52b5 79ba b3a6 92ff 1b26
00000330: b448 cb30 4af3 6927 716e 1c28 4f79 b5a8
00000340: fc14 a4a8 683c 4026 d7b9 11a8 a3b0 13a7
00000350: ddbd 87b6 7691 56a9 9c73 3e2d d55d eda6
00000360: 7f3a 64aa e9df 3536 6813 1227 bc23 9ca7
00000370: fe2b 5429 00dc 6bb3 008d 62a5 bf51 4427
00000380: 04b6 96b4 c416 f3aa 13e9 d32d d894 2125
00000390: 0cbe 43b5 56c3 2b2a f09c 1d30 aec6 72a7
000003a0: 58ae c3a6 4855 1336 9dd7 c0a8 a968 a82d
000003b0: 289a f235 cc50 2728 0156 b7b0 194b 91a8
000003c0: 60a9 9f28 0a05 4828 1a8f a9a5 20fe e026
000003d0: bcb3 2ca7 3428 262d 74c3 3e30 8526 f8a7
000003e0: 3b7d cba7 25e1 28aa 6e6f d725 9072 1f28
000003f0: e16a caa9 e2aa 82ae 9890 1229 c5b8 c028
-1.5627627e-14 6.021857e-16 -4.576669e-15 3.2709291e-15 7.0957085e-10 -2.4454301e-12 -6.282316e-11 -1.2412087e-16
-2.9516568e-07 1.0029954e-14 -4.9590027e-15 -1.1928332e-10 3.920144e-13 -3.4146153e-15 6.4843607e-06 1.504994e-16
3.6308467e-14 -9.354379e-15 4.5565625e-06 -1.010155e-14 -1.503919e-09 -5.7179153e-07 2.6180382e-14 3.3456006e-06
-1.2308661e-13 5.493668e-06 -2.7131638e-14 4.8563952e-17 -3.205659e-06 1.6738284e-14 -2.3127205e-14 4.915385e-08
-5.6918805e-14 -1.1286668e-15 2.0238726e-15 -4.8930734e-15 -9.787272e-14 2.5867103e-15 8.0853945e-15 6.435296e-16
-3.4767825e-10 4.0485916e-06 -1.0009811e-09 4.877391e-15 -1.4003435e-11 -3.5060632e-14 2.6647736e-14 -2.876328e-06
-1.8877923e-14 -2.8658656e-16 1.7965052e-15 3.4050726e-07 -1.0568235e-09 1.881461e-11 3.1647493e-15 4.0402753e-13
-2.3095537e-15 1.3491061e-15 -3.6955433e-15 8.540643e-12 3.4628638e-14 -2.2117256e-15 6.6363514e-14 9.404177e-12
3.291428e-16 2.7615894e-07 1.1642483e-11 -3.473625e-16 3.345035e-06 2.6308177e-07 1.0446422e-13 4.2292855e-15
9.382895e-14 -6.7178776e-16 2.7123945e-14 -9.7642875e-12 4.6102016e-09 6.226677e-06 8.435207e-06 5.724223e-07
-1.4846032e-09 -3.2179193e-07 2.5839924e-07 -2.5019679e-06 1.7217794e-15 -2.0390489e-14 2.2593619e-07 7.860063e-14
-4.6441795e-16 -1.7070338e-15 6.325092e-16 7.2227876e-16 -8.132941e-14 4.6158064e-13 -1.5833209e-12 1.6318778e-14
-1.7908347e-11 6.361648e-09 4.067255e-13 -1.7581175e-15 -4.0259667e-15 9.68824e-10 -1.4695028e-16 2.0453919e-15
1.6749836e-11 4.8723135e-13 -8.7090954e-16 1.5296734e-11 -1.2212692e-09 -7.8114675e-16 -9.137091e-12 3.7848877e-10
-1.096105e-06 -1.7568744e-06 -2.304633e-15 1.432838e-10 1.749153e-08 -4.7757077e-15 8.021046e-14 2.900443e-17
5.8006925e-15 6.882879e-08 5.787549e-14 7.3134393e-06 6.2059585e-06 -9.2455466e-09 9.846313e-16 1.4742463e-14
7.214968e-15 1.5400875e-15 1.3615703e-08 -1.6472028e-15 -1.0090084e-13 -2.5075414e-14 5.223585e-10 5.5358177e-14
7.467887e-14 6.818191e-07 8.256416e-15 6.343441e-15 1.945944e-13 -1.4926924e-11 -8.0315976e-07 5.4935614e-15
1.470618e-14 4.3450967e-08 1.2693164e-15 -1.5063926e-09 -8.472791e-15 -9.4606906e-15 -2.4677536e-08 1.1121152e-13
6.1468354e-06 3.9484486e-16 9.079619e-17 -6.681109e-07 1.0051333e-15 4.7480926e-06 3.4930733e-07 1.3104484e-15
3.3972196e-07 5.3031418e-14 5.5318695e-14 1.9876513e-15 -3.0045677e-15 -8.417847e-15 -6.015805e-06 1.2103635e-09
-1.786791e-08 -8.926245e-18 -5.0345674e-16 5.4768213e-12 -4.4393154e-13 1.4069226e-08 -1.6544307e-14 6.331295e-11
-7.443295e-11 1.8883793e-15 -2.165967e-14 2.1008367e-07 -8.125276e-15 1.8129326e-14 -1.944065e-15 8.315248e-15
1.0508712e-15 -2.6821938e-15 -4.2624443e-15 -2.1881394e-15 -1.1927034e-16 -1.0189004e-12 1.3722449e-13 3.077393e-16
-2.1749642e-15 -1.3382625e-15 6.4028877e-06 -6.76026e-06 -3.7562263e-13 5.941203e-06 1.0445511e-15 5.9378017e-06
4.8454223e-15 -7.8362217e-07 -1.2471164e-15 5.412279e-16 1.4790857e-09 3.2467133e-15 8.683688e-15 -2.0147646e-14
-1.8216758e-14 6.6695247e-16 -8.0894145e-15 -2.0496103e-15 -4.0454165e-06 -4.7643713e-14 1.082592e-11 -1.6470612e-15
-2.0270763e-13 2.7101435e-06 2.027209e-15 -4.333744e-15 4.7111613e-14 -5.491529e-08 -1.9650148e-16 2.7244779e-15
-2.807211e-07 -4.3181268e-13 2.4091429e-11 1.4014954e-16 -7.2919715e-07 1.5255622e-13 5.733929e-10 -3.369195e-15
-1.3578099e-15 2.1954347e-06 -2.140979e-14 1.9145867e-11 1.807527e-06 9.287882e-15 -1.3339446e-09 -1.6130802e-14
1.7726e-14 1.1103323e-14 -2.9413796e-16 1.5612003e-15 -2.396723e-15 9.444934e-12 6.9399353e-10 -6.887559e-15
-5.6479594e-15 -1.499951e-13 3.7372062e-16 8.851115e-15 -8.9891426e-14 -5.9420704e-11 3.2543927e-14 2.1396413e-14

lstm.bias_ih_l0 f4 [256]
00000000: b393 873e 8fa7 ad3e d4e2 473e 9383 a83e
00000010: 7c8a ce3e d953 c83e 2dcc 4f3e aa14 523e
00000020: af9a bf3e 2bc8 d23e 4398 c73e 615c 653e
00000030: 2af1 963e 3db6 9c3e 9768 b43e bd9e ce3e
00000040: e10e 873e f0d6 c73e f111 983e e401 a93e
00000050: 7f05 673e db07 953e aa0e d83e 2e86 7b3e
00000060: 2ec2 623e 5abf a93e b913 733e 2f6f 953e
00000070: 58ef af3e 03df d63e 0ad8 9f3e 8bea 883e
00000080: cd35 c63e e89e b33e b31e d93e 43aa 813e
00000090: e6f6 533e 69e8 bf3e de1c 963e d8cf 6e3e
000000a0: 7638 cf3e 52ac c83e 09b8 9f3e 98b8 813e
000000b0: 7c24 b23e fb1d 7b3e 1df6 683e f991 953e
000000c0: e131 b13e 25a7 513e 77a4 8e3e 4dd4 c63e
000000d0: 0829 da3e 0711 e53e 9963 be3e f6e1 b43e
000000e0: 4d52 d73e 276b 9d3e 5a19 553e 2b60 cb3e
000000f0: 5f40 913e 7c88 8e3e 0126 4e3e 1120 c23e
00000100: efe5 c6a7 8984 f8a8 f9c3 1428 ee21 0f29
00000110: b7ad 1236 bf7b 09a9 f093 10b6 c439 27a7
00000120: 0173 9aa7 0c49 2e30 a5db eb29 2648 a334
00000130: 5d7d e328 8a1b 00b5 7db6 452e 0801 fbaa
00000140: 2558 3a2a dd23 0e37 a7d9 e9b5 6d9a da34
00000150: c5db 2ca9 c253 d9a7 a030 8ea8 3054 9926
00000160: 0c84 11b0 9180 c235 29a5 ac28 4ac5 afb5
00000170: 903b 15a4 eb16 17a8 a38c 8734 1d50 1236
00000180: 9bb7 9e36 0a06 8826 caa8 85a6 c8f2 77b4
00000190: e130 1ab3 8783 7ba7 a6c0 8a32 b79c 9830
000001a0: 278b 72b3 6d43 8c36 63ce c2b6 e614 0a37
000001b0: 35b6 b627 5dd1 c928 1c38 8b35 70ba 08a8
000001c0: 2d58 d330 427c 90a8 f331 23ad a1a4 8229
000001d0: e1b3 4a35 ed6e 8eaa 0d04 eda7 4bfd 1ca9
000001e0: 2c60 24a8 b092 a2a7 58cc 2e27 58a0 63a7
000001f0: 3c55 032a d9d9 5b29 43da cb34 2978 8b25
00000200: 6c0d d73e 3399 9b3e 9391 c53e f498 8fbe
00000210: f9be 9bbe d883 d33e bcd8 adbe 7fc7 973e
00000220: ac6d cabe bb7e c0be 8ae9 8cbe ac6f a93e
00000230: 2462 a9be 41b6 6a3e 4033 a73e 5b55 ca3e
00000240: 2b28 cb3e 6167 86be 0d0f d13e 46b7 bcbe
00000250: 2fd3 b23e 7414 7ebe 48bc bfbe 68b6 c63e
00000260: e671 79be 8f9b cf3e f371 c73e f8c4 90be
00000270: 2199 62be 9594 82be 81f5 cabe 2932 b13e
00000280: a50d 9f3e 00da 923e 4bd1 cc3e 0f26 5c3e
00000290: bebf c2be b959 aa3e 523f 853e 12dd a8be
000002a0: eedc ab3e 211c ce3e 12a3 c93e 3533 7abe
000002b0: 298c afbe 8525 963e 9a4a 98be 28dc 8e3e
000002c0: 25e8 d1be 8833 c53e c003 c8be cbdd c7be
000002d0: 9ced c13e b2b7 d03e 1394 8cbe aec7 6b3e
000002e0: 266d c23e e5c0 b1be 2ffc c2be d95b a73e
000002f0: e838 ce3e 45c7 9b3e 0d17 abbe f00b a7be
00000300: d6a4 953e 2e7e a93e 4957 513e b35f e13e
00000310: 1690 cc3e 88e9 d13e fac6 ce3e 3513 8d3e
00000320: 658a a53e ce08 763e f70e 553e d831 813e
00000330: 6904 8e3e 0b96 1b3e b893 d53e 8515 7f3e
00000340: fe20 b83e ce40 823e 914c b83e 70a4 b33e
00000350: c280 4f3e 10c1 ca3e 185d c53e 8f12 b53e
00000360: 756f 9d3e b5e3 eb3e 3e30 b23e b6b8 d63e
00000370: a8ee c83e 39b5 583e baad 893e cc45 bf3e
00000380: 2106 8d3e a01b 813e 1f29 af3e e57f af3e
00000390: c1a4 553e eac2 ed3e 6e7d 8b3e 7d9d a33e
000003a0: e50e 733e 1d6c b93e e8e3 e83e 2cb5 983e
000003b0: 0cf5 ad3e c9ff 663e 5716 593e 89bf c93e
000003c0: 09fa 5c3e 6eec ae3e 8265 aa3e d312 d53e
000003d0: f724 c33e d235 813e 34a8 853e 20b8 aa3e
000003e0: f223 c73e 6ac7 7c3e 14af 603e 22d5 b23e
000003f0: 7ab3 a43e 4913 bf3e 990f ae3e 1d9f a93e
0.26479873 0.339169 0.19520122 0.32912883 0.4034003 0.3912647 0.2029273 0.20515695
0.37422702 0.4116834 0.38983354 0.22398521 0.2948087 0.30607787 0.35236046 0.40355483
0.2637854 0.39031172 0.29701188 0.33009255 0.2256069 0.29107556 0.42198688 0.24562904
0.22144386 0.33153802 0.23737992 0.2918639 0.34362292 0.4196702 0.31219512 0.26741442
0.38712922 0.35082173 0.42406234 0.25325212 0.20699653 0.37482002 0.293189 0.23321474
0.40472764 0.3919397 0.31195095 0.25336146 0.3479346 0.24523155 0.22750135 0.2921293
0.34608367 0.20473917 0.27859852 0.38833848 0.4260943 0.44739553 0.37185362 0.35328645
0.42054978 0.30745813 0.20810452 0.39721808 0.28369424 0.27838504 0.20131685 0.3791509
-5.5205334e-15 -2.7591009e-14 8.258145e-15 3.1781808e-14 2.185681e-06 -3.0527444e-14 -2.1543783e-06 -2.320722e-15
-4.2868274e-15 6.3404637e-10 1.0474199e-13 3.041361e-07 2.525643e-14 -4.772379e-07 4.4954696e-11 -4.4587272e-13
1.65507e-13 8.47221e-06 -1.7423198e-06 4.0718024e-07 -3.8382292e-14 -6.032041e-15 -1.5786255e-14 1.0639327e-15
-5.293834e-10 1.4491544e-06 1.9167463e-14 -1.3095935e-06 -3.2359676e-17 -8.387153e-15 2.5248036e-07 2.1802327e-06
4.7301414e-06 9.438533e-16 -9.274479e-16 -2.3091991e-07 -3.5900374e-08 -3.4904549e-15 1.615292e-08 1.1103997e-09
-5.6471574e-08 4.1801745e-06 -5.805677e-06 8.230307e-06 5.0712697e-15 2.240628e-14 1.0372637e-06 -7.589944e-15
1.5377332e-09 -1.60411e-14 -9.276568e-12 5.801718e-14 7.551262e-07 -2.5301237e-13 -6.5785106e-15 -3.4858655e-14
-9.124683e-15 -4.512307e-15 2.4258126e-15 -3.15895e-15 1.1664709e-13 4.881672e-14 3.7970503e-07 2.419408e-16
0.42002428 0.3039032 0.38587627 -0.2804638 -0.30419138 0.41311526 -0.33954418 0.2964439
-0.39536798 -0.37596688 -0.27521926 0.3309301 -0.33082688 0.22921087 0.32656288 0.39518246
0.39679083 -0.26250747 0.40831795 -0.36858577 0.34926745 -0.2481249 -0.37448335 0.3881104
-0.24359855 0.4054837 0.38954124 -0.28275275 -0.22128727 -0.25503984 -0.3964043 0.34608582
0.31065097 0.28681946 0.40003428 0.21498893 -0.38036913 0.33271578 0.26024872 -0.32981163
0.33566993 0.40255836 0.39382225 -0.24433596 -0.3428662 0.293255 -0.29744416 0.2790234
-0.40997425 0.38515878 -0.3906536 -0.39036402 0.37876594 0.40765148 -0.27456722 0.2302539
0.379739 -0.3471748 -0.38083026 0.32687262 0.4027779 0.30425468 -0.33416024 -0.32626295
0.29227322 0.3310408 0.20443453 0.44018325 0.3995368 0.40998483 0.40386182 0.27553716
0.3233215 0.24026796 0.2080649 0.2523334 0.2773774 0.15193956 0.41714263 0.24910553
0.3596267 0.25440067 0.35995916 0.35086393 0.20263961 0.3960042 0.38547587 0.35365722
0.30749097 0.46072164 0.3480243 0.41937798 0.3924458 0.21162881 0.26890355 0.37357938
0.27543738 0.2521639 0.3421106 0.34277263 0.2086363 0.4643777 0.27244133 0.31956092
0.2373615 0.36215296 0.4548638 0.29825723 0.33976018 0.22558512 0.21199928 0.39403942
0.21579756 0.34164757 0.3328057 0.41615924 0.3811414 0.25236374 0.2610489 0.333436
0.38894612 0.24685445 0.21941787 0.34928232 0.3216818 0.373194 0.33996275 0.33129206

lstm.bias_hh_l0 f4 [256]
00000000: fd6d 893e 5a09 9c3e 3319 673e 3a67 893e
00000010: b454 df3e 93d6 883e 1f37 9b3e cde5 cb3e
00000020: 715c be3e c7c9 a63e 1873 b23e 0b1c 363e
00000030: ba6d 523e dcfa af3e 0018 cf3e 7adc 433e
00000040: 5363 cf3e 313d 6e3e 329b a13e c5ae 943e
00000050: 0f8d c63e 6d23 903e 20fe 7a3e 2f81 ac3e
00000060: 3695 6a3e e8b6 ab3e 9775 8b3e f11c b63e
00000070: 8d37 aa3e 220f 993e aaba a13e 5f5d 973e
00000080: 7b19 b73e 8a45 7c3e ba07 db3e ab82 df3e
00000090: 93a9 bc3e 355d bd3e 56c8 4d3e e22b d43e
000000a0: 40a4 c13e 238f a73e 0569 ad3e 09b4 bb3e
000000b0: e8a8 6c3e 53c4 ab3e a2a6 c83e 6269 cd3e
000000c0: d6d1 903e 1ac6 b83e 0e60 953e 8d2d 973e
000000d0: 0690 9b3e 2838 913e d0db e13e c278 953e
000000e0: 7f36 dc3e 4bcb a53e 0ebf 953e 71b6 ee3e
000000f0: 1701 8c3e cda9 c93e 9435 a33e 4393 cd3e
00000100: afaf 632e 66e4 c129 0319 f936 bcb9 9ca7
00000110: 4de5 1628 d30b 8030 e1c6 fa27 6738 dea6
00000120: f2bd 4036 afb3 10a8 f3d5 07ad 4451 2028
00000130: da57 1829 2c59 f128 f35a 2229 d34d bbb5
00000140: 9191 7a2b e395 ee27 e949 0127 29a3 afa7
00000150: 263b 2d27 cfb9 ab2a 2d78 b829 4d76 4536
00000160: 262e 7d28 8fb6 a6a8 3982 8b27 6843 9833
00000170: 31d0 1d29 bbcb c430 b53b e329 17ab 4b27
00000180: 0176 4734 070e afaa abab a0ad b6f6 8426
00000190: 7b72 8ba7 30ad 87a8 e801 992d 8b13 01a5
000001a0: 6118 062c 804c a927 a9a6 9b25 9844 7b35
000001b0: 4874 c123 4e20 eaa9 7b2b 6428 da67 8831
000001c0: 95ec 432e fe23 08a7 cfdb 24b0 0649 21a6
000001d0: 47e8 e6a6 b857 37a3 b802 7729 3a33 ef36
000001e0: 951c bfa7 0bd1 c030 d548 85b2 f58a bba8
000001f0: 331a 4336 9759 0baf 9899 7c2d 72ba ae36
00000200: 447d 893e 5e8f a13e 9bc3 c73e 161d ddbe
00000210: bdb0 cebe be35 d33e 94ab 69be 2782 a63e
00000220: e959 a2be 69ec b5be 2db6 d6be 8ec8 aa3e
00000230: 6dc5 82be 6403 813e d086 a93e 4c98 9f3e
00000240: bbbd 963e ad1d d5be 638d 9e3e 14cf 94be
00000250: ad03 ae3e cb65 e5be e0ee aebe 3c1b 4a3e
00000260: 1a55 a1be d2ed 853e 1292 c53e 7d57 cebe
00000270: 16e1 c6be 3044 cebe c576 8cbe 05b6 cb3e
00000280: b7dc 713e 84e9 d23e 48d4 813e 53fe b63e
00000290: 484f ccbe e3ff e03e db3e c93e 2a10 aebe
000002a0: 1229 bb3e eed1 ae3e 34a9 963e aeeb bfbe
000002b0: e7d8 bbbe 25db c13e 5d72 b2be 290f c03e
000002c0: 8efc 97be a7a4 cf3e 8003 7ebe 0b95 9dbe
000002d0: 52e6 b03e ab3f a93e fae3 d0be 9dae a03e
000002e0: d2b8 823e bae3 bfbe 55a6 94be 71c5 c93e
000002f0: 5b51 493e 75d8 c03e cd7b 9ebe 1bfc a8be
00000300: 98fb dc3e 46ea 863e 7e9d 6a3e be22 903e
00000310: 1bfb 903e fa5b e23e d82d 4a3e 94df b13e
00000320: 2301 bd3e b02f 403e 66fb a53e 9615 ab3e
00000330: 0669 af3e ca61 6a3e f316 993e 20ed 9f3e
00000340: 9eeb a13e 0f5d e43e e6b0 dd3e ada9 8a3e
00000350: d19f d73e 89b2 713e dd26 693e a1a9 2f3e
00000360: 47fa 3d3e 38d7 b43e da62 b73e 8723 983e
00000370: 2464 aa3e 6503 773e e2f5 b73e e04a 8f3e
00000380: 399f ac3e 70c6 c23e 01da 9d3e 62b3 883e
00000390: 3c4c c73e 0de3 a73e d6ba 843e 60d9 cb3e
000003a0: e65f 933e 5a02 643e 5f50 773e e394 6a3e
000003b0: f239 c43e e53e ab3e a2f3 b83e f9f4 873e
000003c0: 15a9 af3e ac64 cd3e a984 633e f9d1 d73e
000003d0: 09d5 d53e 6bd5 c83e efb6 ad3e dd79 c33e
000003e0: 0245 723e 7448 ad3e bb80 913e 8c0e 9e3e
000003f0: 7ffb 523e f357 d23e aa72 b93e c9f2 ed3e
0.26841727 0.30475885 0.22568206 0.26836568 0.4361931 0.26726207 0.30315492 0.39823762
0.37179902 0.3257582 0.34853435 0.17784135 0.2054967 0.34371078 0.40447998 0.19127074
0.40505466 0.2326553 0.31563717 0.2903959 0.38779494 0.28152028 0.24511003 0.3369231
0.22908482 0.33537984 0.2723815 0.35568956 0.33245507 0.29894358 0.31587726 0.29563424
0.35761628 0.24635902 0.42779332 0.4365438 0.36848125 0.36985174 0.20095953 0.4143973
0.37820625 0.32726392 0.33869186 0.36660793 0.23111308 0.3354822 0.3918963 0.40119463
0.28285092 0.3608864 0.29174846 0.2952694 0.3038332 0.28363156 0.44113016 0.29193693
0.43010327 0.32381663 0.29247326 0.46623567 0.2734458 0.3938736 0.31876814 0.40151414
5.1769863e-11 8.6105426e-14 7.42369e-06 -4.350007e-15 8.376394e-15 9.316586e-10 6.9604564e-15 -1.5419632e-15
2.8720792e-06 -8.0325684e-15 -7.721368e-12 8.899406e-15 3.382698e-14 2.6795047e-14 3.6050112e-14 -1.3955236e-06
8.9019856e-13 6.6220777e-15 1.7942413e-15 -4.8749156e-15 2.4040637e-15 3.0504633e-13 8.1920886e-14 2.9424148e-06
1.4054328e-14 -1.8508874e-14 3.8721438e-15 7.090313e-08 3.504158e-14 1.4318781e-09 1.00911826e-13 2.8264657e-15
1.8576249e-07 -3.1095978e-13 -1.826613e-11 9.226211e-16 -3.870437e-15 -1.5063119e-14 1.7394933e-11 -1.1195588e-16
1.9056078e-12 4.6989864e-15 2.7001147e-16 9.3604604e-07 2.0974349e-17 -1.03972915e-13 1.2665971e-14 3.9699275e-09
4.4547994e-11 -1.8893303e-15 -5.997522e-10 -5.595706e-16 -1.6022415e-15 -9.939025e-18 5.4847376e-14 7.1287186e-06
-5.304414e-15 1.4029252e-09 -1.5516358e-08 -2.0821434e-14 2.9072514e-06 -1.2673805e-10 1.4358646e-11 5.207309e-06
0.26853383 0.31554693 0.39016423 -0.43186253 -0.40369216 0.4125194 -0.22819358 0.32521173
-0.3170922 -0.3553193 -0.41935864 0.33356136 -0.2554125 0.251979 0.33110666 0.3117088
0.29441628 -0.41624203 0.30967245 -0.29064238 0.3398718 -0.44804224 -0.34166622 0.19736952
-0.3151024 0.26158005 0.38588005 -0.40301123 -0.38843602 -0.40286398 -0.27434364 0.39787307
0.23619352 0.41193783 0.2535727 0.3574091 -0.39904237 0.43945226 0.39305767 -0.33996707
0.36554772 0.3414454 0.29425967 -0.37484497 -0.3668892 0.37862507 -0.34852877 0.37511566
-0.2968487 0.40555307 -0.24806023 -0.30777773 0.3455072 0.33056387 -0.40798932 0.3138322
0.25531632 -0.3747843 -0.2903315 0.39408448 0.19659941 0.37665144 -0.30953828 -0.3300484
0.431607 0.2635061 0.22911641 0.28151506 0.28316578 0.44210798 0.1974405 0.3474089
0.3691493 0.18768191 0.32418364 0.33414906 0.34259814 0.22888866 0.2990032 0.312356
0.31625074 0.44602248 0.43299025 0.27082577 0.42114118 0.23603262 0.22768731 0.17154552
0.18552504 0.3532045 0.35817605 0.29714605 0.33279526 0.24122389 0.3592978 0.27986813
0.33715227 0.3804202 0.30830386 0.26699358 0.3892535 0.32790413 0.25923795 0.3981428
0.28784102 0.22266522 0.24151753 0.22908358 0.3832546 0.33446422 0.36123377 0.26554087
0.34308687 0.4011587 0.22218575 0.42152384 0.41764095 0.39225325 0.3392863 0.38178912
0.23659137 0.3384434 0.28418526 0.30870473 0.2060375 0.41082725 0.36220294 0.46474293

lstm.weight_ih_l1 f4 [256, 64]
00000000: 85fd 9b3e fd91 c23e 74b2 a03e 2b4f c1be
00000010: 6507 93be a94b 703e e764 53be 03db 663e
00000020: f216 40be b7d0 b1be 1773 8abe add9 7c3e
00000030: bcd7 0dbe 7834 763e 84ee 7a3e 596c 063e
00000040: 7eba 6e3e bee4 21be 79c2 243e 350f a9be
00000050: 4de1 af3e bcf7 bfbe d659 bdbe 1907 3b3e
00000060: dd63 b3be 2119 6e3e 860d 4a3e cd5d c2be
00000070: a6de 98be e923 6fbe b3fa 7bbe 0cdf c83e
00000080: dff4 983e 2a89 513e b115 033e da84 a13e
00000090: 65d3 09be 08d2 8c3e 3dda 823e 7c32 a0be
000000a0: 213c b23e 5c74 433e 60c5 ca3e 269a 25be
000000b0: eae7 c5be 621b 8f3e 00b1 3ebe 728a 793e
000000c0: eb93 c9be 72f6 783e b176 86be 4859 afbe
000000d0: d5ec 533e 39b4 763e c2f1 b3be 7899 a93e
000000e0: e3a9 983e 3278 97be c63d 1abe 0759 b23e
000000f0: c9e0 443e 65ba 9e3e 10a3 7fbe 162a d6be
00000100: e980 803e 6ef2 923e 397c f03d 480c a2be
00000110: 1d61 bbbe 1e37 503e 27b8 83be ec93 a93e
00000120: 7dde bfbe e980 b7be f6f7 85be df34 be3e
00000130: 518b 92be d9ab 913e ad25 b73e b4a5 e53d
00000140: 6ebf b33e 58c3 9abe f5dc 7f3e 3fee 7cbe
00000150: 561f ae3e 2d44 24be 7184 90be 8c48 f73d
00000160: f9c8 a6be 4e84 c53e 6b74 ac3e fb19 2bbe
00000170: 36eb 84be 61fb 80be 135f d5be 09c7 773e
00000180: c26a a73e 615c 6b3e 910e 533e 9ac2 983e
00000190: 657f 3dbe 09f8 f93d 039c 1d3e a381 84be
000001a0: d9e6 863e 312c 8f3e fe73 bd3e ae0e bebe
000001b0: 463a 10be 69ac bc3e 1ef6 1abe f0e7 573e
000001c0: 93e9 dabe 7586 4b3e d315 a9be a07e 62be
000001d0: ee36 093e 7981 823e f6ae 96be bb95 a63e
000001e0: b2b4 a83e fd53 4dbe ca2e 9bbe dfd9 3a3e
000001f0: f790 b73e 1632 c53e 9f67 3bbe 3656 b4be
00000200: ad9f 773e 8276 593e bb3c 803e c028 46be
00000210: 2e4f 95be a6f1 133e 75f2 a8be e30d 1b3e
00000220: 007e c7be 17bc 9abe c48f 8cbe d86c ba3e
00000230: 0c81 4bbe 1fa6 673e a30b 1e3e c1d0 af3e
00000240: 7c47 bb3e f06c 97be 07c4 773e 29d1 8fbe
00000250: 5ef0 d63e b6a0 bdbe d54e a3be bf97 3a3e
00000260: cb34 98be 50db 813e 284a 5e3e 8f7a 79be
00000270: dda9 a3be 2285 67be 4bc2 69be 3894 953e
00000280: 289c b43e 1bfc a63e 9a8c 1f3e cdf0 bf3e
00000290: ba86 bcbe 6416 ab3e a07d 4e3e 4e45 a2be
000002a0: 23e4 a73e 9615 b23e 7c0a 3e3e 9894 83be
000002b0: fe2a 5fbe 122b 893e fcb5 67be d28e 0c3e
000002c0: 587b b9be f760 953e d337 4abe 6c39 78be
000002d0: 616d 3b3e 92dc 6d3e 2bad 17be 26af 913e
000002e0: 8e01 7b3e 513f c2be 9b3b 84be 0554 b93e
000002f0: 6edf 383e 0c78 ab3e 1eb5 53be c68b 43be
00000300: 3e57 543e c5b4 ab3e 7139 6c3e 4be9 87be
00000310: 04e0 4abe 1aa6 743e bbef ffbd ef33 993e
00000320: e0af 9abe 7117 3fbe ab41 69be 47ee b23e
00000330: 684f 96be 1a88 953e e4d8 b23e f19d 833e
00000340: 56cd 343e a45f 9cbe 2d47 ac3e 5b1f 62be
00000350: c248 a73e ee11 24be 66e6 7cbe 010f b63e
00000360: f2b8 85be d62e 133e b4ac 853e b14e 95be
00000370: 1bbc a6be 563d 87be 6740 9abe af51 1f3e
00000380: 2267 c83e ba29 ac3e 4587 133e 54a5 723e
00000390: b19d 93be 9280 253e 6960 7b3e d3f2 99be
000003a0: 9dd0 ab3e 6801 ab3e 7928 af3e ca15 abbe
000003b0: 49d4 9abe 5308 ab3e f9b2 3ebe 636d 833e
000003c0: 0678 9cbe 640b 783e 23e8 40be 6337 bcbe
000003d0: 6a49 903e 8b09 383e d995 a6be 0382 b33e
000003e0: ac7c 673e c4e2 a0be bc8b f9bd 1836 663e
000003f0: f22b 943e 0482 923e 5414 94be 8412 cbbe
0.30466858 0.38002005 0.3138615 -0.37755713 -0.2871658 0.23466362 -0.2064396 0.22544484
-0.18758753 -0.3472955 -0.27040932 0.24692412 -0.13851827 0.24043453 0.24505049 0.13127269
0.23313329 -0.15809914 0.1608981 -0.33019415 0.34351578 -0.37493694 -0.36982602 0.18264426
-0.35037127 0.23251773 0.19731721 -0.3796219 -0.29857367 -0.23353542 -0.24607353 0.3923267
0.29874322 0.2046248 0.12801243 0.3154667 -0.13459547 0.2750399 0.25557128 -0.31288517
0.348115 0.19087356 0.3960371 -0.16172084 -0.386535 0.2795058 -0.18622208 0.24369219
-0.39370665 0.24312761 -0.2626243 -0.34247804 0.20695813 0.24092187 -0.35145384 0.331249
0.29817113 -0.2958389 -0.15062627 0.34833547 0.19226374 0.31001583 -0.24964547 -0.41828984
0.2509835 0.28700584 0.117424436 -0.31649995 -0.3659753 0.20333526 -0.25726435 0.33120668
-0.37474433 -0.35840538 -0.26165742 0.37149712 -0.28621915 0.28451422 0.35770932 0.11213246
0.35106987 -0.3022716 0.24986632 -0.24700259 0.34008282 -0.16041632 -0.28226045 0.12074384
-0.32575205 0.38577503 0.3368257 -0.1670913 -0.25960702 -0.25191787 -0.41674098 0.2419702
0.32698637 0.22984459 0.20611025 0.2983597 -0.18505628 0.12205512 0.15391545 -0.25880155
0.26347998 0.27963403 0.37002558 -0.37120575 -0.1408473 0.3685029 -0.15132949 0.21084571
-0.42756328 0.1987551 -0.33024463 -0.22118616 0.1339986 0.25489405 -0.2943036 0.3253611
0.3295036 -0.2005157 -0.30309135 0.18247174 0.35852787 0.38514775 -0.18301247 -0.35222024
0.24182005 0.21236613 0.25046334 -0.19351482 -0.29161972 0.1444765 -0.3299748 0.15142016
-0.38963318 -0.30221626 -0.27453434 0.36411166 -0.19873446 0.22621964 0.15434127 0.34338954
0.36577976 -0.295753 0.24195872 -0.28089264 0.4198026 -0.37036675 -0.31896082 0.18221949
-0.29727778 0.25362635 0.21707976 -0.24363159 -0.31965533 -0.2260938 -0.22828023 0.29214644
0.35275388 0.32614216 0.15580979 0.37488404 -0.36821538 0.3341552 0.2016511 -0.316935
0.32791242 0.34782094 0.18558687 -0.25699306 -0.21793744 0.26790673 -0.22628015 0.13726357
-0.36226916 0.2917554 -0.19747858 -0.24240655 0.18303443 0.23228672 -0.14812152 0.2845394
0.24512312 -0.37938932 -0.25826725 0.36196914 0.18053982 0.33490026 -0.2067456 -0.19096288
0.20736405 0.33536354 0.23068787 -0.26545176 -0.19812018 0.23891488 -0.12496897 0.29922435
-0.30212307 -0.18661286 -0.22778957 0.34947416 -0.29357457 0.292054 0.349311 0.25706437
0.17656454 -0.30541718 0.33648053 -0.22082274 0.32672697 -0.16022465 -0.24697265 0.35558322
-0.26117665 0.14373335 0.26108325 -0.291616 -0.32565388 -0.26413983 -0.3012726 0.15558504
0.39141184 0.33625585 0.1440707 0.2369588 -0.28831246 0.16162327 0.24548496 -0.30068073
0.33557597 0.3339951 0.34210566 -0.3341506 -0.30240086 0.33404788 -0.1862296 0.25669393
-0.3056032 0.24223095 -0.18838553 -0.36761007 0.2818101 0.1797239 -0.325362 0.3506013
0.22606152 -0.31423008 -0.12184855 0.22481573 0.28939778 0.2861482 -0.2892176 -0.39662564

lstm.weight_hh_l1 f4 [256, 64]
00000000: f67c ef26 6d35 9626 94c1 3135 7bb5 36b4
00000010: 4845 5f28 787a fcb1 d9a2 f226 41fa cc30
00000020: e797 8126 b697 e32f c3f8 052a 3ae0 1a27
00000030: 0440 1434 c2f6 9a26 b25a a7ad d998 f5b5
00000040: 9acf ea29 30f7 312a a122 ccab 76e8 6927
00000050: 7397 8fad 0460 52b1 bffa f235 601c 55a5
00000060: 7e68 15a8 2296 1fa8 d643 2a27 cea9 3627
00000070: ee54 ec2a 1f48 0aab 96c8 10a7 f800 2aa7
00000080: 1b5b 6928 5a8e 64ad 445f 2ca8 a075 c228
00000090: 7a4e aa24 240f e929 9466 d926 88a3 38a9
000000a0: 4087 8d26 1cc1 0c29 b6a0 02a8 b75f a828
000000b0: 2ee7 15b2 f94b 88b2 9a47 16a9 b8a0 64a7
000000c0: 189f 7f30 738f 6e31 2c29 7da8 8183 6f2f
000000d0: d0d5 1b29 a247 dca6 ec05 85b6 58d9 44ad
000000e0: a6ca dea7 762a bcb5 b067 b7b0 d95e ffb4
000000f0: b205 7db5 54fe 7f2d a848 2ea5 116c eba7
00000100: a674 ffb6 fcff 40a6 16df 4cb6 f97f 1836
00000110: 3407 0e29 db8d 1aa6 6d06 4d28 4910 0230
00000120: 3b8a 3632 ed6f f526 bc4e bcb4 ebb3 16a8
00000130: 5628 062b 775c 0833 6010 0ba3 2747 2ba4
00000140: b914 b6ae d30a b835 b021 60a4 0f2e 33a5
00000150: b2e1 2427 986e d0af 24ad 53b3 1f68 0f32
00000160: cce3 e525 1a78 ef22 d032 76a9 2731 d630
00000170: 9d0f 6aa5 dc5f 2f26 aa9e af27 1ca2 e7b3
00000180: 3d17 0629 3229 71a7 6a12 40a7 98c9 e230
00000190: e5e6 7ca7 4fb4 b929 e323 fca8 2555 b4af
000001a0: aa3f afb6 6b83 1836 6cc2 ab28 dfb7 2429
000001b0: baa1 8db4 f02b fba8 a7d5 6fb1 14e8 2fa8
000001c0: e25a 04a8 4bad 5ba7 f6f8 9da7 eae7 02ab
000001d0: f572 f4a8 018b bf27 acb6 c0a8 33ad 49b4
000001e0: de69 4034 b2a9 8528 be5d cbac dc35 b927
000001f0: 4470 2ca9 2d92 09b4 7169 4d33 c445 09b3
00000200: ba61 b534 05a1 f6b4 d3e1 82b5 6d3b 8ea7
00000210: aa6e 89aa dfaf a7a7 0610 48a8 59b8 19af
00000220: f25c 6935 d326 1328 7680 a7a6 0acd b4a7
00000230: 56e5 1429 f60a 94ad c166 8d28 304a 0eb6
00000240: c74a 1db3 67dc 23a9 7319 4527 3240 9528
00000250: 97ad cfa5 8085 0e34 5672 48a8 ba53 a82d
00000260: 54ad f4a5 c843 1728 5288 37aa 2ac3 c1a7
00000270: c5eb 7529 80a9 d7a7 f6a4 c0a8 f7cb ba27
00000280: 00f0 092b 2a16 22a9 bb0f 25a7 d491 062b
00000290: a71b 632a 5cf3 d925 afc5 46b4 9499 6527
000002a0: 1f27 d330 3483 a5ad a7bd b525 75a9 b4a6
000002b0: 9a47 10a8 1246 c6a9 ba5c d9b2 aa76 0430
000002c0: 3dfa a52e d406 bca5 4181 8e26 6204 6030
000002d0: 8a10 bfb4 54ec 55a9 152f 6a35 668a b327
000002e0: e900 ea31 ab50 1228 25bf 0928 c955 dc28
000002f0: d6b6 6734 fae9 09b7 6f7a d8b5 60b0 5836
00000300: 8e9d 63a5 f73d 2332 02f4 832d f65b e0a7
00000310: c06c bca8 0181 6ab1 b726 3c35 2944 0328
00000320: 191e d826 c01d fba8 7988 aab1 98a9 3825
00000330: 52c0 52ad 7492 9c34 fc2f 13ad 379d f2a7
00000340: c574 04a8 06a4 cea6 c01e ceb1 924b c635
00000350: 9584 55a7 1359 fd2c 2313 8fb3 d745 a2b6
00000360: 4279 91b5 13cc d9aa b0ca 25a7 2b0e d030
00000370: 5735 88a8 deab 60a7 204a dba4 9895 ecb2
00000380: 8ab8 17aa 7fe2 98a6 0155 b929 3e18 3224
00000390: 2910 3629 cfde be32 3af0 1230 038a cf2a
000003a0: 3110 01b4 4364 8833 4c37 8c27 a4c6 fbb3
000003b0: 25b5 222a 7f9b 002d 9fa2 0e28 2e94 2d26
000003c0: 34aa 9ea7 1adb c0a8 9352 46a6 bc21 93ad
000003d0: dbed 0f26 7202 1029 0789 a6a7 1efe 61a4
000003e0: add4 f628 44f1 1d27 bdb5 17a8 e1ff e7a3
000003f0: 98f1 28a4 052d bfb0 7837 fc28 2955 3d30
1.6617827e-15 1.0422822e-15 6.621933e-07 -1.7016093e-07 1.239401e-14 -7.3480884e-09 1.6836263e-15 1.491408e-09
8.992346e-16 4.1398857e-10 1.189908e-13 2.1493347e-15 1.3806863e-07 1.075278e-15 -1.9025979e-11 -1.8298407e-06
1.04277006e-13 1.5806518e-13 -1.4504683e-12 3.2461263e-15 -1.6324475e-11 -3.06136e-09 1.8103382e-06 -1.8484419e-16
-8.29382e-15 -8.858828e-15 2.3629013e-15 2.5349625e-15 4.1980953e-13 -4.9127537e-13 -2.0092752e-15 -2.3592764e-15
1.2953854e-14 -1.2991908e-11 -9.5685755e-15 2.1589338e-14 7.385869e-17 1.0349905e-13 1.5085204e-15 -4.0998048e-14
9.8205e-16 3.125374e-14 -7.251298e-15 1.8693257e-14 -8.725506e-09 -1.5867032e-08 -3.3368795e-14 -3.1728482e-15
9.2994545e-10 3.47151e-09 -1.4053249e-14 2.1783643e-10 3.4602367e-14 -1.5284983e-15 -3.9643983e-06 -1.118957e-11
-6.183709e-15 -1.4019449e-06 -1.3344472e-09 -4.7566462e-07 -9.425813e-07 1.4551544e-11 -1.5116711e-16 -6.534277e-15
-7.613172e-06 -6.6960305e-16 -3.0528222e-06 2.2724255e-06 3.153658e-14 -5.3621733e-16 1.1381179e-14 4.7316867e-10
1.0625224e-08 1.7030628e-15 -3.5075016e-07 -8.365686e-15 4.766234e-13 3.1749064e-08 -7.538673e-18 -3.7139983e-17
-8.280083e-11 1.3712219e-06 -4.8600792e-17 -1.554138e-16 2.2881922e-15 -3.791356e-10 -4.9284736e-08 8.34737e-09
3.987953e-16 6.4908242e-18 -5.4667046e-14 1.5584519e-09 -2.0301555e-16 6.0845235e-16 4.874428e-15 -1.0786263e-07
2.9774133e-14 -3.34678e-15 -2.6655335e-15 1.6500961e-09 -3.5097193e-15 8.246929e-14 -2.7993184e-14 -3.2802308e-10
-5.222818e-06 2.272626e-06 1.906913e-14 3.6574798e-14 -2.6380968e-07 -2.7885653e-14 -3.4900525e-09 -9.764775e-15
-7.347179e-15 -3.0486298e-15 -4.3846178e-15 -4.6507123e-13 -2.7139296e-14 5.3163858e-15 -2.1395503e-14 -1.8782593e-07
1.7919908e-07 1.483956e-14 -5.7800145e-12 5.140621e-15 -3.8289047e-14 -1.2812298e-07 4.782618e-08 -3.196125e-08
3.3784983e-07 -4.5938228e-07 -9.751478e-07 -3.9477347e-15 -2.4412877e-13 -4.654249e-15 -1.1105705e-14 -1.3980762e-10
8.693452e-07 8.168558e-15 -1.1622772e-15 -5.018234e-15 3.306152e-14 -1.683052e-11 1.5698707e-14 -2.1202832e-06
-3.662242e-08 -3.638444e-14 2.7353038e-15 1.6570163e-14 -3.6026405e-16 1.3273348e-07 -1.1127023e-14 1.913657e-11
-4.2444705e-16 8.3968816e-15 -1.6300961e-13 -5.377986e-15 5.4605426e-14 -5.985826e-15 -2.1387822e-14 5.184651e-15
4.9005244e-13 -3.599045e-14 -2.2906877e-15 4.780874e-13 2.0171244e-13 3.7808406e-16 -1.8512104e-07 3.186339e-15
1.536339e-09 -1.8816594e-11 3.1527008e-16 -1.253594e-15 -8.009132e-15 -8.8051216e-14 -2.5304292e-08 4.818995e-10
7.5477825e-11 -3.2617428e-16 9.888264e-16 8.1496954e-10 -3.5588556e-07 -4.7500483e-14 8.7240306e-07 4.9832532e-15
6.8104e-09 8.12212e-15 7.646476e-15 2.446211e-14 2.1580067e-07 -8.220313e-06 -1.6128887e-06 3.2289172e-06
-1.9742493e-16 9.501938e-09 1.5001337e-11 -6.2272194e-15 -2.0919356e-14 -3.4124812e-09 7.0091795e-07 7.286741e-15
1.4996169e-15 -2.78795e-14 -4.9631663e-09 1.6016917e-16 -1.1979822e-11 2.9163823e-07 -8.366637e-12 -6.7338946e-15
-7.352792e-15 -1.433858e-15 -5.998885e-09 1.4774143e-06 -2.963156e-15 7.2005817e-12 -6.6624374e-08 -4.8361067e-06
-1.0838633e-06 -3.8688548e-13 -2.3008227e-15 1.5138019e-09 -1.5122166e-14 -3.1179414e-15 -9.510168e-17 -2.7542043e-08
-1.3475519e-13 -1.0608511e-15 8.230396e-14 3.861813e-17 4.0426135e-14 2.2220233e-08 5.3455873e-10 3.6866351e-13
-1.2019952e-07 6.351231e-08 3.891776e-15 -1.1724231e-07 1.4451338e-13 7.310485e-12 7.917846e-15 6.0222253e-16
-4.4038344e-15 -2.1411302e-14 -6.880696e-16 -1.6726946e-11 4.9935446e-16 3.1976544e-14 -4.622282e-15 -4.9004343e-17
2.740372e-14 2.1918917e-15 -8.421592e-15 -2.5153439e-17 -3.663383e-17 -1.3909874e-09 2.8001676e-14 6.887882e-10

lstm.bias_ih_l1 f4 [256]
00000000: 518a ae3e 1041 993e 006f ab3e 761c 933e
00000010: 554f 3c3e beaf ab3e e8ea 5d3e 1dd9 123e
00000020: 2bf2 863e a561 7b3e cf8e a33e ce5f 843e
00000030: e21a 8e3e 9ff6 933e b8a2 633e 2e7f b73e
00000040: 556f be3e e9a9 813e 2872 0e3e 1482 aa3e
00000050: 3e2a a93e 13fd 3c3e 6867 c03e 02f5 3f3e
00000060: 7280 cc3e 1402 173e 2e69 a83e 5c83 873e
00000070: 5aad 713e 3510 3a3e ecc7 833e a4e8 473e
00000080: f4a1 6b3e 1fe7 be3e 5820 fe3d 170b 633e
00000090: e82d b53e f002 9f3e fe9b 203e e431 bf3e
000000a0: 831e a13e 0b8e 9e3e 33ad 433e 41ea 8c3e
000000b0: 3299 503e e8e3 573e 6714 9d3e a42e ac3e
000000c0: 7b8b b43e d688 973e f1fd 2c3e 40a3 6e3e
000000d0: 030b c53e 1583 8d3e c59e 7b3e 30c0 903e
000000e0: c0eb ae3e 385a b03e 5e5b ba3e c098 ea3d
000000f0: 1653 ac3e eab8 2b3e b23a 283e 10a7 493e
00000100: 4d46 9728 733c d6b1 2d2c 82a9 ffcd b2b6
00000110: 77fe c735 a3cc 91a8 566e a027 41c9 b330
00000120: 0b84 0937 e73e bca2 7b86 13ac 6986 9428
00000130: 36ad 8629 bc71 e124 9260 f1a6 4a4f c327
00000140: 49c7 0936 9b37 5336 85e1 ffb3 be76 7eb3
00000150: 512a 8435 0ad7 7928 c963 cfa9 c393 e12f
00000160: ea42 c029 263c deb6 6a45 95a9 22ca 52a5
00000170: c467 33a6 bfd4 9fad a5b6 a735 fd28 3a32
00000180: 4867 9129 e206 1827 c62a 92b0 26ed 1925
00000190: 57d7 6235 eebf b036 3df8 eba9 c6da 4b2a
000001a0: f596 bd36 66e9 79ad 93ce 02b6 7241 9eb1
000001b0: 2a4d a030 0ce9 7ea9 5639 fd26 ff46 02a6
000001c0: 6ae8 c726 846a 8a26 ed36 1fa9 82d5 3226
000001d0: f9fc f8b4 1171 05b4 a10a d428 66aa 37a8
000001e0: 9ab3 6ea7 3429 8127 7992 e526 891e b6a6
000001f0: 0182 2e2a 19b6 02a4 00bb 152f 47b4 83a7
00000200: b3a2 833e 8baa 77bd 9851 47be efeb 2c3e
00000210: 2ffd 6cbe 7f71 90bd 8da4 8a3e e25f d0bd
00000220: 66aa febd fca1 71be e4c7 8d3e e6ae dcbd
00000230: 31c6 6c3e c82b 5bbe 3c96 43be d329 663e
00000240: a848 183e d9d4 a03d 0c31 f3bd 5d94 da3d
00000250: f968 353e 9549 923e 7f1d 163e 3871 563e
00000260: fe35 1a3e 3e6e 8cbd 714b 773e 5645 273e
00000270: 5e2c 7b3e 7ff0 1abe ac5a 863e 8d58 fdbd
00000280: f25b 8b3e dab3 2d3e 1e87 383e 26a5 01be
00000290: f3bf 34bd 6df9 2e3e 38c0 7c3e d41e d4bd
000002a0: 274f a8bd 9097 26bd 03ba babd ef98 1c3e
000002b0: d894 083e a937 9abd 487f e5bd 8f69 7ebd
000002c0: bbed 7e3d 4264 fdbd 61a4 803e 4df7 2b3e
000002d0: e521 a3bd c51c e7bd 542c 353e f15d 1e3e
000002e0: c53f 173e 59f9 63be 82ee 58be 35d4 013d
000002f0: baea a2bd e8a9 79be 6518 5dbd ab34 333e
00000300: 1ce6 173e 9c4c 263e f1f3 433e e7a0 ba3e
00000310: 8b50 3f3e 11f7 893e aa03 8b3e 4079 703e
00000320: 2e58 af3e 48a4 8c3e 4a30 273e cc96 6e3e
00000330: 849b 8b3e a92b 5c3e a655 273e c546 aa3e
00000340: 56db 943e 9a9a 7a3e 22a5 c43e 9d44 363e
00000350: eaae 563e 5225 763e f0b5 9e3e 88b0 2f3e
00000360: eae8 b83e 6f6c 1a3e 5b93 693e 6801 263e
00000370: d98c c13e 4aab 993e ecdf 9f3e 63cd 943e
00000380: 4cfb d33e b38f 783e c57c 0a3e d86c 2b3e
00000390: 1ee5 b13e 6645 8b3e 69b8 d13e c043 a23e
000003a0: 102b 8b3e 0b44 cb3e 39f8 be3e 8c22 8c3e
000003b0: 86c6 a03e bbbb 8c3e 687d 9e3e 3d64 c73e
000003c0: db76 693e a5c9 9e3e 7b0b 293e ca75 563e
000003d0: 8b5c 9c3e 279a 573e 615d 4e3e 2e2d c33e
000003e0: d00e ab3e 3c87 783e 8a99 933e 6be7 543e
000003f0: 6d7c 4e3e 55c0 b93e f94c ad3e 8eb4 a23e
0.34089902 0.2993245 0.33483124 0.2873265 0.18389638 0.33532518 0.21671641 0.14340635
0.26356634 0.24548967 0.31944892 0.25854343 0.27754885 0.28899094 0.22230041 0.35839218
0.37194315 0.25324944 0.13910735 0.33302367 0.3304004 0.18455915 0.37578893 0.18745807
0.39941746 0.14746886 0.32892746 0.26467407 0.23601285 0.18170245 0.25738466 0.19522339
0.23010999 0.37285706 0.12408513 0.22172199 0.35386586 0.3105693 0.15684506 0.3734275
0.3146859 0.30967745 0.19109039 0.27522472 0.2037094 0.21083033 0.30679628 0.33629334
0.35262665 0.29596585 0.16893746 0.23304462 0.38484964 0.2763907 0.24572285 0.28271627
0.34164238 0.3444383 0.36397833 0.11454916 0.3365714 0.16769758 0.1642864 0.19692636
1.6794856e-14 -6.235092e-09 -5.780823e-14 -5.3287945e-06 1.4900714e-06 -1.6186981e-14 4.4528547e-15 1.3081164e-09
8.19658e-06 -5.1024103e-18 -2.0964608e-12 1.6489592e-14 5.980843e-14 9.777087e-17 -1.674891e-15 5.4209338e-15
2.053059e-06 3.1473817e-06 -1.19153846e-07 -5.924698e-08 9.847082e-07 1.3868906e-14 -9.2099566e-14 4.1032253e-10
8.5381206e-14 -6.6231178e-06 -6.6289706e-14 -1.8283082e-16 -6.224373e-16 -1.8170685e-11 1.2495626e-06 1.0835945e-08
6.45721e-14 2.1097969e-15 -1.0635055e-09 1.3350984e-16 8.450492e-07 5.2675523e-06 -1.0479159e-13 1.8105924e-13
5.6502126e-06 -1.4205836e-11 -1.9491752e-06 -4.6058455e-09 1.1663464e-09 -5.6601466e-14 1.7570943e-15 -4.519903e-16
1.3871395e-15 9.604545e-16 -3.5352733e-14 6.2045513e-16 -4.6377662e-07 -1.2427724e-07 2.3541338e-14 -1.019549e-14
-3.3126497e-15 3.5849365e-15 1.5929769e-15 -1.2637063e-15 1.5499409e-13 -2.83435e-17 1.3617907e-10 -3.655526e-15
0.25710067 -0.060465377 -0.1946472 0.16886877 -0.23143457 -0.07052898 0.27078667 -0.10174538
-0.12434845 -0.23596948 0.27691567 -0.10775547 0.23122479 -0.2140342 -0.19100279 0.22476892
0.14871466 0.078530975 -0.11874589 0.10672829 0.17715825 0.28571764 0.1465969 0.20941627
0.15059659 -0.068569645 0.24149872 0.16335043 0.24528643 -0.15130804 0.26241052 -0.12370405
0.27218586 0.16963139 0.18020293 -0.12660655 -0.04412837 0.17087336 0.246827 -0.103574425
-0.08218222 -0.040671885 -0.0911751 0.15292715 0.1333803 -0.075301476 -0.112059176 -0.062112387
0.062238436 -0.12372638 0.2512541 0.16793557 -0.07965449 -0.11284784 0.17692691 0.15465523
0.1477042 -0.22263087 -0.21184734 0.031696517 -0.07954927 -0.2438122 -0.053978343 0.1750056
0.14833874 0.16240162 0.19136025 0.36450884 0.18683068 0.2694631 0.27151233 0.23483753
0.34246963 0.27469087 0.16327015 0.23299712 0.27267087 0.2150103 0.16341266 0.33257118
0.2907359 0.24473038 0.38407236 0.17799611 0.20965162 0.24037674 0.30998182 0.17157185
0.361152 0.15080427 0.22810118 0.16211474 0.3780277 0.30013496 0.31225526 0.29062948
0.41402662 0.24273567 0.13524158 0.1674074 0.34745115 0.27201384 0.40961006 0.31692314
0.27181292 0.3970035 0.37298754 0.27370107 0.3140146 0.27486977 0.30955052 0.38943663
0.22799246 0.31013218 0.16508286 0.2094337 0.30539355 0.21054898 0.20152809 0.38120407
0.3340974 0.24270338 0.28828079 0.20791404 0.20164652 0.3627955 0.33847788 0.31778377
