model_checkpoints/model_epoch_200.pth (torch, 233384 bytes, 9 tensors)

lstm.weight_ih_l0 f4 [256, 28]
000000 7e 96 a1 be e0 35 20 3e d4 84 6b be e9 a2 c5 3d
       -0.3156013 0.15645552 -0.22999889 0.09650213
000010 d7 0e 8c 3e dd 6f f8 bd ae 6c dd bc 12 e0 bf 39
       0.27355072 -0.12130711 -0.027029362 0.00036597304
000020 b3 74 e9 bd 6a 12 2a bd 4e 1b a1 be ea 00 7d be
       -0.11399212 -0.041521467 -0.31466144 -0.2470738
000030 83 72 63 be 2e 8e 7e be 76 70 57 be 1a 38 6d be
       -0.22211652 -0.24858925 -0.21038994 -0.23165932
000040 f2 0c 8b be d2 09 09 be c2 64 73 be 2d 98 1d be
       -0.27158314 -0.13382652 -0.23768905 -0.15390082
000050 30 f0 e5 3d 38 65 c8 bc 8b 24 33 3e 96 9e 0f 3e
       0.11227453 -0.024462327 0.17494409 0.1402534
000060 38 18 94 bd 30 e6 35 be 18 cc 1d 3d 6e db 84 be
       -0.07231182 -0.17763591 0.038524717 -0.25948662
000070 18 44 2c be 04 96 5d 3e c8 93 7f be b3 f7 92 3d
       -0.1682285 0.21639258 -0.24958718 0.07176151
000080 a9 0e af 3e da ca a4 bd 01 65 4e bd f1 d8 0d be
       0.34190872 -0.08046503 -0.050389294 -0.13852288
000090 ec d2 18 bd 4c 4f 0e be 77 c2 0b be 46 a7 50 be
       -0.037310526 -0.13897437 -0.13648401 -0.2037631
0000a0 a9 83 6e be d7 a5 56 be 28 b8 32 be 97 6c 53 be
       -0.23292412 -0.209617 -0.17453063 -0.20646892
0000b0 c7 d3 8f be cb 56 32 be 30 e2 a2 be c4 d3 7d be
       -0.2809126 -0.17415921 -0.31813192 -0.24787813
0000c0 d0 b3 c9 3d 29 f9 4b 3e 21 38 ac bd 1e a1 fe 3b
       0.0984875 0.19919266 -0.08409143 0.0077706715
0000d0 27 76 9c bd 95 cf eb bc 30 24 7b bd 92 9e cb be
       -0.07639723 -0.028785506 -0.061313808 -0.39769417
0000e0 30 1c 5d 3e a6 63 8c bd e5 bd 88 bd a2 ea 2a 3d
       0.21592784 -0.06854944 -0.066768445 0.04172767
0000f0 e4 4e 74 be b0 41 03 3c 10 04 22 be b7 4b 18 bd
       -0.2385822 0.008011267 -0.15821862 -0.037181582
000100 ad 2e b2 3d 6c b8 a4 bd ac 38 86 3e 45 bf a9 3e
       0.08700309 -0.08042988 0.26215112 0.3315374
000110 4a 02 00 3e b5 d9 38 3e ed 06 15 3e 82 73 15 3e
       0.12500873 0.18051799 0.14553423 0.14594844
000120 1e 6e 3d 3e ec 0d 43 3e 56 52 a5 3e 76 8c a8 3e
       0.18499038 0.1904828 0.3228938 0.32919663
000130 ed 09 06 be 80 34 ff bd a9 04 a9 3c 2e 00 b3 3d
       -0.13089724 -0.124611855 0.020632105 0.08740269
000140 75 e6 fe bc 30 04 51 3e 42 54 a1 3e f6 0c 01 3e
       -0.03111575 0.20411754 0.31509596 0.126026
000150 23 f9 98 be 77 b9 02 3e ad de a4 be 6f 17 27 3e
       -0.29877576 0.12766062 -0.32201138 0.16317533
000160 11 96 3c 3e 64 c3 01 bd 9f b9 07 bd b3 bc c8 3d
       0.18416621 -0.03168048 -0.033136006 0.098016165
000170 3f de 7a bd 2b aa 0d bd c2 82 87 be 7f e0 8c be
       -0.061247107 -0.034586113 -0.26466948 -0.27515027
000180 82 03 a2 be 3c 07 80 be 81 8a 09 be c0 ef 6d be
       -0.316433 -0.2500552 -0.13431741 -0.23235989
000190 36 c4 9d be 0b a4 15 be 87 36 dc bd e3 99 7f be
       -0.3081376 -0.14613359 -0.10752588 -0.24961047
0001a0 a7 7a 10 3e d6 38 28 3d 23 aa 88 bc 85 64 f5 bd
       0.14109288 0.041069828 -0.01668269 -0.11982063
0001b0 ad 38 0f be fd b0 77 3c 9e 15 ac bd 49 17 da be
       -0.13986464 0.015117881 -0.08402561 -0.4259589
0001c0 7e 98 2d 3e 4f af 4f be 6a 31 14 bb 18 5d 3e be
       0.16952702 -0.20281719 -0.002261246 -0.185902
0001d0 18 cb da bc 7a 95 9b bd 0e 78 6d 3d e6 d8 1d 3d
       -0.02670817 -0.0759687 0.05797582 0.03853693
0001e0 28 5b a2 bd dd 9e 4f 3c a5 52 50 3e 5f 0d 58 3e
       -0.07927543 0.012672153 0.20344026 0.2109885
0001f0 05 11 b0 3e 25 48 3d 3e 1d f0 3a 3e 40 21 ad 3e
       0.34387985 0.18484552 0.18255658 0.3381443
000200 2f a1 27 3e 3c a7 7f 3e f5 bc a3 3e 4b 30 a0 3e
       0.1637008 0.24966139 0.319801 0.31286845
000210 bf 83 ce 3d fa 14 ba 3d 01 07 f6 bd 95 3e cb bd
       0.10083722 0.09086032 -0.12013055 -0.09924046
000220 e7 f8 17 be 07 9d 5c 3e c6 fe 54 bc 4b d6 5b bd
       -0.14841042 0.21544276 -0.013000196 -0.053671163
000230 64 36 87 3e a2 30 67 bc dc bf 69 bc c0 cc 03 3d
       0.26408684 -0.014110716 -0.014266934 0.032177687
000240 d5 30 50 bd 2f 9b f7 bd 68 b9 02 be 37 1e 19 bd
       -0.05082782 -0.12090146 -0.1276604 -0.03738233
000250 91 8f 65 3d e2 5e 4c bd 21 59 52 3e 3a 13 7b 3e
       0.05604512 -0.049895175 0.20541812 0.24519053
000260 9c 00 5f 3e 43 40 3a 3e 07 d3 1c 3e be 5e 70 3e
       0.21777576 0.18188576 0.15314876 0.23473641
000270 55 52 2f 3e 95 18 29 3e 5f d2 2e 3e c9 b7 f2 3d
       0.17121251 0.16513284 0.17072438 0.118514605
000280 72 ee 0a 3d ae 4e 04 be fa 66 59 3d 06 8c 29 bd
       0.033918805 -0.12920639 0.05307672 -0.041393302
000290 fe 27 d7 3c 76 d0 4b 3e 4a 1a 84 3e 2a 19 5f 3d
       0.026264187 0.1990374 0.25801307 0.054467358
0002a0 38 37 77 3e 65 a3 1f bc f1 ad 21 3d 58 60 67 bc
       0.24142158 -0.009743546 0.039472524 -0.014122091
0002b0 db c1 69 be 16 e0 3a bc af ad 8f bd ad 30 e3 3c
       -0.22827856 -0.011405965 -0.070155494 0.027733171
0002c0 f3 fd 12 bd ab 3c 50 3d 04 54 a6 3e 55 46 a8 3e
       -0.035886716 0.050839107 0.32485974 0.3286616
0002d0 08 03 6f 3e 56 2f a8 3e 90 b2 85 3e 85 00 74 3e
       0.23341 0.32848614 0.26112795 0.23828323
0002e0 52 7a 0e 3e 7d 8d ae 3e c0 6a 28 3e de 82 80 3e
       0.13913849 0.34092322 0.16446972 0.25099844
0002f0 60 0d 80 bd f2 0b b7 bb 5e 3d aa bd be fc 6f 3c
       -0.06252551 -0.005586141 -0.08312486 0.014647661
000300 73 f9 66 3d 48 ab b7 3e d6 e6 8c 3e 9d a1 1f 3e
       0.056390237 0.35872865 0.27519864 0.15588994
000310 cb d2 f7 3d 60 96 41 bd 66 bc 0a 3d 92 65 22 3e
       0.121007524 -0.04726255 0.033871077 0.15859058
000320 ca 79 88 be b2 e5 80 bd 53 5c d3 bd ea 80 ff bd
       -0.26655418 -0.06293811 -0.10320344 -0.1247576
000330 61 de 2e bd b4 b2 9b bd a9 05 6a 3e 3b c9 50 3e
       -0.042692546 -0.07602444 0.22853722 0.20389263
000340 63 d2 1c 3e d0 82 63 3e 68 a6 31 3e d0 81 81 3e
       0.15314631 0.2221787 0.17348635 0.25294352
000350 0f d4 80 3e 1f 15 68 3e 1d 0f a3 3e ab 5b b1 3d
       0.25161788 0.22664307 0.31847468 0.086600624
000360 e8 68 f7 bd 40 42 6a be ab 12 67 3d 15 6c 12 3d
       -0.12080556 -0.22876835 0.056414288 0.035747606
000370 be d3 db bc 0e b5 c0 3e cc 69 b0 3e 4c f2 28 3e
       -0.026834365 0.37638134 0.34455717 0.16498679
000380 e1 a7 e6 bd 04 77 56 3e ef 80 3a be 31 dc 18 3d
       -0.11262489 0.20943838 -0.18213247 0.037319366
000390 2f 06 99 3e e2 c0 23 be 2a 81 22 3c df 05 44 3c
       0.2988753 -0.15991548 0.00991849 0.01196429
0003a0 62 d0 4d 3d b2 5b 69 bd c2 08 8a be ad fa 51 be
       0.050247557 -0.056972213 -0.26959807 -0.20505781
0003b0 1c 70 c1 bd 7e 8c 81 be 80 95 84 be e9 0a 5f be
       -0.09445211 -0.253025 -0.2589531 -0.21781506
0003c0 c3 48 21 be f4 40 a0 be 43 58 12 be 37 e1 e3 bd
       -0.15750413 -0.31299555 -0.14291482 -0.11126941
0003d0 91 3d 06 3b be 12 77 3e d3 78 98 bc c7 c8 6b 3b
       0.0020483474 0.24128243 -0.018612301 0.0035977827
0003e0 cd 9b 37 be b0 ee 10 bd 7b de 03 be 6f d3 e0 be
       -0.17930527 -0.03538388 -0.12877838 -0.4391131
0003f0 b8 29 83 3e 91 83 0a bd fb 13 cb bc 41 11 1e 3e
       0.25617766 -0.033816878 -0.0247898 0.1543627

lstm.weight_hh_l0 f4 [256, 64]
000000 43 ce b9 87 94 65 76 03 22 70 60 88 22 cb 52 81
       -2.7956936e-34 7.240951e-37 -6.753936e-34 -3.871665e-38
000010 00 5f 04 24 12 b2 c2 1c 73 ac db a0 00 e4 7b 03
       2.8703405e-17 1.2883873e-21 -3.721416e-19 7.4024e-37
000020 81 68 d2 ab 89 13 fb 84 b9 73 7e 02 00 0e 9b a1
       -1.4950403e-12 -5.9027757e-36 1.8694184e-37 -1.0506914e-18
000030 71 0d b4 9b 1a ab 49 02 37 f6 b8 2f b4 87 56 03
       -2.9787188e-22 1.4816252e-37 3.364435e-10 6.3044727e-37
000040 67 62 01 8d 88 cb a7 04 ce 85 43 2f fe 18 27 05
       -3.986964e-31 3.9448425e-36 1.7782684e-10 7.8568926e-36
000050 6c 0c 59 a5 03 d1 a1 ac 93 9f a7 0d 95 8c e0 2e
       -1.8825958e-16 -4.5991e-12 1.0330586e-30 1.0211313e-10
000060 5c f1 71 9a 8e 00 89 2f a4 6e 37 0f dc 93 40 81
       -5.00326e-23 2.492055e-10 9.043905e-30 -3.5370914e-38
000070 d6 04 d0 ae 39 b5 8e 07 8f 81 94 98 7c 79 b6 29
       -9.459604e-11 2.1472298e-34 -3.8387924e-24 8.103498e-14
000080 34 b6 ce 15 14 77 d5 02 1d 37 f9 01 c4 4c f3 83
       8.3490203e-26 3.1365885e-37 9.154724e-38 -1.4299881e-36
000090 8e 5e aa 13 5e 44 82 83 c0 8d a8 04 7f db 8d 82
       4.300727e-27 -7.65641e-37 3.9626787e-36 -2.0844073e-37
0000a0 3a 82 01 a3 70 11 1e 2f 11 82 8c a4 f0 0c dd 87
       -7.0206806e-18 1.4376211e-10 -6.093566e-17 -3.3259988e-34
0000b0 f1 5d c2 1d e3 4b 9c 8d 97 a1 3f 0f 5f 64 ab ae
       5.1448506e-21 -9.632511e-31 9.448148e-30 -7.794009e-11
0000c0 c3 64 00 8b e2 57 b9 85 25 3c c5 82 ab dc 05 2c
       -2.4727708e-32 -1.74296e-35 -2.898107e-37 1.9022932e-12
0000d0 da 89 9f a4 4c 15 ba 1b 87 24 9c 82 f3 79 5a 99
       -6.918879e-17 3.0784882e-22 -2.2943106e-37 -1.1294963e-23
0000e0 1b 18 3f 0e 5e 5f 22 83 6a a4 1e 03 f0 4e 9d 9d
       2.3554174e-30 -4.7716997e-37 4.6620765e-37 -4.1639173e-21
0000f0 bf 8f a5 0d 50 83 a2 82 f1 78 74 8f 7a 29 8a 1e
       1.0203516e-30 -2.387913e-37 -1.2053421e-29 1.4628473e-20
000100 d0 4a 34 83 e3 24 bc 2b d5 95 bf 9d 22 5a 55 83
       -5.2983126e-37 1.3368442e-12 -5.07122e-21 -6.269854e-37
000110 9d 7a e0 2e 2b 72 ad 2b 8b 6f ac 92 ea 5c dd 82
       1.0208121e-10 1.2324077e-12 -1.0882224e-27 -3.2526361e-37
000120 df 94 d3 93 f6 2c a4 03 d7 60 ff 0e 54 8f 8c 9e
       -5.3410687e-27 9.649376e-37 6.2955607e-30 -1.4882356e-20
000130 07 6d 3e 27 e4 da ab 2f 43 29 15 30 ba 1f a2 2c
       2.64269e-15 3.126025e-10 5.426452e-10 4.6078393e-12
000140 6e 20 a9 a5 03 5b f3 ab e0 4d a8 2b 19 af 85 ae
       -2.9338802e-16 -1.7291449e-12 1.1958733e-12 -6.0792434e-11
000150 79 5a b7 01 44 ad 55 0a 54 7c 86 2b a2 0c da 17
       6.7353405e-38 1.02881646e-32 9.555781e-13 1.4091109e-24
000160 56 78 79 83 8c 7c 1b 04 48 a2 82 82 b8 05 70 83
       -7.331266e-37 1.8277352e-36 -1.9194928e-37 -7.0536226e-37
000170 ec af 20 14 3e 6a 0a 99 be a4 84 9d 16 a9 ac 15
       8.11263e-27 -7.155888e-24 -3.511045e-21 6.973702e-26
000180 ef 67 2b 1d c1 2f 92 27 75 68 5b 99 81 4f 02 83
       2.2685394e-21 4.0574915e-15 -1.13431296e-23 -3.8294832e-37
000190 ae 7d f9 89 f0 5a 82 24 2e c2 0c 83 0d 34 9a 81
       -6.0062758e-33 5.653257e-17 -4.136521e-37 -5.6645355e-38
0001a0 92 ae 7a 1e 50 7e 30 99 e6 a7 2c 03 b5 22 b5 9d
       1.327099e-20 -9.124495e-24 5.0738995e-37 -4.7946187e-21
0001b0 a2 21 e4 a4 f8 b4 a9 84 88 b7 a5 1d 07 0c 18 23
       -9.8936214e-17 -3.9897903e-36 4.3864903e-21 8.242483e-18
0001c0 40 9d 79 ad df df 0e ae 44 3b 74 81 7d 2a 61 24
       -1.4188928e-11 -3.24859e-11 -4.4858243e-38 4.8825087e-17
0001d0 85 49 98 28 de a4 13 84 e5 0f 25 0f 7b e5 90 83
       1.6907274e-14 -1.735547e-36 8.138189e-30 -8.5162455e-37
0001e0 87 7a a9 04 02 15 1b 2a 4e c8 98 95 56 1b e6 2f
       3.9844233e-36 1.3774054e-13 -6.1708336e-26 4.185618e-10
0001f0 24 d2 aa 2f 29 5c f4 a7 9e a8 09 82 3c 59 b5 06
       3.1072134e-10 -6.7823525e-15 -1.0113561e-37 6.821575e-35
000200 2b 0b 11 04 fa 37 34 02 84 99 53 28 e1 73 c4 82
       1.7049796e-36 1.3240376e-37 1.1746141e-14 -2.8866123e-37
000210 a4 16 9f 16 ac 24 73 95 b5 fd 8d 23 b1 23 55 95
       2.5702124e-25 -4.9102388e-26 1.53947e-17 -4.3043163e-26
000220 0a 23 0f 0f 7f 08 db 2c 3e 1c d7 84 ef c3 ab 8d
       7.0571926e-30 6.2252976e-12 -5.0572193e-36 -1.0585858e-30
000230 d5 ad 97 97 8c 5b ba 1d d4 59 11 ad 58 76 13 84
       -9.802028e-25 4.9328447e-21 -8.262242e-12 -1.7334108e-36
000240 76 18 21 14 cd 96 96 29 f4 bd f9 02 8e 9b 5a a5
       8.133247e-27 6.687498e-14 3.669629e-37 -1.896119e-16
000250 23 08 a9 04 a1 a5 10 05 ac d7 fd a8 9d 29 dc 98
       3.973918e-36 6.801269e-36 -2.8182175e-14 -5.6910686e-24
000260 03 e2 a7 2f 08 47 5d 81 28 ee 9a 81 b8 7e d3 ac
       3.0537714e-10 -4.0642252e-38 -5.6912403e-38 -6.0110493e-12
000270 33 d1 0e 84 60 94 52 2f 44 c3 0b 2c b2 83 04 03
       -1.678808e-36 1.9152102e-10 1.9861482e-12 3.8942492e-37
000280 79 57 05 2c 4e 3d f8 95 88 48 54 95 a5 d3 1d 84
       1.8948994e-12 -1.00263124e-25 -4.2870276e-26 -1.8552444e-36
000290 7d 8f 71 88 90 d1 a9 04 a4 75 a1 af b1 e3 de 24
       -7.269197e-34 3.9924162e-36 -2.9369318e-10 9.666288e-17
0002a0 78 1f 9d a8 be 1a a9 04 24 df 8d 83 ec ab 53 9d
       -1.7444149e-14 3.9756268e-36 -8.338466e-37 -2.80145e-21
0002b0 6e a2 63 19 94 d7 5d 28 89 71 13 11 ff 59 de 20
       1.1768427e-23 1.23147105e-14 1.1631241e-28 3.7667817e-19
0002c0 e1 76 0f a1 26 29 3b 82 0b 4e b8 0e 88 4a 6e 2b
       -4.860762e-19 -1.3750399e-37 4.5434655e-30 8.465802e-13
0002d0 a3 cf 88 14 30 79 1a 8f 82 65 ac 01 40 e5 a5 89
       1.3814389e-26 -7.616126e-30 6.332848e-38 -3.993789e-33
0002e0 b1 32 b9 85 6e 69 9d 83 fc f5 9f 04 ee ad 27 83
       -1.7415937e-35 -9.251836e-37 3.760662e-36 -4.927655e-37
0002f0 90 5c ce 02 f4 b5 32 1c b7 71 59 9b 87 75 07 02
       3.0322108e-37 5.913043e-22 -1.7986563e-22 9.951962e-38
000300 4e ad 12 84 07 70 81 82 6f c5 b4 2f 8d 7b c7 af
       -1.7241795e-36 -1.9019147e-37 3.2882094e-10 -3.6285677e-10
000310 82 97 4e 19 53 da 9d 2f a7 81 b8 83 a2 b0 9d 2f
       1.0680547e-23 2.8713262e-10 -1.0844315e-36 2.868364e-10
000320 ad 7a 78 82 64 48 0b ad a4 b7 b1 82 d4 e7 51 83
       -1.8255369e-37 -7.917309e-12 -2.6113217e-37 -6.1685705e-37
000330 e4 d0 4a 25 76 54 2c 0a 01 c0 09 96 b5 af 4b 90
       1.7591482e-16 8.297384e-33 -1.1127358e-25 -4.017005e-29
000340 77 36 5d 8d f6 81 b4 02 9c 99 b9 8b ba 53 00 81
       -6.8166443e-31 2.6523217e-37 -7.1490534e-32 -2.3569958e-38
000350 41 d8 1d af 15 0a b3 14 8b 2a 92 1e 16 91 13 82
       -1.4355896e-10 1.8078358e-26 1.5475947e-20 -1.0841492e-37
000360 03 a0 a8 18 fd 21 9a 2e 39 00 0f 04 55 57 a1 04
       4.3588553e-24 7.009147e-11 1.6809671e-36 3.793112e-36
000370 b4 b0 b9 90 ff 14 d9 a9 e5 0d 8f 03 32 c6 23 83
       -7.324189e-29 -9.640378e-14 8.407975e-37 -4.812891e-37
000380 7d 64 c1 ab 51 10 e0 18 8f 77 d7 1f ce d4 8b 82
       -1.3741366e-12 5.791912e-24 9.1253835e-20 -2.0546358e-37
000390 42 f6 f5 ac 21 17 62 9b 66 86 7f 25 12 1f aa 84
       -6.990659e-12 -1.8701755e-22 2.216326e-16 -3.999534e-36
0003a0 56 41 cb 81 ac f5 53 2e dd 84 99 0b be 7b b2 1d
       -7.4664175e-38 4.8194046e-11 5.9133367e-32 4.7244154e-21
0003b0 f3 3a 16 2e 4a fa 47 14 f5 18 11 a5 ca 2b a3 8b
       3.415841e-11 1.0096293e-26 -1.2585201e-16 -6.28512e-32
0003c0 13 f0 13 96 68 f7 3b 14 b2 43 be 81 80 21 b9 85
       -1.195032e-25 9.4898796e-27 -6.9892115e-38 -1.7409622e-35
0003d0 ae 20 0f 04 5d c6 a9 9d ea 72 9d 25 ce df 0f 84
       1.6824575e-36 -4.493903e-21 2.7313027e-16 -1.6912335e-36
0003e0 26 47 34 85 30 f2 15 18 32 6e 83 83 2e 03 d5 84
       -8.476627e-36 1.9380072e-24 -7.724788e-37 -5.007898e-36
0003f0 3f 0a 6e 10 50 77 c9 a0 ae 10 10 15 78 3f 93 8b
       4.6945117e-29 -3.412968e-19 2.9093726e-26 -5.671784e-32

lstm.bias_ih_l0 f4 [256]
000000 97 85 a0 3e a3 17 c4 3e 55 52 77 3e fa 6a be 3e
       0.3135192 0.38299283 0.24152501 0.37190992
000010 de d1 eb 3e 5a 3e e0 3e 45 b6 83 3e e1 de 7e 3e
       0.46058553 0.4379757 0.25724998 0.24889709
000020 10 c7 d6 3e 65 36 ea 3e 01 e4 de 3e f3 07 8d 3e
       0.41948748 0.45744625 0.43533328 0.27545127
000030 91 98 b7 3e 33 68 b4 3e 86 f2 cd 3e 47 98 e5 3e
       0.35858586 0.35235748 0.40224093 0.4484274
000040 68 be 9e 3e 46 37 e2 3e e7 26 b1 3e 7f 32 d1 3e
       0.31004643 0.44182795 0.34599993 0.40858838
000050 b2 36 8b 3e ab 90 ae 3e 20 b9 ee 3e aa 90 93 3e
       0.27190167 0.34094748 0.46625614 0.28821307
000060 9a ad 8a 3e 7e 25 c2 3e 96 81 8e 3e 67 ef b3 3e
       0.27085572 0.3791923 0.2783324 0.35143587
000070 e1 a4 cd 3e 82 95 ed 3e 77 01 bb 3e 75 bd 9e 3e
       0.40164855 0.46403128 0.36524555 0.3100392
000080 f2 08 df 3e cf 57 ca 3e 42 43 f2 3e 0d 44 9a 3e
       0.43561512 0.39520118 0.4731694 0.30130044
000090 0a ae 86 3e 80 3f d9 3e 1f f9 b1 3e 19 6a 90 3e
       0.26304656 0.4243126 0.34760377 0.28205946
0000a0 99 4d e5 3e d2 5c e0 3e ec bb b7 3e 05 e7 9c 3e
       0.44785765 0.43820816 0.3588556 0.30645004
0000b0 4a b7 cb 3e e7 bc 92 3e e1 48 8c 3e 63 da af 3e
       0.39788276 0.28659746 0.27399352 0.34346303
0000c0 bb dd cb 3e c1 85 82 3e 75 d1 a9 3e b3 23 e2 3e
       0.39817604 0.2549267 0.33167616 0.4416786
0000d0 fa f4 f8 3e f9 60 01 3f ea 80 d8 3e 6a 16 d0 3e
       0.48624402 0.50538594 0.42285854 0.406421
0000e0 64 d3 f7 3e df 3f b5 3e d8 f0 82 3e de 1f e7 3e
       0.48403466 0.35400292 0.25574374 0.451415
0000f0 5f 6e aa 3e 52 19 aa 3e 49 9f 7d 3e 13 4b db 3e
       0.3328733 0.33222443 0.24767794 0.42830715
000100 5c 06 ab 84 0e b4 53 8e 1e 3d 34 05 72 d0 51 8e
       -4.0207747e-36 -2.6094451e-30 8.474785e-36 -2.5861602e-30
000110 ed 4a 52 2e 72 ed 70 0e c4 fa 4c ae 1a 77 fb 82
       4.781502e-11 2.969661e-30 -4.6606954e-11 -3.6949496e-37
000120 e8 07 e1 02 85 c0 d1 23 64 a6 cf 92 71 47 dd 2b
       3.3065317e-37 2.274136e-17 -1.3104555e-27 1.5722823e-12
000130 fb 2f 59 13 35 83 6d ac 4a c5 83 20 4c c9 f6 18
       2.7412907e-27 -3.375256e-12 2.2322818e-19 6.3792767e-24
000140 11 61 2a 19 c3 5a 16 30 eb ca 0c ae 57 3d 35 2c
       8.8083964e-24 5.469866e-10 -3.2012542e-11 2.5755697e-12
000150 b4 70 8d 14 3a 78 34 85 84 a5 ab 8b 76 5c a9 83
       1.4281815e-26 -8.4856415e-36 -6.6115844e-32 -9.954155e-37
000160 31 ce 91 a3 c8 8c cb 2d b3 5a ff 8b b5 65 aa ad
       -1.5808257e-17 2.3140947e-11 -9.8358896e-32 -1.937193e-11
000170 13 e2 3f 03 bf 55 09 16 c4 e6 a1 2b 10 5d 51 2e
       5.6389376e-37 1.1093829e-25 1.1503788e-12 4.7603754e-11
000180 c8 25 51 2f 11 cc 0c 04 d4 b7 25 83 14 78 8b ab
       1.9021862e-10 1.6550624e-36 -4.8700166e-37 -9.909872e-13
000190 92 4a 60 a9 c6 ab 9d 83 c0 8a 87 28 72 a4 b3 24
       -4.980267e-14 -9.267068e-37 1.5048184e-14 7.790746e-17
0001a0 f6 d4 e2 a9 29 6c 27 2f 56 65 97 af c9 a0 0e 30
       -1.0073359e-13 1.5226988e-10 -2.7538744e-10 5.188779e-10
0001b0 d9 99 33 05 25 a2 8d 0d a2 b4 62 2d 83 50 88 0b
       8.444797e-36 8.728831e-31 1.2886721e-11 5.2506435e-32
0001c0 d1 52 72 25 b4 c4 b3 87 0d 95 a7 1d d4 31 a9 95
       2.1018213e-16 -2.7048538e-34 4.4358647e-21 -6.833717e-26
0001d0 f4 a2 02 2d e8 22 01 18 74 d1 11 04 93 b3 db 0d
       7.425827e-12 1.6690482e-24 1.7140844e-36 1.3540148e-30
0001e0 f4 29 47 0e fd a5 2f 85 dc 55 f6 82 25 1a f2 82
       2.4548843e-30 -8.258948e-36 -3.6195732e-37 -3.557371e-37
0001f0 61 bb d8 96 e8 94 ee 94 87 f9 20 2c 24 af 7d 80
       -3.5014935e-25 -2.4090592e-26 2.2875883e-12 -1.1542266e-38
000200 dd 9c e8 3e 20 7d af 3e 75 6f d7 3e 7d 9b a0 be
       0.45432177 0.3427515 0.42077222 -0.31368628
000210 e7 dc ae be cb 2a e7 3e 18 61 c2 be 12 1d a9 3e
       -0.3415291 0.45149836 -0.37964702 0.3302999
000220 b1 35 dd be f3 72 d2 be d3 03 9d be 84 61 bb 3e
       -0.43205026 -0.41103324 -0.3066698 0.36597836
000230 f5 5a be be 2b 8e 88 3e 98 55 b9 3e ed 4f dc 3e
       -0.3717877 0.26670966 0.36198115 0.4302973
000240 c1 e4 db 3e c4 74 99 be 46 9f e3 3e 57 4b da be
       0.42947963 -0.29971898 0.44457453 -0.42635605
000250 3b 46 c3 3e 86 85 93 be 1f 88 d0 be ff d6 d9 3e
       0.3813952 -0.28812808 -0.40728852 0.42546842
000260 b8 29 8e be 5f b6 e0 3e 47 54 d8 3e c3 f2 a3 be
       -0.27766204 0.43889138 0.422518 -0.3202115
000270 c0 09 87 be 84 c9 94 be 4c 6d dc be f3 10 c2 3e
       -0.26374626 -0.29059994 -0.43052137 0.37903556
000280 76 a8 b0 3e 7c 4e a3 3e 93 30 de 3e d0 74 81 3e
       0.34503525 0.31895816 0.43396434 0.25284433
000290 e7 b7 d6 be 6f a8 bc 3e 1a f1 98 3e 05 54 ba be
       -0.4193718 0.36847255 0.29871446 -0.36392227
0002a0 78 f2 bc 3e 61 12 e0 3e a8 8e dc 3e 0e d0 8f be
       0.3690374 0.43764022 0.43077588 -0.2808842
0002b0 53 ab c2 be 22 af a5 3e 79 f7 ab be 30 5c a1 3e
       -0.38021335 0.32360178 -0.33587244 0.31515646
0002c0 b0 50 e3 be 53 3f d8 3e 2c 5a db be 8c 66 db be
       -0.44397497 0.42235813 -0.42842233 -0.42851675
0002d0 80 87 d5 3e 74 26 e4 3e aa f2 9f be a4 59 8a 3e
       0.4170494 0.44560587 -0.31239825 0.27021515
0002e0 d6 c1 d8 3e 4a fa c3 be c0 fb d4 be 18 ee ba 3e
       0.42335385 -0.38276893 -0.4159832 0.36509776
0002f0 fa c2 e0 3e 0b 87 b0 3e fc 78 bb be 42 75 b7 be
       0.43898755 0.3447803 -0.3661574 -0.35831648
000300 ca c8 ae 3e de 79 c2 3e f4 11 7e 3e 90 54 f8 3e
       0.34137565 0.37983602 0.24811536 0.48502016
000310 31 01 eb 3e df 73 ed 3e d3 2b ea 3e 60 32 a2 3e
       0.45899346 0.46377465 0.4573656 0.31679058
000320 fc e1 be 3e 2f b5 92 3e d7 78 80 3e 01 cb 9c 3e
       0.37281787 0.28653857 0.25092193 0.3062363
000330 54 85 b1 3e ef b4 4c 3e a9 1c ef 3e 6a 48 97 3e
       0.34672034 0.19990896 0.46701553 0.29547435
000340 2b 8d ce 3e 73 32 9e 3e 4c bc d2 3e e5 b3 dd 3e
       0.40342078 0.30897865 0.41159284 0.4330131
000350 50 52 7f 3e 6d 89 e1 3e a6 77 dc 3e 98 21 cc 3e
       0.24933743 0.4405016 0.43060035 0.3986938
000360 b4 bd b5 3e c6 9d 02 3f d5 df c7 3e c9 5d f3 3e
       0.35496294 0.51021993 0.39037958 0.4753249
000370 b5 83 e4 3e 06 1c 84 3e c4 53 a6 3e f1 36 d6 3e
       0.44631734 0.2580263 0.32485783 0.41838792
000380 02 78 a7 3e 0e 0b 98 3e 9f 7f c6 3e 37 e0 ca 3e
       0.32708746 0.29695934 0.38769242 0.39624187
000390 10 18 86 3e 1f 06 05 3f 71 c1 a6 3e 9f 6a bd 3e
       0.26190233 0.51962465 0.3256946 0.36995408
0003a0 08 21 94 3e d7 3d d1 3e d1 2f 01 3f e5 57 b4 3e
       0.2893145 0.40867493 0.5046359 0.35223308
0003b0 a3 ec c6 3e c6 d9 89 3e d0 a3 83 3e 9c be e4 3e
       0.38852414 0.2692396 0.25710917 0.44676673
0003c0 e8 e3 88 3e 61 4b ca 3e 45 9f c5 3e 91 e6 ef 3e
       0.2673638 0.39510635 0.38598076 0.46855596
0003d0 9d 98 e1 3e be 06 9d 3e 52 e8 a0 3e 0e ef c7 3e
       0.44061747 0.30669206 0.31427246 0.39049572
0003e0 27 1f ea 3e 1c 17 9a 3e b8 2e 88 3e 40 44 d0 3e
       0.45726892 0.30095756 0.26598144 0.4067707
0003f0 b7 db bb 3e e2 91 dc 3e 57 a0 c5 3e 72 37 c3 3e
       0.36691067 0.4308005 0.38598892 0.3812824

lstm.bias_hh_l0 f4 [256]
000000 e1 5f a2 3e 6e 79 b2 3e 6e 43 8b 3e a1 4e 9f 3e
       0.31713775 0.34858268 0.27199882 0.31114677
000010 16 9c fc 3e 14 c1 a0 3e 3f 07 b7 3e de 49 e2 3e
       0.49337834 0.31397307 0.35747716 0.4419698
000020 d2 88 d5 3e 01 38 be 3e d5 be c9 3e 9d d1 6a 3e
       0.41705948 0.37152103 0.39403406 0.22931524
000030 56 de 89 3e d2 ac c7 3e ef a1 e8 3e cd d1 71 3e
       0.2692744 0.3899904 0.45436046 0.23615189
000040 da 12 e7 3e f2 7e 91 3e 28 b0 ba 3e 60 df bc 3e
       0.4513157 0.28417164 0.36462522 0.36889172
000050 f5 40 de 3e 3d ac a9 3e 88 29 94 3e c1 4e c2 3e
       0.43408933 0.3313922 0.28937936 0.3795071
000060 1f 97 8e 3e 0c 1d c4 3e 53 6d a0 3e 29 9d d4 3e
       0.2784967 0.3830341 0.31333408 0.41526154
000070 16 ed c7 3e a1 c5 af 3e 17 e4 bc 3e 49 30 ad 3e
       0.3904807 0.34330466 0.3689277 0.338259
000080 a0 ec cf 3e ae db 94 3e 49 2c f4 3e 75 1c f8 3e
       0.40610218 0.29073852 0.47690037 0.4845921
000090 29 5c d9 3e 4c b4 d6 3e 70 c0 82 3e 19 2e ed 3e
       0.42453125 0.4193443 0.25537443 0.46324232
0000a0 63 b9 d7 3e a3 3f bf 3e e8 6c c5 3e 76 e2 d6 3e
       0.42133626 0.37353238 0.3855965 0.4196965
0000b0 48 e7 8f 3e 3e f2 c0 3e 78 74 e0 3e cc b1 e7 3e
       0.2810614 0.37684816 0.4383886 0.45252836
0000c0 b0 7d ab 3e 4b 78 d2 3e 0c 8d b0 3e f3 7c b2 3e
       0.3349433 0.411074 0.3448261 0.34860954
0000d0 f8 5b ba 3e 37 ea ae 3e 21 f9 fb 3e 36 ad b0 3e
       0.36398292 0.34163067 0.49213508 0.3450715
0000e0 96 b7 fc 3e 03 a0 bd 3e 33 23 ae 3e 6d 3a 05 3f
       0.49358815 0.37036142 0.3401123 0.52042276
0000f0 17 2f a5 3e a3 3a e5 3e 26 f1 ba 3e 45 be e6 3e
       0.3226249 0.447713 0.36512107 0.4506704
000100 c1 09 a3 20 78 da 0c 94 0a 73 ec 2f 56 1f 08 9b
       2.7619729e-19 -7.111279e-27 4.300989e-10 -1.1259782e-22
000110 a2 24 ac 04 0c 99 6e 24 94 ba 6b 87 48 66 ca 8b
       4.0470648e-36 5.173766e-17 -1.7734265e-34 -7.7961465e-32
000120 09 f1 aa 2e 03 b2 fc 06 ab b9 90 1d 94 2b 99 8b
       7.7735214e-11 9.505343e-35 3.830846e-21 -5.8999025e-32
000130 83 f9 18 96 11 c1 41 8f 5e 22 4b 8d 3f 80 be ad
       -1.2357194e-25 -9.552818e-30 -6.2595573e-31 -2.1657452e-11
000140 4d 4a 20 9c 28 59 aa 04 0a e2 12 84 cd 27 13 84
       -5.303559e-22 4.0048685e-36 -1.726601e-36 -1.7298043e-36
000150 61 6e ee 82 94 1c 40 98 25 6d d0 0e 27 7c b2 2e
       -3.5034311e-37 -2.4829847e-24 5.138106e-30 8.116557e-11
000160 d7 1d e0 89 5e 85 61 8d 66 1f 68 03 1a 94 22 2a
       -5.39541e-33 -6.9494013e-31 6.8214716e-37 1.4439873e-13
000170 56 c4 9c 0d 10 91 34 25 aa 42 87 93 21 86 11 04
       9.661508e-31 1.566166e-16 -3.4144527e-27 1.7106257e-36
000180 73 4a 42 2b b5 61 48 18 35 63 94 9f 35 ee f8 82
       6.9025964e-13 2.5898724e-24 -6.284456e-20 -3.657705e-37
000190 06 f6 29 04 f6 cc ba 8b 3a bd 69 9d c6 c5 a3 02
       1.9978823e-36 -7.1952985e-32 -3.0935121e-21 2.4064214e-37
0001a0 c6 3f 9a 9c 61 c8 79 82 a5 94 84 03 84 97 3d 2d
       -1.020735e-21 -1.8351137e-37 7.79239e-37 1.0777049e-11
0001b0 ba b0 2a 83 22 73 8e 12 17 95 c9 8b 50 be 1c 27
       -5.016138e-37 8.989842e-28 -7.764671e-32 2.1752518e-15
0001c0 46 fe 81 20 de 8d a8 84 8f 4a bb a3 0f 96 6a 03
       2.2021714e-19 -3.9626895e-36 -2.0306157e-17 6.893868e-37
0001d0 9a 86 d6 02 91 df a5 03 57 8a 7a 90 7b a8 db 2f
       3.1521731e-37 9.749157e-37 -4.941038e-29 3.995558e-10
0001e0 24 f1 53 88 54 ea 28 25 1a aa 7f a8 eb 31 e7 0b
       -6.3778962e-34 1.465107e-16 -1.41922285e-14 8.905307e-32
0001f0 f5 b1 ae 2e b4 b3 ab a1 a8 0d c0 9d 34 bf 78 2f
       7.9442154e-11 -1.1634978e-18 -5.0836097e-21 2.2623398e-10
000200 b5 0c 9b 3e 4b 73 b5 3e 7d a1 d9 3e 9f 1f ee be
       0.30283132 0.35439524 0.42506018 -0.465085
000210 ab ce e1 be b1 dc e6 3e 28 5e 89 be ba d7 b7 3e
       -0.44102988 0.4509025 -0.26829648 0.35906774
000220 ee 21 b5 be a1 e0 c7 be 77 d0 e6 be 66 ba bc 3e
       -0.3537745 -0.39038566 -0.4508092 0.3686096
000230 3e be 97 be 75 36 94 3e 28 a9 bb 3e de 92 b1 3e
       -0.2963733 0.28947797 0.36652493 0.34682363
000240 51 7a a7 3e 10 2b e8 be 9c 1d b1 3e 25 63 b2 be
       0.32710508 -0.45345354 0.34592903 -0.34841266
000250 b9 76 be 3e 19 e1 f9 be b7 ba bf be 3c 5e 70 3e
       0.37199953 -0.48804548 -0.3744714 0.23473448
000260 dd c5 b2 be a2 08 97 3e 66 74 d6 3e 48 85 e1 be
       -0.34916583 0.29498774 0.4188568 -0.44046998
000270 5a 9e dc be 1f 79 e0 be 90 ee 9d be cf 94 dc 3e
       -0.43089563 -0.43842408 -0.3084607 0.43082282
000280 2c 89 8a 3e 00 5e e3 3e 90 33 93 3e 26 60 ca 3e
       0.2705778 0.44407654 0.28750277 0.3952648
000290 71 47 e0 be 99 4e f3 3e a3 f0 dc 3e 1d 87 bf be
       -0.43804505 0.47520903 0.4315234 -0.3740777
0002a0 9c 3e cc 3e 2e c8 c0 3e ca 94 a9 3e 22 a2 d2 be
       0.39891517 0.37652725 0.3312133 -0.41139323
0002b0 11 f8 ce be c2 64 d1 3e 3c 1f c6 be 31 8f d2 3e
       -0.40423635 0.40897185 -0.38695705 0.4112487
0002c0 19 65 a9 be 72 b0 e2 3e 2b 58 92 be cc 1d b1 be
       -0.33084944 0.44275242 -0.28582892 -0.34593046
0002d0 36 80 c4 3e 6d ae bc 3e 91 42 e4 be 5d 24 b5 3e
       0.38379067 0.36851826 -0.44582036 0.35379305
0002e0 82 0d 99 3e 1f 1d d2 be e6 a5 a6 be b0 57 dd 3e
       0.29893118 -0.41037843 -0.32548445 0.43230963
0002f0 80 67 6e 3e 3b 98 d5 3e bc dd ae be 6d 65 b9 be
       0.2328167 0.41717705 -0.34153545 -0.36210194
000300 8c 1f f6 3e f6 e5 9f 3e f8 aa 8b 3e 9b 17 a7 3e
       0.48070943 0.31230134 0.27278876 0.32635197
000310 35 6c af 3e 51 e6 fd 3e aa 7b 80 3e bf fe c6 3e
       0.34262243 0.4958978 0.25094348 0.3886623
000320 ba 58 d6 3e 2f 93 6f 3e c1 ec bb 3e bf ae c6 3e
       0.41864568 0.2339599 0.36704066 0.38805196
000330 f1 e9 d2 3e 30 bf 8d 3e e4 9f b2 3e c8 aa b7 3e
       0.41194108 0.27684927 0.34887612 0.35872483
000340 cb 57 b8 3e b9 26 00 3f a1 20 f8 3e 22 b9 b4 3e
       0.3600448 0.50059086 0.48462394 0.35297495
000350 8a 87 ef 3e a5 a1 8f 3e 02 ae 8b 3e e8 c9 5d 3e
       0.46783096 0.28053012 0.27281195 0.21659052
000360 ff 98 6e 3e 64 30 ce 3e 71 12 cd 3e 99 c8 b4 3e
       0.23300551 0.40271294 0.40053132 0.35309294
000370 31 f9 c5 3e 15 43 93 3e ec 9b d4 3e 05 3c a6 3e
       0.3866668 0.28762117 0.4152521 0.32467666
000380 1a 11 c7 3e de b5 d9 3e 81 30 b5 3e b4 13 a4 3e
       0.38880235 0.42521566 0.35388568 0.32046282
000390 d5 91 e2 3e a3 2d c4 3e d9 fe 9f 3e 82 a6 e5 3e
       0.44251886 0.38316068 0.3124912 0.44853598
0003a0 7f f9 ad 3e e9 d2 89 3e be 24 95 3e 28 ed 90 3e
       0.33979413 0.26918724 0.29129595 0.28305936
0003b0 89 31 dd 3e be 98 c1 3e 4d 0c d0 3e 0c f4 a2 3e
       0.43201855 0.37811846 0.40634385 0.31826818
0003c0 eb 0f ca 3e 9f c3 e8 3e 1b fc 8c 3e b7 a5 f2 3e
       0.3946527 0.45461747 0.2753609 0.47392055
0003d0 af 48 f4 3e 58 a6 e4 3e 0d f7 c8 3e cb b0 e0 3e
       0.47711703 0.4465816 0.39250985 0.43884882
0003e0 b2 1d 9c 3e dc fb c8 3e de 57 a9 3e aa 7d bb 3e
       0.30491406 0.39254653 0.3307485 0.36619312
0003f0 fa a5 80 3e 8c d6 ef 3e 68 03 d1 3e 07 c5 03 3f
       0.2512663 0.46843374 0.4082291 0.51472515

lstm.weight_ih_l1 f4 [256, 64]
000000 8d c4 b1 3e bf 10 d8 3e 50 92 b3 3e de 14 d5 be
       0.3472027 0.42200276 0.35072565 -0.41617483
000010 ed 89 a7 be 24 35 8c 3e 21 58 7f be c6 dd 84 3e
       -0.32722417 0.27384293 -0.24935962 0.2595045
000020 d2 41 6b be 61 46 c6 be f7 a0 9f be a6 ff 94 3e
       -0.22974327 -0.3872557 -0.31177494 0.29101294
000030 21 15 3b be d8 ee 8e 3e 7e 71 91 3e c3 e1 2b 3e
       -0.18269779 0.27916598 0.284069 0.1678534
000040 38 3a 8c 3e 5c 11 4a be 62 8a 4e 3e 24 48 cd be
       0.27388167 -0.19733185 0.20169976 -0.400941
000050 14 a5 c5 3e 09 17 d3 be 35 18 d1 be 9b 05 5e 3e
       0.38602507 -0.41228512 -0.4083878 0.21681826
000060 e6 fc c7 be 39 cc 8c 3e 0d 7e 6d 3e a1 73 d7 be
       -0.39060134 0.2749956 0.23192616 -0.42080405
000070 17 40 ac be 90 50 8c be 69 53 9c be a0 5b dd 3e
       -0.33642647 -0.27405214 -0.30532387 0.43233967
000080 8d ae b1 3e ba 76 7b 3e 30 90 28 3e 9e 4e b8 3e
       0.34703484 0.2455701 0.16461253 0.3599748
000090 f2 d4 35 be b8 7d a0 3e df 9c 98 3e 9a 10 b6 be
       -0.17757013 0.31345916 0.29807183 -0.3555954
0000a0 aa 72 c8 3e ea ee 6e 3e 5f b0 e0 3e 76 6a 4f be
       0.39149982 0.23333326 0.4388456 -0.20255455
0000b0 6b 17 db be 4e 4a a4 3e 29 98 64 be c9 93 8f 3e
       -0.42791304 0.3208794 -0.2232367 0.2804244
0000c0 e4 cf e2 be ca fd 91 3e f0 26 9d be 54 c3 c2 be
       -0.44299233 0.28513938 -0.3069377 -0.3803965
0000d0 ae a5 7d 3e a5 3e 8f 3e 53 52 cb be d4 60 be 3e
       0.24770233 0.2797748 -0.39711246 0.3718325
0000e0 86 69 b4 3e 79 cd ad be e8 b0 43 be 85 d9 c8 3e
       0.35236758 -0.33945826 -0.19110453 0.39228454
0000f0 3d c0 6e 3e 78 2b b7 3e 02 fb 95 be 71 8d ed be
       0.2331552 0.35775352 -0.29293066 -0.46396974
000100 64 b3 94 3e c6 c5 a6 3e fd 4b 1a 3e 02 da b3 be
       0.29043114 0.32572764 0.1506805 -0.35127264
000110 2f 89 cf be a2 d0 71 3e 5f 3e 96 be 16 89 b8 3e
       -0.4053435 0.23614743 -0.2934446 0.36042088
000120 f2 fb d2 be 31 e6 ca be af 48 99 be 5d 02 d5 3e
       -0.41207844 -0.39628747 -0.29938266 0.41603366
000130 39 86 a8 be 6c 4d a4 3e 61 5a c9 3e 66 d0 12 3e
       -0.32914904 0.32090318 0.39326766 0.1433731
000140 a0 d3 c6 3e 4b 98 ad be 31 c4 92 3e 55 f4 a3 be
       0.38833332 -0.33905253 0.28665307 -0.32022348
000150 71 b5 c2 3e e7 06 47 be 61 48 a3 be 67 22 1a 3e
       0.38029054 -0.19436227 -0.31891158 0.15052186
000160 fd 29 b8 be ec 1b d9 3e b0 bc bb 3e 68 7a 53 be
       -0.35969535 0.42404115 0.36667395 -0.20652163
000170 44 81 96 be 52 8d 94 be 87 63 f4 be b9 c3 8e 3e
       -0.29395497 -0.2901407 -0.47732183 0.278837
000180 b2 b3 be 3e 44 63 88 3e 1b c8 74 3e 8b db ad 3e
       0.37246472 0.26638234 0.23904459 0.3395656
000190 70 44 69 be 70 25 20 3e ae 02 45 3e a5 0e 99 be
       -0.22780013 0.15639281 0.19239303 -0.29893985
0001a0 22 e5 9b 3e 87 9f a2 3e f3 12 d2 3e 76 f5 d1 be
       0.30448252 0.31762335 0.41030082 -0.41007584
0001b0 21 2f 37 be 41 d5 d0 3e 51 44 3b be e5 fe 78 3e
       -0.17889072 0.407877 -0.1828778 0.24315985
0001c0 fe 18 f3 be 47 ba 72 3e 34 f8 bd be 8a 93 83 be
       -0.47480005 0.23703872 -0.37103426 -0.256985
0001d0 85 c0 31 3e 70 aa 94 3e f2 f4 ac be 4d 07 b9 3e
       0.17358597 0.29036283 -0.33780628 0.36138383
0001e0 ee a1 c4 3e 2b 04 77 be 53 67 ad be c4 97 63 3e
       0.38404793 -0.24122684 -0.33867893 0.22225863
0001f0 81 39 c9 3e e1 ef db 3e c1 32 65 be 73 b1 ca be
       0.39301684 0.4295645 -0.22382642 -0.39588508
000200 1b b1 90 3e 9a 7a 81 3e a2 e0 91 3e 93 cf 6b be
       0.2826012 0.2528885 0.28491694 -0.23028402
000210 ef 65 aa be 0f 02 36 3e d5 74 bb be e5 d9 3a 3e
       -0.33280894 0.17774223 -0.36612573 0.18247183
000220 4f 97 db be 72 07 af be c8 c6 a0 be 1f 12 d2 3e
       -0.42888877 -0.34185368 -0.31401658 0.4102945
000230 67 05 7a be ac 4e 87 3e 66 13 44 3e 82 29 c0 3e
       -0.24416123 0.2642721 0.19148025 0.37531668
000240 51 19 cf 3e b0 1f ab be 19 31 8f 3e a6 dc b4 be
       0.40449002 -0.33422613 0.27967146 -0.3532459
000250 13 06 ec 3e 1b 3f cf be 88 d9 b6 be 1a b3 59 3e
       0.46098384 -0.40477833 -0.35712838 0.21259728
000260 3c 1b aa be 13 5e 96 3e d4 1f 7e 3e d2 af 91 be
       -0.33223903 0.29368648 0.24816829 -0.28454453
000270 63 b4 b5 be c1 06 88 be ab 24 94 be d6 4a a9 3e
       -0.35489187 -0.26567653 -0.28934225 0.33064908
000280 63 ac cc 3e bd 81 ba 3e 67 bb 42 3e 6a fd d5 3e
       0.3997527 0.36427107 0.19016801 0.41794902
000290 aa d6 d2 be 50 e1 bc 3e cf 5b 76 3e e8 6e b7 be
       -0.411794 0.3689065 0.2405846 -0.35826802
0002a0 a0 8c bd 3e 42 4c c6 3e 06 30 69 3e a0 8d 98 be
       0.3702135 0.38730055 0.22772226 -0.2979555
0002b0 a6 cc 83 be e1 24 9e 3e c0 95 84 be 63 59 2f 3e
       -0.25742072 0.3088751 -0.258955 0.17123942
0002c0 94 57 d2 be e2 a7 a9 3e 60 76 75 be b6 93 8e be
       -0.41082442 0.33135897 -0.23970938 -0.2784707
0002d0 00 ef 64 3e ec b2 89 3e 50 eb 45 be 30 6b a4 3e
       0.22356796 0.2689432 -0.19328046 0.32113028
0002e0 d2 68 99 3e 6f 95 d7 be 87 f5 96 be f7 87 ce 3e
       0.29962784 -0.42106196 -0.29484197 0.40338108
0002f0 c7 3a 5d 3e 9e 25 c3 3e 0a a0 7e be 8d 95 71 be
       0.21604453 0.38114637 -0.24865738 -0.23592205
000300 82 8b 7e 3e 1e fc c0 3e 46 73 87 3e 98 65 9b be
       0.24857906 0.3769235 0.26455134 -0.30350947
000310 27 d9 74 be 36 74 8b 3e 6b ee 24 be 9c c7 a8 3e
       -0.23910962 0.272371 -0.16106574 0.3296479
000320 09 84 af be 1f a9 66 be ae 51 89 be 82 2c ca 3e
       -0.34280422 -0.22525452 -0.2682013 0.39487082
000330 58 51 ad be 78 3a a8 3e 51 3c c5 3e 34 0f 94 3e
       -0.33851123 0.32857108 0.3852258 0.2891785
000340 67 b1 5d 3e c0 b6 af be e6 0f bf 3e fb 90 94 be
       0.21649705 -0.34319115 0.37316817 -0.2901686
000350 3f 68 bc 3e 18 9c 47 be c1 a7 91 be 66 07 c5 3e
       0.36798283 -0.19493139 -0.284483 0.38482207
000360 c1 54 97 be b6 5d 3d 3e f7 64 95 3e f5 13 aa be
       -0.2955685 0.18492779 0.29178593 -0.3321835
000370 a1 89 b8 be 90 d4 9b be 76 16 b9 be 19 bb 47 3e
       -0.36042503 -0.3043561 -0.3614995 0.19504966
000380 c4 37 e0 3e 1d 80 c0 3e 37 ea 35 3e 09 ba 8f 3e
       0.43792546 0.37597743 0.17765127 0.2807162
000390 6b 66 a9 be 51 d2 49 3e fd 00 91 3e 6f 19 af be
       -0.3308595 0.19709136 0.28321066 -0.34199092
0003a0 71 65 c1 3e 59 25 c0 3e be b4 c4 3e 99 90 bf be
       0.37772706 0.37528494 0.38419145 -0.37415007
0003b0 22 84 af be e7 5f bf 3e ab f5 5f be c1 71 94 3e
       -0.34280497 0.37377855 -0.21871059 0.28993037
0003c0 2a d7 b4 be d5 c2 90 3e fd 60 6b be 6c 75 ce be
       -0.35320407 0.28273645 -0.22986217 -0.4032396
0003d0 ca c2 a4 3e 65 89 5d 3e 90 5c bd be 12 78 c5 3e
       0.32179862 0.21634443 -0.36984682 0.3856817
0003e0 61 98 8e 3e c9 29 b6 be e6 9a 21 be e0 bd 88 3e
       0.2785063 -0.35578755 -0.15781745 0.26707363
0003f0 35 f3 a5 3e 03 3e aa 3e 09 a1 a9 be d1 d4 e1 be
       0.32412115 0.33250436 -0.33130673 -0.4410768

lstm.weight_hh_l1 f4 [256, 64]
000000 a2 6a a8 84 98 2e 8a 02 f0 46 d0 2c 27 11 28 ab
       -3.9594537e-36 2.030402e-37 5.919591e-12 -5.9709393e-13
000010 6f 95 d8 0b 1b db b1 a7 74 4b 38 02 4a 94 51 25
       8.3425016e-32 -4.9364923e-15 1.3539839e-37 1.8178103e-16
000020 c8 82 4a 80 d9 70 34 23 e6 e4 7d 1a 1b 43 13 84
       -6.842742e-39 9.781716e-18 5.2504076e-23 -1.731058e-36
000030 fd 69 ee 2a ee 6a 16 84 71 9b e9 9c d9 85 19 ae
       4.2350837e-13 -1.7681515e-36 -1.5458827e-21 -3.4907053e-11
000040 92 9c 23 93 03 23 33 98 90 4d 71 1c 2a 34 a9 84
       -2.0650688e-27 -2.3152884e-24 7.984046e-22 -3.9779614e-36
000050 21 a3 9e 1d 20 03 e1 a6 d5 a4 16 2e c2 fc 13 84
       4.1990923e-21 -1.5613358e-15 3.425245e-11 -1.7395828e-36
000060 47 17 ab 04 1a f8 c5 8b f8 0a 3d 02 48 ba 0f 04
       4.0223284e-36 -7.625494e-32 1.3888675e-37 1.6895105e-36
000070 6b d5 ce 98 4a 36 46 19 61 d7 c3 02 3c 71 00 03
       -5.346525e-24 1.0247324e-23 2.8776296e-37 3.7745806e-37
000080 28 97 d5 0b 43 96 c4 1d 0f d8 3b 86 3b a6 2d 10
       8.227205e-32 5.2036135e-21 -3.5329526e-35 3.4246293e-29
000090 a0 65 20 80 29 49 77 92 70 25 e7 82 66 13 e2 10
       -2.975192e-39 -7.8029634e-28 -3.3963887e-37 8.917117e-29
0000a0 c9 97 8a 03 dc b5 bb 0d f9 93 0f 84 c9 14 21 8f
       8.145759e-37 1.1568546e-30 -1.6877515e-36 -7.941916e-30
0000b0 3f 6d e1 a7 fe 0e 84 a8 7e 37 04 11 5e 76 a5 02
       -6.256849e-15 -1.4661446e-14 1.0430064e-28 2.431251e-37
0000c0 8b 28 94 25 61 f1 03 27 f2 d4 21 8d 45 f8 5b 22
       2.570138e-16 1.8310754e-15 -4.986828e-31 2.9811467e-18
0000d0 c5 09 a6 0d f4 29 fb 02 08 36 18 af 29 91 93 9e
       1.0232892e-30 3.6905215e-37 -1.3843515e-10 -1.5624267e-20
0000e0 db a8 9b 04 48 0b c0 ad f7 c6 ae a5 e0 2c 6c ac
       3.6595394e-36 -2.1832883e-11 -3.0319012e-16 -3.3562528e-12
0000f0 aa e5 3f ad 7e 69 be 9d c7 7b 35 02 f8 a8 dc 95
       -1.0908089e-11 -5.0401658e-21 1.3333302e-37 -8.912388e-26
000100 38 89 f7 af 8a f3 88 03 88 9f be ae 5f 55 61 2e
       -4.5026538e-10 8.049275e-37 -8.668538e-11 5.1234902e-11
000110 d8 0f 1e 15 c2 49 b3 82 4c 09 22 8a 8c 94 2c 25
       3.1920344e-26 -2.634402e-37 -7.801765e-33 1.4968952e-16
000120 87 8b 14 28 da b8 a1 05 fd bd 0c ac d1 be 34 85
       8.2459056e-15 1.5208271e-35 -2.0000661e-12 -8.498607e-36
000130 aa eb 1c 99 b8 d6 39 29 3d 06 36 03 ae e5 95 03
       -8.112603e-24 4.126449e-14 5.3492154e-37 8.810165e-37
000140 eb 25 2a a1 ea b6 b8 2d 44 88 48 83 30 16 1b 83
       -5.7648424e-19 2.0999608e-11 -5.8931143e-37 -4.5575876e-37
000150 40 31 a9 84 a0 8a 18 a3 8b 3b b7 a9 5a fd d3 27
       -3.9776938e-36 -8.2692915e-18 -8.1371616e-14 5.883895e-15
000160 0a 8e 14 83 cb fd 77 82 be 03 47 15 47 d6 86 25
       -4.3656344e-37 -1.8219529e-37 4.0190682e-26 2.3390495e-16
000170 bc 2e 86 01 c7 d0 89 03 12 1b 15 84 3e 77 9f aa
       4.9290886e-38 8.100069e-37 -1.7527296e-36 -2.8326815e-13
000180 41 de 80 8e 41 3e f9 02 5a 31 12 04 71 7d 53 26
       -3.176846e-30 3.6622994e-37 1.7184879e-36 7.3375335e-16
000190 86 0f fa 01 6a 82 97 0e b7 ce b3 0e c9 41 e8 a2
       9.185777e-38 3.734996e-30 4.4325966e-30 -6.295338e-18
0001a0 96 15 7a af 2a 5e 61 2e 64 09 f5 13 e1 66 1e 8b
       -2.2745036e-10 5.124271e-11 6.1855955e-27 -3.050709e-32
0001b0 82 3f ae ab 4f 49 19 16 7f d7 04 a7 9c 5b 34 85
       -1.2381071e-12 1.2382374e-25 -1.84355e-15 -8.480385e-36
0001c0 0e d4 12 84 1d cc a9 04 3c b6 0d 84 5f 78 62 19
       -1.7259588e-36 3.9919158e-36 -1.6658148e-36 1.1708235e-23
0001d0 34 24 37 0f fa c3 10 04 df e6 92 0b b8 e0 45 ab
       9.029569e-30 1.7017107e-36 5.658453e-32 -7.030032e-13
0001e0 e7 10 37 2b fc 26 bd 06 27 bd 5e 1d 97 7b 21 8d
       6.5038117e-13 7.115118e-35 2.9479245e-21 -4.976072e-31
0001f0 29 c0 16 16 aa fc d2 aa 45 d6 ae 29 9f bc 3b a9
       1.2177539e-25 -3.7478815e-13 7.764322e-14 -4.1685944e-14
000200 38 1a 04 2c 02 8d 5e ac 4b 95 4b ad 3d cf b8 05
       1.8772883e-12 -3.1626373e-12 -1.1572364e-11 1.7379404e-35
000210 f9 09 ee 18 47 9b 34 85 ae 14 31 87 e6 d2 ca a1
       6.1531628e-24 -8.492079e-36 -1.3322077e-34 -1.3743877e-18
000220 a7 bd 26 2d 93 22 8b 07 72 11 0a 03 c7 62 13 04
       9.478119e-12 2.0934716e-34 4.057458e-37 1.7325123e-36
000230 f2 25 b7 0d 5f e4 8d 1d 24 26 b9 07 ea 42 47 ae
       1.1287381e-30 3.755852e-21 2.7858123e-34 -4.5306793e-11
000240 03 43 67 a9 7f 67 ce 0c fb cf 20 83 4b 9e 9f 07
       -5.1350427e-14 3.1801615e-31 -4.7258524e-37 2.4016697e-34
000250 67 b4 96 03 83 87 df 2a 00 f9 0c 16 80 a7 b9 1d
       8.857626e-37 3.9706788e-13 1.138768e-25 4.9142283e-21
000260 fa 17 0e 03 7d 1d 14 04 76 c1 b5 99 9f 78 ab 84
       4.1757573e-37 1.7410857e-36 -1.87931e-23 -4.031268e-36
000270 50 31 54 95 a5 e6 0e 04 c2 17 90 0b 54 bd 8c 82
       -4.285196e-26 1.6797927e-36 5.550253e-32 -2.067982e-37
000280 ca 86 4d 99 33 fb 71 8d 79 58 83 82 d2 1a 1f 99
       -1.0625472e-23 -7.456623e-31 -1.92995e-37 -8.225524e-24
000290 10 e7 a6 98 b0 f7 e6 82 85 2e 41 ab 64 90 fa 02
       -4.3143308e-24 -3.3937628e-37 -6.8631933e-13 3.6817075e-37
0002a0 ed d3 9f 25 88 4d 10 9e ca af 1a 01 9c 94 81 83
       2.772571e-16 -7.63933e-21 2.8411455e-38 -7.616058e-37
0002b0 66 4f ab 87 eb 68 04 14 da cb 03 a9 e5 41 72 23
       -2.5775887e-34 6.684988e-27 -2.9264656e-14 1.31328e-17
0002c0 23 7e f7 23 a8 3f 16 03 8b 18 76 03 3c ac 31 24
       2.6833215e-17 4.415411e-37 7.2321077e-37 3.8526645e-17
0002d0 89 3e 10 ac f8 37 ae 14 a4 c2 27 2d e9 61 36 82
       -2.0498345e-12 1.7591586e-26 9.53607e-12 -1.3399347e-37
0002e0 75 56 a0 27 93 db e2 86 51 99 96 8e c6 4c 9c 0d
       4.450266e-15 -8.5334387e-35 -3.7125493e-30 9.632725e-31
0002f0 09 2d 79 2b e2 4f 0e b0 ed be f5 ad d2 b9 d2 2e
       8.852507e-13 -5.177282e-10 -2.7938063e-11 9.582703e-11
000300 fc 8c 86 01 d3 e3 fd 27 8e 34 8f 1e c0 a8 aa 04
       4.942613e-38 7.0468614e-15 1.516245e-20 4.012178e-36
000310 5e 07 12 0b 01 17 01 a7 da b8 e5 2c 6d 81 33 05
       2.812412e-32 -1.7914817e-15 6.529094e-12 8.440311e-36
000320 9a d3 b0 02 aa 57 fc 0e d4 d6 51 a7 42 a4 fe 02
       2.598233e-37 6.2207214e-30 -2.9121035e-15 3.7416225e-37
000330 47 8e c1 1d 4b 32 ce 2b 78 ac de 9e fb 55 83 04
       5.1233786e-21 1.465114e-12 -2.3576496e-20 3.0876913e-36
000340 be 25 aa 04 3a 48 8a 01 38 10 87 a7 4a 94 d2 2d
       4.000147e-36 5.0796834e-38 -3.748761e-15 2.394009e-11
000350 2e c7 11 84 2f 34 88 9d 74 45 13 aa 9a ab 59 af
       -1.7136127e-36 -3.6052857e-21 -1.3080319e-13 -1.9797e-10
000360 e6 c4 74 ad 82 d9 a6 18 2a 8a 1b 02 aa 7e 5f 25
       -1.39135144e-11 4.312962e-24 1.1427253e-37 1.9385082e-16
000370 a4 fe bc 86 e5 2c a9 84 65 34 b9 05 ae c2 15 a9
       -7.10919e-35 -3.9772938e-36 1.7416563e-35 -3.3253504e-14
000380 92 0f 92 18 19 4d 0f 84 63 9c bf 17 47 ee 07 03
       3.7755837e-24 -1.684497e-36 1.2382563e-24 3.9946463e-37
000390 ee fc 14 96 7f f8 d8 28 8c a7 94 23 07 26 94 98
       -1.2035155e-25 2.4088585e-14 1.6117151e-17 -3.82955e-24
0003a0 db 22 be aa 7d 85 08 2a d1 73 e7 03 75 95 b6 aa
       -3.3774966e-13 1.212554e-13 1.360355e-36 -3.24334e-13
0003b0 98 94 2c 98 65 08 8a 9d a8 65 cc 10 60 a6 85 82
       -2.23055e-24 -3.6536976e-21 8.062044e-29 -1.9638088e-37
0003c0 79 36 a9 84 69 06 af 0b c9 0d ac 02 be b2 91 1d
       -3.9781734e-36 6.7417193e-32 2.528104e-37 3.8565996e-21
0003d0 1a 18 12 03 bb 98 4c 8e 42 93 74 0e 42 6d 8d 03
       4.293321e-37 -2.5218478e-30 3.0146224e-30 8.3123195e-37
0003e0 f8 4c aa 0e 8d d8 b3 18 3a 06 aa 04 f7 e5 98 03
       4.1982354e-30 4.6489076e-24 3.9972526e-36 8.986554e-37
0003f0 2b 96 b3 83 b9 87 ae a5 55 72 94 8e 3c d3 f8 23
       -1.0555151e-36 -3.0276158e-16 -3.6594915e-30 2.6977675e-17

lstm.bias_ih_l1 f4 [256]
000000 cf ef bf 3e 35 56 a7 3e 92 ef b9 3e 16 01 a3 3e
       0.37487647 0.32682958 0.3631559 0.31836766
000010 5c 56 61 3e d9 2a bd 3e 01 0a 84 3e fb 24 34 3e
       0.220056 0.36946753 0.25788882 0.17592232
000020 af 99 95 3e 21 06 8d 3e c2 f7 b2 3e cd 24 96 3e
       0.29218814 0.27543738 0.3495465 0.29324952
000030 86 99 9e 3e 9b fa a6 3e 65 08 80 3e 13 19 cb 3e
       0.30976504 0.32613072 0.25006405 0.39667568
000040 c7 22 ce 3e f2 16 95 3e 36 df 2b 3e b4 69 ba 3e
       0.40260908 0.29119068 0.16784367 0.3640877
000050 11 d0 b7 3e d3 65 5b 3e 63 a5 d2 3e b7 a2 5e 3e
       0.3590093 0.21425562 0.41141805 0.21741758
000060 0c 05 dc 3e c3 64 34 3e b8 2d b7 3e 19 19 96 3e
       0.429726 0.17616563 0.35777068 0.29316023
000070 b9 7c 86 3e 2e 6a 5b 3e 5f ce 93 3e 2f 35 6b 3e
       0.2626703 0.21427223 0.28868386 0.22969507
000080 dc f0 86 3e 66 45 d0 3e dd ef 1a 3e e4 64 82 3e
       0.26355636 0.40677947 0.15130563 0.25467598
000090 3e 34 c4 3e 4b ea ae 3e 5f b3 3e 3e 34 75 d2 3e
       0.38321108 0.34163126 0.18623112 0.41105044
0000a0 ff 52 b4 3e 1d c3 ac 3e ee cb 5f 3e a5 30 a0 3e
       0.3521957 0.3374261 0.21855137 0.31287113
0000b0 34 e1 6d 3e 88 b0 79 3e 41 33 ae 3e d4 7f bc 3e
       0.2323044 0.24383748 0.3402348 0.36816275
0000c0 d6 46 c6 3e 5c 14 a7 3e 9d ef 4b 3e c3 3f 89 3e
       0.3872592 0.3263272 0.19915624 0.2680646
0000d0 8e ad d3 3e 2a 6f 9f 3e c6 17 8d 3e bb a4 a0 3e
       0.4134335 0.311395 0.275572 0.3137568
0000e0 04 8b be 3e a4 f5 bd 3e a2 07 ca 3e 3d 5f 19 3e
       0.37215436 0.3710147 0.39458948 0.14977737
0000f0 c4 1d bb 3e 0f 32 4b 3e 21 6b 4a 3e 1a 81 66 3e
       0.36546147 0.19843315 0.19767429 0.22510186
000100 19 17 6c 07 b1 45 8e a7 e7 04 49 10 75 a9 81 af
       1.7761454e-34 -3.9488477e-15 3.9644037e-29 -2.358537e-10
000110 17 c3 d5 2d 33 b0 a1 8b 29 be 83 94 4a 42 09 25
       2.4301934e-11 -6.228006e-32 -1.3302625e-26 1.1905315e-16
000120 a7 90 0d 30 79 73 71 82 e2 7c a8 1c 9a f1 a3 07
       5.1501065e-10 -1.7739023e-37 1.1149589e-21 2.4667515e-34
000130 f5 07 9b 95 d0 c4 24 02 fc 68 4a 82 ad bc a9 04
       -6.2616555e-26 1.21053e-37 -1.4870745e-37 3.990498e-36
000140 9a 33 3c 2e c7 4d c9 2e b0 73 bb aa 40 a4 f4 a9
       4.2792082e-11 9.154238e-11 -3.3298147e-13 -1.08642696e-13
000150 fb 11 4f 2d bb f7 ce 8e 6e 13 e4 13 84 62 31 23
       1.177058e-11 -5.1021477e-30 5.757445e-27 9.616051e-18
000160 96 f1 0f 94 00 34 c0 af b2 b5 db 15 b0 78 31 00
       -7.2672994e-27 -3.4961545e-10 8.874006e-26 4.543234e-39
000170 19 0a c7 82 f9 c0 40 9e 19 f2 9c 2d 2a ba 18 28
       -2.9246218e-37 -1.0204301e-20 1.784266e-11 8.478063e-15
000180 00 31 5d 94 86 f7 35 88 76 f1 a1 a4 1e 03 a7 83
       -1.1167312e-26 -5.475867e-34 -7.023167e-17 -9.8160935e-37
000190 6a bd 1e 2d 55 f7 7d 2f f2 a8 ef 12 f3 61 83 97
       9.0233186e-12 2.3098086e-10 1.5124669e-27 -8.490402e-25
0001a0 57 24 90 2f d0 68 93 9e a2 ab 2b ae 65 30 3e a7
       2.6219268e-10 -1.560758e-20 -3.903334e-11 -2.6394032e-15
0001b0 88 5f a8 25 05 07 75 15 c7 80 a6 82 0f d4 0e 84
       2.920809e-16 4.9482893e-26 -2.4465422e-37 -1.6789392e-36
0001c0 ca 90 bd 82 5c 5d 82 83 6f f6 cf 94 dd d9 8f 83
       -2.785416e-37 -7.6621475e-37 -2.099886e-26 -8.454804e-37
0001d0 7b 31 62 ac ab c1 c8 aa d1 a1 b0 8e 01 01 24 05
       -3.2143999e-12 -3.566152e-13 -4.3543173e-30 7.711427e-36
0001e0 b2 12 d7 83 95 ac 19 03 00 dd 87 83 6b 19 ef 02
       -1.26408565e-36 4.5160773e-37 -7.985326e-37 3.5132483e-37
0001f0 a4 25 2e 17 31 aa 36 82 77 f0 c1 21 91 08 b5 02
       5.626994e-25 -1.3420091e-37 1.3141839e-18 2.6600477e-37
000200 de 6f 89 3e a5 83 8b bd 14 39 4f be 62 c9 35 3e
       0.2684316 -0.068122186 -0.20236617 0.17752603
000210 ee 10 7a be f8 4a a0 bd dd fe 91 3e e6 44 e3 bd
       -0.2442052 -0.07826799 0.28514758 -0.11097126
000220 76 a2 05 be fa 25 7c be a0 5a 92 3e 3e fc ed bd
       -0.13050255 -0.24623862 0.28584766 -0.11620377
000230 36 cc 75 3e a3 ed 66 be 30 82 4a be a9 00 74 3e
       0.24003682 -0.22551589 -0.19776225 0.23828377
000240 48 b6 20 3e 86 e9 b5 3d 33 61 01 be ec 34 ee 3d
       0.15694535 0.08882432 -0.12634735 0.11631188
000250 3b c3 3c 3e a2 b2 96 3e 4e 28 1f 3e 39 b5 5e 3e
       0.1843385 0.2943316 0.15542719 0.21748818
000260 73 a1 22 3e cc 33 9b bd a9 e2 7e 3e 6e 45 2e 3e
       0.158819 -0.07578239 0.24891151 0.17018673
000270 99 fa 80 3e 36 4c 24 be 2b 3f 8b 3e db 5e 07 be
       0.2519119 -0.16044697 0.2719663 -0.13219778
000280 69 ab 90 3e 25 82 37 3e 75 c7 3e 3e 01 9b 0a be
       0.28255776 0.1792074 0.18630774 -0.13535692
000290 9c 2d 51 bd f2 ef 36 3e 5c db 82 3e c0 fd eb bd
       -0.051068887 0.1786497 0.25557983 -0.11523008
0002a0 67 d5 b8 bd a6 3b 45 bd 5d c4 c9 bd d9 ce 28 3e
       -0.09025078 -0.04815259 -0.098519064 0.16485156
0002b0 54 d5 0f 3e f9 28 ab bd e5 8b f5 bd 60 bf 90 bd
       0.14046222 -0.08357424 -0.119895734 -0.07067752
0002c0 4d 09 90 3d b8 86 06 be 58 a7 84 3e d1 4e 35 3e
       0.07033024 -0.13137329 0.25908923 0.17705847
0002d0 03 7c b4 bd 6f 6a f7 bd 4a 4b 3d 3e 9c 46 27 3e
       -0.08812716 -0.120808475 0.18485752 0.16335529
0002e0 2d da 1e 3e 28 90 6a be 47 f6 61 be 49 ab 23 3d
       0.15512915 -0.22906554 -0.22066604 0.039958272
0002f0 48 ec b1 bd 2e 5a 81 be 9d d3 7d bd 86 52 3a 3e
       -0.08687645 -0.25264114 -0.06196939 0.18195543
000300 a4 90 3c 3e af 70 45 3e f5 72 64 3e c2 e1 cc 3e
       0.18414551 0.19281267 0.22309478 0.4001599
000310 e7 aa 66 3e a7 b7 9c 3e 61 e2 a0 3e 75 74 89 3e
       0.22526132 0.30608866 0.31422713 0.26846662
000320 84 6f bf 3e 77 10 9e 3e f9 a1 46 3e 2b 38 89 3e
       0.37389767 0.30871937 0.19397725 0.26800665
000330 22 69 9e 3e a2 43 81 3e e6 7a 44 3e bb d5 bd 3e
       0.30939585 0.25246912 0.19187507 0.37077126
000340 a9 54 a5 3e de 7b 90 3e 0b da d4 3e f1 22 57 3e
       0.32291153 0.28219503 0.41572604 0.21009423
000350 76 2c 75 3e 81 1b 8c 3e 05 79 b1 3e 60 39 50 3e
       0.23942742 0.27364734 0.34662643 0.20334387
000360 65 ae c9 3e 99 14 39 3e 51 68 85 3e 93 83 44 3e
       0.39390865 0.18074264 0.2605615 0.19190817
000370 9e 89 d0 3e e7 8f ab 3e 34 b7 b1 3e 98 b0 a4 3e
       0.40729994 0.33508226 0.34710085 0.3216598
000380 b8 5d e5 3e 68 b7 8e 3e 19 a1 27 3e a8 63 4e 3e
       0.44798064 0.27874303 0.16370048 0.20155203
000390 af f9 c1 3e 7a 93 9c 3e 42 ba e1 3e 67 12 b5 3e
       0.37885806 0.30581266 0.44087416 0.35365602
0003a0 1c d6 9e 3e 5d fa da 3e 68 09 ce 3e aa 7a a0 3e
       0.31022727 0.42769137 0.4024155 0.31343585
0003b0 42 83 b0 3e 89 12 9d 3e 7a 98 af 3e 26 41 d8 3e
       0.34475142 0.30678204 0.34296018 0.42237204
0003c0 98 ed 86 3e f2 e5 af 3e cd 9a 4a 3e 8f ac 7b 3e
       0.26353145 0.34355122 0.19785614 0.24577545
0003d0 75 22 ab 3e b0 ee 7d 3e a6 74 6e 3e 3a 4d d4 3e
       0.33424726 0.24798083 0.23286685 0.4146517
0003e0 97 43 bb 3e eb 1c 8b 3e a6 32 a4 3e 85 5e 7b 3e
       0.36575004 0.271705 0.32069892 0.24547775
0003f0 e9 2f 6e 3e a7 55 cb 3e b5 dc be 3e d6 42 b1 3e
       0.23260464 0.39713785 0.3727776 0.34621304
