model_checkpoints/model_epoch_60.pth (torch, 233370 bytes, 9 tensors)

lstm.weight_ih_l0 f4 [256, 28]
000000 a0 4d a1 be e1 0d 1f 3e c4 3a 69 be 97 41 c5 3d
       -0.31504536 0.15532638 -0.22776324 0.09631651
000010 c3 bf 8a 3e ec 61 f6 bd 28 ac d7 bc 46 c1 17 3a
       0.27099428 -0.12030396 -0.026327208 0.0005788993
000020 e7 7a e9 bd 13 51 28 bd b8 bf a0 be f5 37 7c be
       -0.11400395 -0.041092943 -0.3139627 -0.24630721
000030 67 ac 62 be 35 ca 7d be eb b0 56 be 92 7c 6c be
       -0.22136079 -0.24784167 -0.20965926 -0.23094395
000040 ce af 8a be 93 40 08 be de 81 72 be 74 a4 1c be
       -0.27087253 -0.13305883 -0.23682353 -0.15297109
000050 b4 f3 e3 3d 4b 74 c8 bc cd fe 30 3e da 35 0d 3e
       0.11130467 -0.024469515 0.17284699 0.13790074
000060 4d 8c 96 bd 3e 30 35 be fa 63 20 3d 1b 14 83 be
       -0.07350979 -0.17694184 0.039157845 -0.25601277
000070 95 25 2b be 69 e4 5b 3e 96 7e 7d be 83 ea 92 3d
       -0.16713555 0.2147385 -0.2475532 0.07173636
000080 b0 dd ad 3e 54 8f a1 bd 8c ff 49 bd 23 ee 0d be
       0.33958197 -0.07888666 -0.049315974 -0.13860373
000090 1b be 15 bd 82 10 0e be 2d 95 0a be f0 68 4f be
       -0.03655825 -0.13873485 -0.13533469 -0.20254874
0000a0 1e 3d 6d be a1 56 55 be 20 65 31 be ba 1a 52 be
       -0.23167846 -0.20833828 -0.17323732 -0.20518008
0000b0 3e 2d 8f be 90 fa 30 be 2c 27 a2 be c2 49 7c be
       -0.27964205 -0.17283082 -0.3167051 -0.24637511
0000c0 5a 20 c8 3d ba 9e 4b 3e 37 f3 ac bd 2a dd 06 3c
       0.097717956 0.19884768 -0.08444827 0.008231441
0000d0 68 74 98 bd 3c c1 e7 bc e0 1e 79 bd 63 3c ca be
       -0.07444078 -0.028290384 -0.06082046 -0.39499196
0000e0 7e 87 5b 3e cf bb 8c bd f4 05 88 bd e9 a1 28 3d
       0.21438405 -0.06871759 -0.066417605 0.041170035
0000f0 45 da 74 be 58 6f 09 3c 6c 2c 21 be cc d8 1a bd
       -0.23911388 0.008388363 -0.15739602 -0.03780441
000100 b0 58 b1 3d e8 d2 a4 bd 01 72 85 3e 86 fa a8 3e
       0.08659494 -0.0804804 0.2606354 0.33003634
000110 57 f9 fc 3d 31 50 37 3e 5b 7e 13 3e 4c fb 13 3e
       0.12352245 0.17901684 0.1440367 0.14451331
000120 b8 ff 3b 3e ce ac 41 3e 19 aa a4 3e e8 e5 a7 3e
       0.18359268 0.18913576 0.32161024 0.32792592
000130 97 c4 06 be ec 27 ff bd 25 5b a4 3c ab fb b2 3d
       -0.1316093 -0.12458786 0.020062992 0.08739408
000140 63 9e fd bc 6b 5a 4f 3e e3 80 a0 3e f3 88 02 3e
       -0.030959314 0.20249335 0.31348333 0.12747554
000150 8e a6 98 be 4d b5 02 3e ec c6 a3 be 8e 76 27 3e
       -0.2981457 0.12764473 -0.31987703 0.16353819
000160 db 30 3a 3e b8 02 01 bd 0b 8a 08 bd f3 50 c8 3d
       0.181827 -0.031496733 -0.033334773 0.09781065
000170 c7 2b 7d bd f4 58 10 bd 24 23 87 be 04 7a 8c be
       -0.061809327 -0.035241082 -0.26393998 -0.2743684
000180 a6 9a a1 be b9 2b 7f be ad a1 08 be bd 07 6d be
       -0.315633 -0.24919023 -0.13342924 -0.23147483
000190 d1 4b 9d be 19 9d 14 be bb e3 d9 bd a1 69 7e be
       -0.30721906 -0.14513053 -0.10639139 -0.24844982
0001a0 7d 5c 0f 3e 68 64 25 3d 9f fb 81 bc f2 f3 f5 bd
       0.14000125 0.040378958 -0.015867053 -0.120094195
0001b0 9d 55 0e be a4 4e 82 3c 07 95 aa bd 1a 15 d8 be
       -0.13899846 0.01590664 -0.08329206 -0.422036
0001c0 c8 48 2b 3e c5 62 4f be ba f7 02 bb 36 d1 3d be
       0.16726983 -0.20252521 -0.0019984082 -0.18536839
0001d0 e7 32 e8 bc da 46 99 bd 8c 7e 70 3d ef 5c 20 3d
       -0.028344585 -0.07484217 0.058714435 0.03915113
0001e0 a8 1c a1 bd af 59 66 3c aa 22 4e 3e 83 eb 55 3e
       -0.07866794 0.014059468 0.20130411 0.20890622
0001f0 0c 06 af 3e 98 3e 3b 3e 48 ea 38 3e 36 21 ac 3e
       0.341843 0.18285596 0.18058121 0.33619088
000200 67 ae 25 3e 71 d2 7d 3e 5d e3 a2 3e 7d 5e 9f 3e
       0.1617981 0.24787308 0.3181409 0.31126776
000210 c5 d2 cb 3d 5c af ba 3d 62 90 f8 bd a7 69 cd bd
       0.099523105 0.091154784 -0.12136914 -0.10029917
000220 80 27 18 be b1 ed 5c 3e 98 44 4f bc a9 ff 55 bd
       -0.14858818 0.21575047 -0.012650631 -0.05224577
000230 b9 a4 86 3e ce ea 61 bc 1d 2e 69 bc 20 dc 00 3d
       0.26297548 -0.013788892 -0.014232186 0.031459928
000240 63 41 53 bd f0 8a f5 bd b8 d1 01 be f3 f3 19 bd
       -0.05157603 -0.11989391 -0.12677658 -0.037586164
000250 f3 40 65 3d b9 b2 4b bd 17 3d 51 3e 20 f9 79 3e
       0.055970144 -0.04973099 0.2043346 0.2441144
000260 bc e6 5d 3e 20 26 39 3e 04 b8 1b 3e 3f 4c 6f 3e
       0.2167005 0.1808095 0.15206915 0.2336893
000270 7d 45 2e 3e 3b 1f 28 3e ca e9 2d 3e e0 f0 f0 3d
       0.17018695 0.16418163 0.16983715 0.11764693
000280 73 c0 08 3d bb 56 04 be ce 1d 58 3d 4a ca 2b bd
       0.03338666 -0.1292371 0.0527628 -0.041940965
000290 03 67 de 3c fc 98 4a 3e cc 7e 83 3e 1b cf 65 3d
       0.02714873 0.19784921 0.25682676 0.056105714
0002a0 58 15 75 3e 79 ab 16 bc 09 95 23 3d 3c f5 67 bc
       0.23933923 -0.009196156 0.039937053 -0.0141575895
0002b0 fe 84 69 be 32 6b 3d bc db 42 8e bd e4 10 e1 3c
       -0.22804639 -0.011561202 -0.069463454 0.027473874
0002c0 95 c1 12 bd 18 25 4e 3d 46 4a a5 3e 94 3d a7 3e
       -0.035829145 0.050328344 0.3228323 0.32664168
0002d0 be f8 6c 3e 0f 2c a7 3e ff ac 84 3e 95 fd 71 3e
       0.23141763 0.32650802 0.25913236 0.2363189
0002e0 96 7c 0c 3e 23 92 ad 3e 83 79 26 3e 81 1a 7f 3e
       0.13719401 0.33900556 0.1625729 0.24912454
0002f0 64 a1 83 bd 66 15 cc bb 9d 73 ab bd ee e6 68 3c
       -0.06427267 -0.006228137 -0.08371661 0.014215214
000300 2e ae 69 3d 3d d0 b6 3e 7f 0b 8c 3e e0 94 20 3e
       0.057050876 0.35705748 0.2735252 0.15681791
000310 c5 cc f4 3d 6d 26 42 bd 28 ff 0d 3d f6 fb 21 3e
       0.11953119 -0.047399927 0.034667164 0.15818772
000320 0a 7a 88 be 24 c2 7c bd f4 8d d1 bd 12 41 fe bd
       -0.26655608 -0.061708584 -0.102321535 -0.12414755
000330 57 ba 2d bd b7 61 9b bd d8 88 68 3e 32 53 4f 3e
       -0.042414036 -0.07586997 0.22708452 0.2024658
000340 29 65 1b 3e 95 0f 62 3e d7 2d 30 3e 5a ce 80 3e
       0.15175308 0.22076257 0.17204987 0.25157434
000350 44 25 80 3e 1d bf 66 3e f9 6d a2 3e 3c d9 ae 3d
       0.2502843 0.22533841 0.31724527 0.08537528
000360 54 2f f6 bd 59 8e 69 be 69 dc 66 3d eb 1d 12 3d
       -0.12020746 -0.22808208 0.056362543 0.035673063
000370 51 f4 db bc 60 dc bf 3e 00 91 af 3e ae 08 2a 3e
       -0.026849898 0.3747282 0.34290314 0.16604874
000380 37 c4 e4 bd b8 9a 55 3e 73 8b 38 be 09 46 17 3d
       -0.111702375 0.20859802 -0.18021946 0.036932025
000390 07 fd 97 3e 41 50 23 be 10 16 24 3c d8 0c 3c 3c
       0.29685232 -0.15948583 0.010015026 0.011477672
0003a0 7e 15 4c 3d a6 7c 6b bd 40 8c 89 be 54 fa 50 be
       0.049825184 -0.05749192 -0.26864815 -0.20407993
0003b0 bd 71 bf bd 22 0b 81 be 84 14 84 be d7 08 5e be
       -0.09347866 -0.25203806 -0.25796902 -0.2168306
0003c0 86 41 20 be db b5 9f be ca 28 11 be 95 6e e1 bd
       -0.15649995 -0.31193432 -0.14175716 -0.1100742
0003d0 3f 77 7a 3a 7e a6 76 3e 5c f6 96 bc 6b c9 81 3b
       0.0009554512 0.24086949 -0.01842802 0.0039607785
0003e0 4c a8 37 be 21 50 11 bd 4c ff 03 be d7 0d df be
       -0.17935294 -0.035476808 -0.12890357 -0.43565246
0003f0 23 6b 82 3e 3b 93 0a bd 37 ce cc bc 82 a8 1d 3e
       0.25472364 -0.033831816 -0.025000675 0.15396312

lstm.weight_hh_l0 f4 [256, 64]
000000 ae d6 98 8b 94 65 76 03 60 98 23 8c 22 cb 52 81
       -5.8871284e-32 7.240951e-37 -1.2602917e-31 -3.871665e-38
000010 dc db 9a 25 5b 12 b7 1e 63 4c 95 a2 00 e4 7b 03
       2.6863724e-16 1.938347e-20 -4.046741e-18 7.4024e-37
000020 82 47 15 ad 40 eb 06 88 b9 73 7e 02 7b 05 4d a3
       -8.485547e-12 -4.0600693e-34 1.8694184e-37 -1.1114233e-17
000030 fc 26 b3 9d 1a ab 49 02 27 96 c5 30 b4 87 56 03
       -4.7421214e-21 1.4816252e-37 1.4376312e-09 6.3044727e-37
000040 34 8c 0f 90 6e 22 b2 07 2c 88 58 30 ce 8d 22 08
       -2.8309786e-29 2.68027e-34 7.8773854e-10 4.8916792e-34
000050 3b db e4 a6 4c 6f d9 ad 19 c6 d1 10 f7 3a 00 30
       -1.5880101e-15 -2.471947e-11 8.274118e-29 4.6649923e-10
000060 91 80 7b 9c 78 de 94 30 a8 ab 16 12 dc 93 40 81
       -8.32151e-22 1.0831647e-09 4.7543237e-28 -3.5370914e-38
000070 6f 95 ee af 34 58 81 0b 3e 72 a6 9a 2a 22 13 2b
       -4.3398127e-10 4.9821706e-32 -6.884056e-23 5.2272303e-13
000080 a3 26 30 18 14 77 d5 02 1d 37 f9 01 c4 4c f3 83
       2.2766973e-24 3.1365885e-37 9.154724e-38 -1.4299881e-36
000090 ba 2c 39 16 5e 44 82 83 88 c8 93 06 7f db 8d 82
       1.4958294e-25 -7.65641e-37 5.558991e-35 -2.0844073e-37
0000a0 3b ab a0 a4 c7 24 31 30 93 7d 1e a6 3b 96 ab 8b
       -6.9679015e-17 6.444449e-10 -5.4987447e-16 -6.6092846e-32
0000b0 58 d2 a1 1f 21 32 b7 90 c0 f0 15 12 73 ac c6 af
       6.853414e-20 -7.225801e-29 4.7312857e-28 -3.6138523e-10
0000c0 9d 22 4c 8e 6b 9a 2c 89 25 3c c5 82 71 c7 3b 2d
       -2.5161607e-30 -2.0776354e-33 -2.898107e-37 1.0674004e-11
0000d0 5d c4 32 a6 d9 02 93 1d 87 24 9c 82 3d 78 84 9b
       -6.202228e-16 3.891352e-21 -2.2943106e-37 -2.191527e-22
0000e0 74 d0 32 11 5e 5f 22 83 6a a4 1e 03 ae 4d 89 9f
       1.4105959e-28 -4.7716997e-37 4.6620765e-37 -5.815027e-20
0000f0 c9 0c c3 10 50 83 a2 82 b1 36 1b 92 d1 c2 4a 20
       7.6933637e-29 -2.387913e-37 -4.897679e-28 1.7174525e-19
000100 d0 4a 34 83 c4 30 06 2d f1 b8 a2 9f 22 5a 55 83
       -5.2983126e-37 7.627846e-12 -6.891563e-20 -6.269854e-37
000110 54 31 00 30 96 5c f8 2c 28 5d 45 95 ea 5c dd 82
       4.663623e-10 7.058863e-12 -3.985732e-26 -3.2526361e-37
000120 3f 7d 63 96 f6 2c a4 03 34 d8 c8 11 86 78 4e a0
       -1.8376435e-25 9.649376e-37 3.1687682e-28 -1.7488757e-19
000130 29 2e ac 28 09 5b b8 30 b7 07 1b 31 d3 d3 d9 2d
       1.9115855e-14 1.3413636e-09 2.2559854e-09 2.4764113e-11
000140 65 8c 2a a7 62 77 2b ad ff 56 f1 2c fc 12 9d af
       -2.3668347e-15 -9.746733e-12 6.8592905e-12 -2.8571623e-10
000150 79 5a b7 01 05 62 ad 0d 4b df c2 2c f7 df f6 19
       6.7353405e-38 1.06855455e-30 5.538602e-12 2.5526263e-23
000160 56 78 79 83 8e 18 84 05 48 a2 82 82 b8 05 70 83
       -7.331266e-37 1.242224e-35 -1.9194928e-37 -7.0536226e-37
000170 8b 93 a8 16 27 c6 37 9b bc 85 3f 9f 69 5b 08 18
       2.7234977e-25 -1.5201432e-22 -4.0556446e-20 1.7623738e-24
000180 98 5e 09 1f b3 b1 02 29 d2 25 85 9b 81 4f 02 83
       2.9089125e-20 2.9019928e-14 -2.2027445e-22 -3.8294832e-37
000190 1d e5 86 8d a7 9a 13 26 2e c2 0c 83 0d 34 9a 81
       -8.313545e-31 5.1210463e-16 -4.136521e-37 -5.6645355e-38
0001a0 d8 fe 3c 20 02 1b 65 9b e6 a7 2c 03 3f 1c 95 9f
       1.600854e-19 -1.8951163e-22 5.0738995e-37 -6.3150684e-20
0001b0 39 a7 7a a6 a3 d2 86 87 c5 da 8f 1f 9e 78 bb 24
       -8.6962803e-16 -2.028588e-34 6.092478e-20 8.1302656e-17
0001c0 23 66 9e ae ac 9e 2d af 44 3b 74 81 f2 ea d6 25
       -7.203151e-11 -1.579063e-10 -4.4858243e-38 3.7282288e-16
0001d0 70 35 02 2a de a4 13 84 2d 49 cc 11 7b e5 90 83
       1.1564859e-13 -1.735547e-36 3.2230623e-28 -8.5162455e-37
0001e0 7b 7c 0b 07 92 bc 74 2b 27 3c 04 98 14 c3 f2 30
       1.0493779e-34 8.694791e-13 -1.709097e-24 1.7663262e-09
0001f0 0e 4f b7 30 54 3b 57 a9 9e a8 09 82 9b 85 89 0a
       1.3337471e-09 -4.779105e-14 -1.0113561e-37 1.3242877e-32
000200 95 5f 00 05 fa 37 34 02 10 29 b7 29 e1 73 c4 82
       6.036087e-36 1.3240376e-37 8.133956e-14 -2.8866123e-37
000210 0f a3 f1 18 6f 19 bf 97 b5 b5 2a 25 19 1b bb 97
       6.2461687e-24 -1.2349506e-24 1.4806714e-16 -1.2091432e-24
000220 70 0c b3 11 c8 f3 10 2e c9 00 aa 87 32 19 9c 90
       2.8248886e-28 3.295833e-11 -2.5579219e-34 -6.156997e-29
000230 13 af de 99 2b ea 99 1f 33 a7 3d ae 23 29 88 85
       -2.3024974e-23 6.518542e-20 -4.3122127e-11 -1.280449e-35
000240 13 d5 96 16 28 b5 f4 2a f4 bd f9 02 a8 60 e6 a6
       2.4368276e-25 4.346881e-13 3.669629e-37 -1.5985655e-15
000250 13 5d bb 07 1b 8b 0b 08 99 22 55 aa 3d d4 ef 9a
       2.8191337e-34 4.199231e-34 -1.8930204e-13 -9.919097e-23
000260 9f 55 b4 30 08 47 5d 81 28 ee 9a 81 d0 35 0c ae
       1.3121059e-09 -4.0642252e-38 -5.6912403e-38 -3.188011e-11
000270 33 d1 0e 84 13 3d 68 30 dd a6 43 2d b2 83 04 03
       -1.678808e-36 8.44879e-10 1.1121518e-11 3.8942492e-37
000280 7d 15 3b 2d 6b eb 50 98 6a 61 ba 97 d9 5c 1f 86
       1.0634491e-11 -2.7002226e-24 -1.2044559e-24 -2.997279e-35
000290 b9 76 30 8c 8d 34 b6 07 b6 d1 ad b0 0e 38 75 26
       -1.3594274e-31 2.7415203e-34 -1.264701e-09 8.507742e-16
0002a0 a1 32 06 aa 13 90 61 07 24 df 8d 83 97 a5 3e 9f
       -1.1919156e-13 1.6969458e-34 -8.338466e-37 -4.0371038e-20
0002b0 f8 03 8c 1b dd b9 bf 29 42 ac cb 13 0b 13 97 22
       2.3163622e-22 8.514346e-14 5.1414264e-27 4.0948795e-18
0002c0 8f b9 c1 a2 26 29 3b 82 f1 db b8 11 fb 9c ad 2c
       -5.2509223e-18 -1.3750399e-37 2.916563e-28 4.934384e-12
0002d0 02 58 03 17 7c 3e 06 92 82 65 ac 01 dc 96 39 8d
       4.2439464e-25 -4.2359962e-28 6.332848e-38 -5.7189117e-31
0002e0 01 52 4d 89 6e 69 9d 83 3a f0 7f 06 ee ad 27 83
       -2.4714535e-33 -9.251836e-37 4.813666e-35 -4.927655e-37
0002f0 90 5c ce 02 cf a9 2d 1e 35 95 5b 9d 87 75 07 02
       3.0322108e-37 9.193659e-21 -2.9061547e-21 9.951962e-38
000300 22 47 05 86 07 70 81 82 a9 5c c1 30 51 2e d4 b0
       -2.506678e-35 -1.9019147e-37 1.4068934e-09 -1.5438194e-09
000310 82 77 78 1b 8f 27 aa 30 a7 81 b8 83 2c fd a9 30
       2.0552694e-22 1.2380371e-09 -1.0844315e-36 1.2368324e-09
000320 ad 7a 78 82 0f 21 36 ae a4 b7 b1 82 d4 e7 51 83
       -1.8255369e-37 -4.141137e-11 -2.6113217e-37 -6.1685705e-37
000330 e9 e6 d6 26 1e 67 b9 0d 81 fd 5c 98 c8 a6 19 93
       1.4911821e-15 1.142633e-30 -2.856232e-24 -1.9393544e-27
000340 e1 fc 8f 90 f6 81 b4 02 8a 74 08 8f ba 53 00 81
       -5.6793176e-29 2.6523217e-37 -6.727762e-30 -2.3569958e-38
000350 36 e8 30 b0 f0 20 0b 17 b6 53 57 20 16 91 13 82
       -6.435842e-10 4.4954895e-25 1.8238906e-19 -1.0841492e-37
000360 81 48 c3 1a 56 b4 b3 2f ff cf 04 06 67 d9 80 06
       8.0767246e-23 3.2688047e-10 2.4979252e-35 4.846769e-35
000370 7a 8c 73 93 6f d1 2d ab e5 0d 8f 03 32 c6 23 83
       -3.0740172e-27 -6.1752594e-13 8.407975e-37 -4.812891e-37
000380 4e c1 09 ad c0 1f 17 1b f2 ad 96 21 ce d4 8b 82
       -7.830471e-12 1.2500686e-22 1.0210438e-18 -2.0546358e-37
000390 a6 d3 21 ae b4 11 64 9d 86 bf f0 26 1e 34 91 87
       -3.6795143e-11 -3.0184701e-21 1.6705258e-15 -2.1847807e-34
0003a0 56 41 cb 81 e8 30 7c 2f aa 00 01 0f 69 88 8a 1f
       -7.4664175e-38 2.2936641e-10 6.360319e-30 5.8670945e-20
0003b0 2b 12 36 2f e5 62 bc 16 e9 29 9d a6 89 b6 fc 8e
       1.6559258e-10 3.043545e-25 -1.0905423e-15 -6.229857e-30
0003c0 bd e9 6e 98 41 b6 b0 16 b2 43 be 81 13 97 56 89
       -3.0878787e-24 2.8549352e-25 -6.9892115e-38 -2.5830348e-33
0003d0 ae 20 0f 04 4a f8 92 9f 69 11 14 27 a4 a6 11 85
       1.6824575e-36 -6.2244165e-20 2.0548564e-15 -6.848474e-36
0003e0 e5 d4 4d 88 b6 f7 2b 1a 32 6e 83 83 43 da de 87
       -6.19402e-34 3.556207e-23 -7.724788e-37 -3.353113e-34
0003f0 29 3d 10 13 d2 34 89 a2 0f 93 61 17 06 fe f6 8e
       1.820551e-27 -3.718985e-18 7.2887035e-25 -6.0888298e-30

lstm.bias_ih_l0 f4 [256]
000000 0d f0 9d 3e 59 c5 c1 3e 48 6e 72 3e 3f 2d bc 3e
       0.30847207 0.37845877 0.23674881 0.3675327
000010 87 09 e9 3e 39 c1 dd 3e c1 f1 80 3e 3e 11 7a 3e
       0.4551508 0.4331148 0.25184444 0.2442064
000020 1b 64 d4 3e 4c b4 e7 3e 50 79 dc 3e 81 60 8a 3e
       0.41482624 0.45254743 0.43061304 0.27026752
000030 6f a3 b4 3e 8a 05 b2 3e 02 43 cb 3e 30 41 e3 3e
       0.3528094 0.3476985 0.3969956 0.44385672
000040 19 58 9c 3e 01 79 df 3e 34 a7 ae 3e b0 80 cd 3e
       0.30535963 0.43647006 0.3411194 0.40137243
000050 c8 ce 88 3e 3d f0 ab 3e d3 54 ec 3e da 5e 91 3e
       0.26720262 0.33581725 0.46158466 0.28392678
000060 21 38 88 3e b2 9d bf 3e 8f 4f 8c 3e 5b f6 b0 3e
       0.26605323 0.37425 0.27404448 0.34562954
000070 81 cc ca 3e c4 41 eb 3e 11 51 b8 3e e8 77 9c 3e
       0.3960915 0.45948613 0.3599935 0.3056023
000080 26 8b dc 3e 5a 04 c8 3e ac bb ef 3e 1c c3 97 3e
       0.43074912 0.3906582 0.4682287 0.29641044
000090 64 cd 83 3e ee 9c d6 3e b6 20 af 3e 27 ef 8d 3e
       0.25742638 0.41916603 0.34204644 0.2772152
0000a0 6b fd e2 3e c3 f1 dd 3e 0b 47 b5 3e 25 2d 9a 3e
       0.44333968 0.43348512 0.35405764 0.30112568
0000b0 f0 24 c9 3e e6 7c 90 3e c2 dd 89 3e c7 4c ad 3e
       0.39285994 0.2822029 0.26927 0.3384764
0000c0 9b 3c c9 3e d4 b7 7f 3e 16 15 a7 3e b1 57 df 3e
       0.3930405 0.24972469 0.32633275 0.4362159
0000d0 81 da f5 3e 11 ce ff 3e 6c e2 d5 3e 44 70 cd 3e
       0.48018268 0.49961904 0.4177431 0.40124714
0000e0 79 9c f4 3e 34 d5 b2 3e 2f 75 80 3e 93 53 e4 3e
       0.4777563 0.34928286 0.25089404 0.44595012
0000f0 b4 e7 a7 3e 73 62 a7 3e 92 d1 78 3e f4 b7 d8 3e
       0.32793963 0.32692298 0.24298695 0.42327845
000100 ee 9d cd 86 a3 9e 27 91 c9 32 50 08 f5 97 5d 91
       -7.7344486e-35 -1.3222861e-28 6.265242e-34 -1.7480651e-28
000110 86 50 7a 2f e2 64 7c 11 6b 53 74 af 1a 77 fb 82
       2.2765975e-10 1.9910382e-28 -2.2221307e-10 -3.6949496e-37
000120 e8 07 e1 02 2c f8 77 25 2d 52 6c 95 32 9e 1c 2d
       3.3065317e-37 2.1507919e-16 -4.7724646e-26 8.9027e-12
000130 1a d2 c8 15 e2 06 a2 ad 05 34 35 22 51 4c 25 1b
       8.111084e-26 -1.8420324e-11 2.4557613e-18 1.3673139e-22
000140 41 13 35 1b e9 32 1c 31 14 39 2b af a6 8e 7a 2d
       1.497819e-22 2.2729927e-09 -1.5572638e-10 1.4242529e-11
000150 0a 4c 0c 17 34 80 63 88 7d 7f 04 8f 76 5c a9 83
       4.5332415e-25 -6.846103e-34 -6.532656e-30 -9.954155e-37
000160 cb 19 2f a5 0b d4 fb 2e c0 b6 64 8f 7b c9 d4 ae
       -1.518757e-16 1.1451825e-10 -1.1276464e-29 -9.676434e-11
000170 13 e2 3f 03 96 47 5c 18 61 94 e8 2c 71 44 79 2f
       5.6389376e-37 2.8470475e-24 6.61031e-12 2.2670733e-10
000180 66 bf 66 30 11 cc 0c 04 d4 b7 25 83 a9 c0 c9 ac
       8.3945506e-10 1.6550624e-36 -4.8700166e-37 -5.734153e-12
000190 a5 57 b8 aa c6 ab 9d 83 bf b5 e8 29 20 05 48 26
       -3.2745781e-13 -9.267068e-37 1.03343976e-13 6.9395885e-16
0001a0 02 4d 35 ab e7 06 3b 30 d0 94 a3 b0 b0 9f 14 31
       -6.441099e-13 6.804001e-10 -1.1902106e-09 2.1627606e-09
0001b0 03 94 2b 08 c8 bd b4 10 24 94 90 2e b9 3e 07 0f
       5.1632428e-34 7.1289886e-29 6.574677e-11 6.668094e-30
0001c0 35 59 fd 26 0a bc 96 8b 56 4a 91 1f 1b be 11 98
       1.7579581e-15 -5.806083e-32 6.153287e-20 -1.883679e-24
0001d0 a7 60 2b 2e 10 ed 39 1a 74 d1 11 04 03 31 ee 10
       3.8966743e-11 3.84486e-23 1.7140844e-36 9.394996e-29
0001e0 8f 3d 33 11 08 2f 0a 88 dc 55 f6 82 25 1a f2 82
       1.413958e-28 -4.158315e-34 -3.6195732e-37 -3.557371e-37
0001f0 f0 96 23 99 4a f5 54 97 28 d2 5f 2d 24 af 7d 80
       -8.457384e-24 -6.8810493e-25 1.27227465e-11 -1.1542266e-38
000200 bd c8 e6 3e 91 71 ad 3e 87 8f d5 3e 7d dd 9e be
       0.45075026 0.33875707 0.41711065 -0.31028357
000210 2d ea ac be 98 19 e5 3e 47 41 c0 be c7 3a a7 3e
       -0.33772412 0.4474609 -0.37549803 0.3266203
000220 fe 49 db be 8e 82 d0 be 98 52 9b be 97 80 b9 3e
       -0.4282989 -0.40724605 -0.30336452 0.3623092
000230 ea 3e bc be bc 97 86 3e 6e 64 b7 3e 5b 6e da 3e
       -0.3676675 0.2628764 0.3581881 0.4266232
000240 3d 29 da 3e 1a 6c 97 be e3 be e1 3e 6a 69 d7 be
       0.42609587 -0.29574662 0.44090948 -0.42072612
000250 12 97 c1 3e 66 6a 91 be 1e c0 ce be 17 e9 d7 3e
       0.3781057 -0.28401488 -0.4038095 0.4217002
000260 40 5c 8c be 17 ee de 3e fa 8c d6 3e 8f f3 a1 be
       -0.2741413 0.43541023 0.41904432 -0.31631133
000270 0e cc 84 be 78 ea 92 be 14 9d da be 83 4d c0 3e
       -0.2593693 -0.2869451 -0.42697966 0.37559137
000280 cc d4 ae 3e bc 9c a1 3e e8 5f dc 3e 07 e9 7e 3e
       0.34146726 0.3156489 0.4304192 0.2489358
000290 6e a8 d4 be 2a b2 ba 3e 35 e4 96 3e a3 8e b8 be
       -0.41534752 0.36464053 0.29470983 -0.36046323
0002a0 8c 27 bb 3e 6a 36 de 3e 0f 9d da 3e dd dc 8d be
       0.3655361 0.4340089 0.4269795 -0.27707568
0002b0 e8 bc c0 be 0c 04 a4 3e bd f5 a9 be 79 82 9f 3e
       -0.37644124 0.32034338 -0.33195296 0.3115423
0002c0 fe 89 e1 be ce 41 d6 3e 68 5d d9 be c6 56 d9 be
       -0.44050592 0.4184708 -0.42454076 -0.42449015
0002d0 e7 73 d3 3e 95 21 e2 3e ff f8 9d be 13 3e 88 3e
       0.41299364 0.44166246 -0.3085403 0.2660986
0002e0 86 7d d6 3e 8d 25 c2 be 0f 1f d3 be cb ec b8 3e
       0.41892642 -0.37919274 -0.41234633 0.3611816
0002f0 48 d1 de 3e cb 7d ae 3e ef cb b9 be ee bf b5 be
       0.43519044 0.34080347 -0.362884 -0.35497993
000300 99 2b ac 3e ae f3 bf 3e e5 64 79 3e f6 f7 f5 3e
       0.33627012 0.374906 0.24354894 0.48040742
000310 5a 1a e8 3e 93 a4 ea 3e c8 6c e7 3e 0d e8 9f 3e
       0.45332605 0.45828685 0.4520018 0.31231728
000320 df 4f bc 3e 41 2f 90 3e 2a 50 7c 3e f3 04 9a 3e
       0.36779687 0.28161052 0.24639955 0.300819
000330 3c 3d ae 3e 44 c4 47 3e a3 69 ec 3e 9b d9 94 3e
       0.34031093 0.19508463 0.46174344 0.2907227
000340 17 3e cc 3e 6a 51 9b 3e c5 22 d0 3e 18 d7 d9 3e
       0.3989112 0.30335552 0.40651527 0.42546916
000350 da 71 7a 3e 25 29 df 3e b8 0a da 3e d1 ce c9 3e
       0.24457493 0.43586078 0.42586303 0.394156
000360 64 5a b3 3e 84 4c 01 3f c3 9c c5 3e ab 84 f0 3e
       0.350299 0.5050738 0.38596162 0.46976218
000370 9c c5 e1 3e 7e ae 81 3e 3c 7e a3 3e 01 d9 d3 3e
       0.44096076 0.2532844 0.31932247 0.41376498
000380 e8 b6 a4 3e ab ac 95 3e f4 1b c4 3e 70 26 c8 3e
       0.32170796 0.29233298 0.38302577 0.39091825
000390 81 51 83 3e bc 95 03 3f 9b f2 a3 3e 4c db ba 3e
       0.2564812 0.5140035 0.3202103 0.36495435
0003a0 2a 69 91 3e 0c cc ce 3e 35 ca ff 3e ff 8c b1 3e
       0.28400546 0.4039005 0.4995896 0.34677884
0003b0 d8 69 c4 3e f3 79 87 3e 1b 49 81 3e 72 21 e2 3e
       0.38362002 0.26460227 0.25251088 0.44166142
0003c0 57 3f 86 3e c7 7b c7 3e 42 da c2 3e 20 1f ed 3e
       0.262202 0.38961622 0.38057142 0.4631281
0003d0 f6 85 de 3e 81 3b 9a 3e e2 2c 9e 3e f9 1d c5 3e
       0.4346158 0.30123523 0.30893618 0.3849943
0003e0 15 b9 e6 3e 55 59 97 3e 34 c2 85 3e 3e 4d cd 3e
       0.4506308 0.29560342 0.26124728 0.40097994
0003f0 d7 76 b9 3e e7 af d9 3e 28 3c c3 3e dd 99 c0 3e
       0.3622348 0.42517015 0.38131833 0.37617388

lstm.bias_hh_l0 f4 [256]
000000 57 ca 9f 3e 24 27 b0 3e 55 d2 88 3e e6 10 9d 3e
       0.3120906 0.34404862 0.2672297 0.30676955
000010 bf d3 f9 3e f3 43 9e 3e bb 42 b4 3e 1b e4 df 3e
       0.48794362 0.30911216 0.3520716 0.43728718
000020 dd 25 d3 3e e8 b5 bb 3e 24 54 c7 3e bb 80 65 3e
       0.41239825 0.3666222 0.38931382 0.22412388
000030 34 e9 86 3e 29 4a c5 3e 6b f2 e5 3e 63 21 6d 3e
       0.26349795 0.38533142 0.44911513 0.23157267
000040 8b ac e4 3e ad c0 8e 3e 75 30 b8 3e 91 2d b9 3e
       0.4466289 0.27881375 0.3597447 0.36167577
000050 0b d9 db 3e cf 0b a7 3e 3b c5 91 3e f1 1c c0 3e
       0.42939028 0.32626197 0.28470787 0.3752208
000060 a6 21 8c 3e 40 95 c1 3e 4c 3b 9e 3e 1d a4 d1 3e
       0.27369422 0.3780918 0.30904615 0.4094552
000070 b6 14 c5 3e e3 71 ad 3e b1 33 ba 3e bc ea aa 3e
       0.38492364 0.3387595 0.36367562 0.33382213
000080 d4 6e cd 3e 39 88 92 3e b3 a4 f1 3e 84 9b f5 3e
       0.40123618 0.28619555 0.47195968 0.47970212
000090 83 7b d6 3e ba 11 d4 3e 0f d0 7f 3e 27 b3 ea 3e
       0.41891107 0.41419774 0.24981712 0.45839807
0000a0 35 69 d5 3e 94 d4 bc 3e 07 f8 c2 3e 96 28 d4 3e
       0.4168183 0.36880934 0.38079855 0.41437215
0000b0 ee 54 8d 3e 3d b2 be 3e 59 09 de 3e 30 24 e5 3e
       0.2760386 0.3724536 0.43366507 0.4475417
0000c0 90 dc a8 3e 74 ce cf 3e ad d0 ad 3e f1 b0 af 3e
       0.32980776 0.405872 0.3394827 0.34314683
0000d0 7f 41 b7 3e 32 f5 ab 3e a3 5a f9 3e 10 07 ae 3e
       0.35792157 0.33585507 0.48701963 0.33989763
0000e0 ab 80 f9 3e 58 35 bb 3e 8a a7 ab 3e e8 d4 03 3f
       0.48730978 0.36564136 0.3352626 0.51496744
0000f0 6c a8 a2 3e c4 83 e2 3e 63 8b b8 3e 26 2b e4 3e
       0.3176912 0.44241154 0.36043844 0.4456417
000100 0d 28 5f 22 9f 03 95 96 94 10 f9 30 d7 1d 0b 9d
       3.0243338e-18 -2.4074534e-25 1.8121846e-09 -1.8411924e-21
000110 ff 00 8f 06 c3 b0 07 26 88 f8 32 8b db ea 0d 8f
       5.3792085e-35 4.707709e-16 -3.4468527e-32 -6.997068e-30
000120 f3 2d c6 2f 5c 58 bd 0a 4b 9d 7e 1f 3b 65 16 8f
       3.604864e-10 1.8233275e-32 5.3916702e-20 -7.415067e-30
000130 10 90 7a 98 40 c9 1f 92 18 08 60 90 a0 81 ec ae
       -3.2384476e-24 -5.0419613e-28 -4.4182446e-29 -1.07550635e-10
000140 03 65 1c 9e 04 e7 83 06 56 0c 14 86 cd 27 13 84
       -8.27946e-21 4.961617e-35 -2.784477e-35 -1.7298043e-36
000150 61 6e ee 82 d3 ed 87 9a 5f 88 80 11 dd 6f ce 2f
       -3.5034311e-37 -5.621892e-23 2.0278884e-28 3.7550665e-10
000160 bd 04 8e 8d 65 98 92 90 66 1f 68 03 12 08 80 2b
       -8.752566e-31 -5.782165e-29 6.8214716e-37 9.097187e-13
000170 a1 ca b7 10 13 dd c0 26 b2 91 14 96 8a 71 03 06
       7.249297e-29 1.3382599e-15 -1.2001318e-25 2.4721777e-35
000180 16 e3 8e 2c b2 7f 8d 1a 02 bc 50 a1 35 ee f8 82
       4.0610943e-12 5.8522536e-23 -7.072197e-19 -3.657705e-37
000190 0c de 2e 06 fa 70 0f 8f 1b 7a 3c 9f c6 c5 a3 02
       3.2888897e-35 -7.072203e-30 -3.9911552e-20 2.4064214e-37
0001a0 a2 97 92 9e 61 c8 79 82 a5 94 84 03 e9 0c 74 2e
       -1.5521065e-20 -1.8351137e-37 7.79239e-37 5.5490643e-11
0001b0 ba b0 2a 83 62 f1 23 15 9b 5c 40 8f ab 66 8e 28
       -5.016138e-37 3.3108005e-26 -9.484166e-30 1.5809692e-14
0001c0 9b cf 32 22 1e e4 8a 87 20 85 5e a5 0f 96 6a 03
       2.4233404e-18 -2.0898007e-34 -1.9300535e-16 6.893868e-37
0001d0 9a 86 d6 02 91 df a5 03 8d 36 22 93 55 5b e8 30
       3.1521731e-37 9.749157e-37 -2.047417e-27 1.690618e-09
0001e0 7d 44 17 8c cb 36 b5 26 a8 e8 db a9 f7 1f 49 0f
       -1.1653227e-31 1.257425e-15 -9.765913e-14 9.916221e-30
0001f0 81 4a ca 2f f1 5a 62 a3 61 68 9f 9f db e2 87 30
       3.6796524e-10 -1.2270742e-17 -6.75118e-20 9.887019e-10
000200 95 38 99 3e bc 67 b3 3e 8f c1 d7 3e 9f 61 ec be
       0.2992598 0.3504008 0.4213986 -0.4616823
000210 f1 db df be 7e cb e4 3e 57 3e 87 be 6f f5 b5 3e
       -0.4372249 0.44686502 -0.2641475 0.35538813
000220 3b 36 b3 be 3c f0 c5 be 3c 1f e5 be 79 d9 ba 3e
       -0.35002312 -0.38659847 -0.44750392 0.36494043
000230 33 a2 95 be 06 40 92 3e fe b7 b9 3e 4c b1 af 3e
       -0.2922531 0.2856447 0.36273187 0.34314954
000240 cd be a5 3e 66 22 e6 be 39 3d af 3e 38 81 af be
       0.32372132 -0.4494812 0.34226397 -0.34278274
000250 90 c7 bc 3e f9 c5 f7 be b6 f2 bd be 94 80 6c 3e
       0.36871004 -0.4839323 -0.37099236 0.23095924
000260 65 f8 b0 be 5a 40 95 3e 19 ad d4 3e 14 86 df be
       -0.3456451 0.2915066 0.41538313 -0.4365698
000270 a8 60 da be 13 9a de be 58 1e 9c be 5f d1 da 3e
       -0.42651868 -0.43476924 -0.304919 0.42737862
000280 82 b5 88 3e 40 ac e1 3e e5 62 91 3e d7 5f c8 3e
       0.2670098 0.4407673 0.28395763 0.3913562
000290 f8 37 de be 54 58 f1 3e be e3 da 3e bb c1 bd be
       -0.43402076 0.47137702 0.42751878 -0.37061867
0002a0 b0 73 ca 3e 37 ec be 3e 31 a3 a7 3e f1 ae d0 be
       0.39541388 0.37289593 0.32741693 -0.4075847
0002b0 a6 09 cd be ac b9 cf 3e 80 1d c4 be 7a b5 d0 3e
       -0.40046424 0.40571344 -0.38303757 0.40763456
0002c0 67 9e a7 be ed b2 e0 3e 67 5b 90 be 06 0e af be
       -0.3273804 0.4388651 -0.28194734 -0.34190387
0002d0 9d 6c c2 3e 8e a9 ba 3e e6 48 e2 be cc 08 b3 3e
       0.3797349 0.36457485 -0.44196242 0.3496765
0002e0 32 c9 96 3e 62 48 d0 be 35 c9 a4 be 63 56 db 3e
       0.29450375 -0.40680224 -0.3218476 0.42839345
0002f0 2d 82 6a 3e fb 8e d3 3e af 30 ad be 19 b0 b7 be
       0.2290122 0.41320023 -0.33826205 -0.3587654
000300 5b 82 f3 3e c6 5f 9d 3e 8f 55 89 3e 01 bb a4 3e
       0.4756039 0.30737132 0.2682309 0.32173923
000310 5e 85 ac 3e 05 17 fb 3e 55 79 7b 3e 6c b4 c4 3e
       0.336955 0.49041 0.24558003 0.384189
000320 9d c6 d3 3e 48 85 6a 3e 0e 9c b9 3e b1 e8 c3 3e
       0.41362467 0.22902405 0.36251873 0.38263467
000330 d9 a1 cf 3e fa 47 8b 3e de ec af 3e f9 3b b5 3e
       0.40553167 0.2720335 0.34360403 0.35397318
000340 b7 08 b6 3e ac 6d fd 3e 1a 87 f5 3e 55 dc b0 3e
       0.35553524 0.49497736 0.47954637 0.345431
000350 64 18 ed 3e 5d 41 8d 3e 14 41 89 3e 1d 22 59 3e
       0.4630767 0.2758893 0.26807463 0.2120442
000360 11 d0 69 3e 75 8c cb 3e 5f cf ca 3e 7b ef b1 3e
       0.22833277 0.39755598 0.39611337 0.34753022
000370 18 3b c3 3e 8d d5 90 3e 64 c6 d1 3e 15 de a3 3e
       0.38131022 0.28287926 0.40971673 0.32005373
000380 00 50 c4 3e 7b 57 d7 3e d6 cc b2 3e ed 59 a1 3e
       0.38342285 0.4205893 0.34921902 0.3151392
000390 46 cb df 3e a3 4b c1 3e 03 30 9d 3e 2f 17 e3 3e
       0.43709773 0.3775302 0.30700693 0.44353625
0003a0 a1 41 ab 3e 1e 61 87 3e 7d 8e 92 3e 42 22 8e 3e
       0.33448508 0.26441282 0.28624335 0.27760512
0003b0 be ae da 3e eb 38 bf 3e 98 b1 cd 3e e2 56 a0 3e
       0.42711443 0.37348112 0.40174556 0.31316286
0003c0 5a 6b c7 3e 05 f4 e5 3e 18 37 8a 3e 46 de ef 3e
       0.3894909 0.44912735 0.26995158 0.4684927
0003d0 08 36 f1 3e 1a db e1 3e 9d 3b c6 3e b6 df dd 3e
       0.47111535 0.44112474 0.38717356 0.4333474
0003e0 a0 b7 98 3e 15 3e c6 3e 5a eb a6 3e a8 86 b8 3e
       0.29827595 0.3871924 0.32601434 0.36040235
0003f0 42 82 7c 3e 91 f4 ec 3e 39 9f ce 3e c5 76 02 3f
       0.24659064 0.4628034 0.40355852 0.5096248

lstm.weight_ih_l1 f4 [256, 64]
000000 57 4c af 3e 88 a7 d5 3e 02 8e b1 3e 7e dc d2 be
       0.3423793 0.4172938 0.34678656 -0.41183847
000010 fd 5e a5 be 99 06 8a 3e 3c 9b 7a be 36 e6 82 3e
       -0.32299033 0.2695816 -0.2447328 0.25566262
000020 3f 66 66 be df 16 c4 be fa 39 9d be db 88 92 3e
       -0.22499941 -0.382987 -0.30708295 0.28620037
000030 05 63 36 be 73 bd 8c 3e 4e 44 8f 3e 62 c3 27 3e
       -0.1781121 0.27488288 0.279818 0.16383126
000040 1a e7 89 3e 0c ab 45 be c8 15 4a 3e dd 94 c9 be
       0.2693413 -0.1930353 0.19734871 -0.39371386
000050 81 33 c3 3e 8a 04 d1 be a3 f2 ce be d2 13 5a 3e
       0.38125232 -0.40823776 -0.40419492 0.21296623
000060 b7 bb c5 be df 59 8a 3e c0 9e 69 3e 21 34 d5 be
       -0.38619778 0.2702169 0.22814465 -0.41641334
000070 54 19 aa be f6 fa 89 be 9f 18 99 be 09 15 db 3e
       -0.3322245 -0.2694928 -0.29901597 0.42789486
000080 dd d8 ae 3e ad be 76 3e 0b 7b 24 3e 5f c6 b5 3e
       0.3414983 0.24096175 0.16062562 0.35502908
000090 4a 0e 31 be c1 5b 9e 3e 38 51 96 3e ff a1 b3 be
       -0.17290607 0.30929378 0.2935884 -0.3508453
0000a0 60 fb c5 3e 8f 1e 6a 3e 92 3f de 3e d8 c9 4a be
       0.38668346 0.2286322 0.43407875 -0.1980356
0000b0 6c be d8 be 24 00 a2 3e 2b 66 60 be 95 97 8d 3e
       -0.4233278 0.31640732 -0.21913974 0.2765471
0000c0 9d 0b e0 be 92 9b 8f 3e 54 c0 9a be 8f a7 c0 be
       -0.4375886 0.28048378 -0.3022486 -0.37627837
0000d0 32 2d 79 3e c6 22 8d 3e 72 c1 c8 be 2a 1e bc 3e
       0.24333647 0.27565593 -0.39210087 0.36741763
0000e0 e7 62 b1 3e 70 4d ab be 31 38 3f be b4 5a c6 3e
       0.3464577 -0.33457518 -0.18673779 0.38741076
0000f0 75 1a 6a 3e d6 74 b4 3e ba 8d 93 be 46 f7 ea be
       0.22861655 0.3524539 -0.28819066 -0.4589178
000100 14 5c 92 3e af 80 a4 3e 9e 91 16 3e d3 cf b1 be
       0.28585875 0.32129428 0.14703986 -0.3472887
000110 96 63 cd be a7 0d 6e 3e 05 30 94 be be d0 b6 3e
       -0.4011504 0.23247395 -0.28942886 0.35706133
000120 50 c6 d0 be 11 c8 c8 be 51 0b 97 be 0b 7f d2 3e
       -0.407763 -0.3921514 -0.2950082 0.4111255
000130 36 3e a6 be 34 35 a2 3e 13 55 c7 3e c9 35 0f 3e
       -0.32469338 0.31681216 0.38932094 0.13985361
000140 f0 a9 c4 3e 0f 81 ab be 52 b9 90 3e db 20 a0 be
       0.38410902 -0.334969 0.28266388 -0.31275067
000150 de 57 c0 3e 42 29 43 be 9b 35 a1 be 42 a0 16 3e
       0.37567037 -0.19058707 -0.3148621 0.14709571
000160 01 35 b6 be b6 d9 d6 3e 39 09 ba 3e 62 1a 4f be
       -0.35587314 0.41962975 0.3633516 -0.20224908
000170 fd 84 94 be d7 4f 92 be b3 13 f1 be bc 9f 8c 3e
       -0.29007712 -0.28576538 -0.47085342 0.27465618
000180 a1 fa bb 3e f8 3e 86 3e 18 0c 71 3e a2 78 ab 3e
       0.36714652 0.26219916 0.2353977 0.33490473
000190 0c 74 64 be 66 41 1c 3e 57 bf 40 3e c1 b9 96 be
       -0.22309893 0.15259323 0.1882299 -0.29438594
0001a0 58 86 99 3e da 6b a0 3e cd bb cf 3e 57 ba cf be
       0.2998531 0.31332284 0.40572968 -0.40571854
0001b0 98 c4 32 be 9b 9c ce 3e cb 9a 37 be 78 6f 75 3e
       -0.17457807 0.40353855 -0.17930143 0.23968303
0001c0 6c 66 f0 be 82 46 6e 3e b0 b5 bb be 0c 8e 81 be
       -0.46953142 0.23269084 -0.36662054 -0.25303686
0001d0 70 5c 2d 3e f1 b3 92 3e 4f 77 aa be e5 f9 b6 3e
       0.16929793 0.2865291 -0.3329415 0.3573753
0001e0 d3 91 c1 3e b7 3b 72 be c4 66 ab be 84 f2 5e 3e
       0.37806568 -0.23655592 -0.3347684 0.217722
0001f0 a6 36 c7 3e c2 5a d9 3e 28 87 60 be 38 2d c8 be
       0.3890888 0.42452055 -0.21926558 -0.39097
000200 b7 49 8e 3e 72 43 7e 3e ba fd 8f 3e 21 85 67 be
       0.27790615 0.24830416 0.28123266 -0.22609378
000210 62 36 a8 be df 34 32 3e 8b 74 b9 be 81 42 37 3e
       -0.3285399 0.17402981 -0.36221728 0.17896463
000220 30 4b d9 be e6 e1 ac be a9 74 9e be f8 79 cf 3e
       -0.42440176 -0.33766097 -0.3094838 0.40522742
000230 12 59 75 be 98 1d 85 3e e1 f2 3f 3e 09 55 be 3e
       -0.23959759 0.2599914 0.18744995 0.37174252
000240 04 dd cc 3e 33 f2 a8 be b2 24 8d 3e 82 17 b1 be
       0.40012372 -0.32997283 0.2756706 -0.34588248
000250 4c a0 e9 3e ad 4c cd be 0f b3 b4 be d2 20 56 3e
       0.4563011 -0.4009756 -0.3529286 0.20910957
000260 89 17 a8 be de 06 94 3e b0 a0 7a 3e f3 7c 8f be
       -0.32830456 0.2891149 0.2447536 -0.28025016
000270 bc ac b3 be cf ba 85 be 37 d1 90 be 09 15 a7 3e
       -0.35092723 -0.26119086 -0.28284618 0.32633236
000280 a2 e1 c9 3e ae 4a b8 3e 98 e8 3e 3e 0c 85 d3 3e
       0.39429957 0.35994476 0.18643415 0.41312444
000290 8e 66 d0 be 80 f0 ba 3e e0 25 72 3e 11 0e b5 be
       -0.40703243 0.36511612 0.2364726 -0.35362294
0002a0 ca 20 bb 3e 3a 07 c4 3e 0d 55 64 3e 31 37 96 be
       0.36548454 0.38286763 0.2229807 -0.29338983
0002b0 b5 87 81 be f9 d6 9b 3e 38 b2 82 be 42 aa 2b 3e
       -0.2529885 0.3043745 -0.25526595 0.16764167
0002c0 b9 95 cf be db 62 a7 3e 93 ed 70 be 6b 94 8c be
       -0.40543917 0.32692608 -0.23528127 -0.27456984
0002d0 16 8c 60 3e 65 b4 87 3e 38 c6 40 be f7 56 a2 3e
       0.21928439 0.26504818 -0.18825614 0.31706974
0002e0 a1 5b 96 3e 29 29 d5 be 13 f2 94 be 76 27 cc 3e
       0.29366782 -0.41632965 -0.29090938 0.39873856
0002f0 9a 15 59 3e cf 7b c0 3e 08 dd 79 be 56 6f 6c be
       0.21199647 0.37594458 -0.24400723 -0.23089346
000300 02 b4 79 3e ed 93 be 3e 71 99 85 3e 11 31 99 be
       0.24385074 0.37222233 0.2609363 -0.29920247
000310 e6 7f 70 be ff 8e 89 3e 23 ec 20 be d1 05 a7 3e
       -0.2348629 0.2686691 -0.15715079 0.32621625
000320 3a 26 ad be 93 72 62 be 74 f2 86 be 54 a1 c7 3e
       -0.33818227 -0.22114019 -0.26356852 0.3899027
000330 b2 07 ab be 0c 1f a6 3e 3a 3d c3 3e 79 39 92 3e
       -0.3340431 0.32445562 0.3813265 0.28559473
000340 c2 14 59 3e 59 95 ad be e4 12 bd 3e be e6 90 be
       0.21199325 -0.33903006 0.36928475 -0.28301042
000350 b8 00 ba 3e 7b ac 43 be b8 8b 8f be b1 50 c3 3e
       0.36328673 -0.19108765 -0.28036284 0.381475
000360 8a 5b 95 be 7e 8c 38 3e 9f ad 93 3e a8 e5 a7 be
       -0.291714 0.18022344 0.288434 -0.327924
000370 f2 89 b6 be 54 7e 99 be 9e ca b5 be dc 2e 43 3e
       -0.3565212 -0.29979193 -0.35506147 0.19060844
000380 d7 76 dd 3e 43 33 be 3e bd 2b 32 3e c9 36 8d 3e
       0.4325473 0.37148485 0.17399497 0.2758086
000390 ba 05 a7 be a8 e0 45 3e 43 f5 8e 3e 8e b7 ac be
       -0.32621557 0.19323981 0.27921495 -0.3373379
0003a0 95 fa be 3e 1a c9 bd 3e 11 48 c2 3e 9e 49 bd be
       0.37300554 0.3706749 0.37945607 -0.36970228
0003b0 96 33 ad be 9d 26 bd 3e c5 34 5c be 5c a8 92 3e
       -0.3382842 0.36943522 -0.21504505 0.28644073
0003c0 c0 1f b2 be 3a 6f 8e 3e 80 e9 66 be eb 7b cc be
       -0.34789848 0.27819234 -0.2255001 -0.39938292
0003d0 58 9a a2 3e be 8f 59 3e 6f d5 ba be 4e 78 c3 3e
       0.3175838 0.2124624 -0.36490962 0.38177723
0003e0 94 a2 8b 3e ea be b3 be 4d a5 1d be 16 51 86 3e
       0.27272475 -0.35106593 -0.15395088 0.2623374
0003f0 fb ed a3 3e 29 92 a7 3e f4 3d a7 be 90 4b df be
       0.32017502 0.327287 -0.32664454 -0.43612337

lstm.weight_hh_l1 f4 [256, 64]
000000 c2 fa 49 87 98 2e 8a 02 c9 2e 0a 2e 7e d6 78 ac
       -1.519525e-34 2.030402e-37 3.141912e-11 -3.5361987e-12
000010 2b 38 23 0f e0 21 1e a9 74 4b 38 02 15 8c dd 26
       8.047338e-30 -3.511243e-14 1.3539839e-37 1.5372925e-15
000020 c8 82 4a 80 ad fd dc 24 c5 d8 83 1c 2f f8 d2 85
       -6.842742e-39 9.5839535e-17 8.724886e-22 -1.9839473e-35
000030 24 3d 33 2c f2 d0 21 85 99 8a b7 9e c0 d8 39 af
       2.547137e-12 -7.608561e-36 -1.9433201e-20 -1.6902657e-10
000040 cd 59 b7 95 56 bf 4d 9a bc bb 67 1e f6 0e 05 87
       -7.405479e-26 -4.2547566e-23 1.2267861e-20 -1.0010205e-34
000050 bf 58 81 1f 39 f8 4d a8 a5 8b 36 2f 40 c4 9e 84
       5.478044e-20 -1.1433611e-14 1.6602415e-10 -3.732585e-36
000060 e2 08 6c 07 6d 18 12 8f f8 0a 3d 02 87 37 05 06
       1.7757277e-34 -7.20306e-30 1.3888675e-37 2.5055315e-35
000070 67 43 0c 9b 68 ac 7d 1b 61 d7 c3 02 3c 71 00 03
       -1.1602307e-22 2.0983377e-22 2.8776296e-37 3.7745806e-37
000080 ab 92 21 0f bf 14 a5 1f 87 fa a9 89 bf c7 03 13
       7.96616e-30 6.991454e-20 -4.0920865e-33 1.6633007e-27
000090 a0 65 20 80 a0 d9 0e 95 70 25 e7 82 9c c2 95 13
       -2.975192e-39 -2.8848347e-26 -3.3963887e-37 3.7804788e-27
0000a0 c9 97 8a 03 8b b1 e3 10 df d3 48 84 50 a3 0b 92
       8.145759e-37 8.980926e-29 -2.3607173e-36 -4.4061965e-28
0000b0 f7 09 47 a9 05 ee e2 a9 41 66 b1 13 5e 76 a5 02
       -4.419552e-14 -1.0077706e-13 4.478191e-27 2.431251e-37
0000c0 d3 76 10 27 95 b3 70 28 5b ab 56 90 14 b8 0c 24
       2.004843e-15 1.3361617e-14 -4.2336066e-29 3.051358e-17
0000d0 66 ab c3 10 f4 29 fb 02 34 f0 2a b0 be 9d 59 a0
       7.717802e-29 3.6905215e-37 -6.218699e-10 -1.8432807e-19
0000e0 ea e9 71 06 20 52 ee ae 67 d0 2d a7 c9 28 a1 ad
       4.5498915e-35 -1.0837575e-10 -2.4121548e-15 -1.8321693e-11
0000f0 9f dd 76 ae f5 c7 9d 9f c7 7b 35 02 72 43 2f 98
       -5.6130763e-11 -6.682289e-20 1.3333302e-37 -2.2652271e-24
000100 62 07 02 b1 8a f3 88 03 ce ae db af 2b 9c 85 2f
       -1.8921686e-09 8.049275e-37 -3.9960074e-10 2.4303523e-10
000110 f7 9d 77 17 c2 49 b3 82 88 a6 bc 8d 35 fb a5 26
       8.0009384e-25 -2.634402e-37 -1.16264855e-30 1.1517265e-15
000120 1f 0d 82 29 78 43 00 09 e3 f4 44 ad 6d b0 1d 88
       5.775436e-14 1.5439163e-33 -1.1195686e-11 -4.7452856e-34
000130 b0 18 4e 9b fe d6 99 2a 3d 06 36 03 ae e5 95 03
       -1.7047898e-22 2.732744e-13 5.3492154e-37 8.810165e-37
000140 6b bf e4 a2 9c b1 e5 2e 44 88 48 83 30 16 1b 83
       -6.2002195e-18 1.0445264e-10 -5.8931143e-37 -4.5575876e-37
000150 4e 78 30 87 98 0e bc a4 79 b8 13 ab 91 84 3b 29
       -1.3276123e-34 -8.1556726e-17 -5.24809e-13 4.1637324e-14
000160 0a 8e 14 83 cb fd 77 82 6b 1c af 17 8d b2 0b 27
       -4.3656344e-37 -1.8219529e-37 1.1316284e-24 1.9386918e-15
000170 bc 2e 86 01 c7 d0 89 03 f2 bc 29 86 45 0d f4 ab
       4.9290886e-38 8.100069e-37 -3.1924182e-35 -1.7340926e-12
000180 08 65 86 91 41 3e f9 02 5a 31 12 04 a9 62 c4 27
       -2.1203738e-28 3.6622994e-37 1.7184879e-36 5.4507896e-15
000190 86 0f fa 01 05 a8 3a 11 e6 c9 90 11 dd a9 90 a4
       9.185777e-38 1.4724588e-28 2.2843624e-28 -6.2737805e-17
0001a0 73 93 88 b0 2c a1 85 2f 31 44 64 16 a7 87 31 8e
       -9.93721e-10 2.4307079e-10 1.8439211e-25 -2.1882249e-30
0001b0 f5 74 f9 ac ad a7 79 18 0d 4e 72 a8 f4 52 14 88
       -7.0899905e-12 3.226715e-24 -1.3450623e-14 -4.463464e-34
0001c0 8d e4 b9 84 54 80 0e 07 3c b6 0d 84 dc bd 8c 1b
       -4.370318e-36 1.0720605e-34 -1.6658148e-36 2.328375e-22
0001d0 ae 6a 16 12 90 f7 a3 04 81 64 f6 0e 5e 67 91 ac
       4.7463147e-28 3.8548466e-36 6.0740464e-30 -4.132624e-12
0001e0 6d ff 86 2c 34 bf 8f 0a 66 ec 47 1f 1c 5b 13 90
       3.836867e-12 1.3842322e-32 4.2335433e-20 -2.9060826e-29
0001f0 63 19 78 18 34 7b 1f ac 74 37 0d 2b d9 59 9b aa
       3.2066066e-24 -2.266365e-12 5.017022e-13 -2.7595875e-13
000200 9b 6d 39 2d 01 4e 98 ad 92 8d 82 ae 60 90 62 09
       1.054037e-11 -1.731504e-11 -5.9368635e-11 2.7271645e-33
000210 ed f0 0a 1b de 9d e6 87 94 84 fd 8a 6a 06 85 a3
       1.149294e-22 -3.469934e-34 -2.4412884e-32 -1.4422605e-17
000220 9d 0c 58 2e 06 16 3c 0b 72 11 0a 03 b8 ea 21 06
       4.9123917e-11 3.6224052e-32 4.057458e-37 3.045318e-35
000230 11 10 db 10 a8 38 66 1f e5 bb 98 0b 65 df 6d af
       8.6405023e-29 4.875126e-20 5.883098e-32 -2.163439e-10
000240 f6 d8 bd aa d9 81 e5 0f fb cf 20 83 41 3d 8b 0b
       -3.372369e-13 2.2631159e-29 -4.7258524e-37 5.363302e-32
000250 67 b4 96 03 d2 87 28 2c fe 8c 62 18 ba 00 90 1f
       8.857626e-37 2.3949631e-12 2.9280998e-24 6.0987574e-20
000260 fa 17 0e 03 b8 91 96 05 13 bb bf 9b 70 5e 0a 87
       4.1757573e-37 1.4159461e-35 -3.1719193e-22 -1.0409719e-34
000270 df 5a a4 97 13 56 1d 04 43 92 f1 0e 54 bd 8c 82
       -1.0621191e-24 1.8494785e-36 5.955193e-30 -2.067982e-37
000280 ed cd 82 9b 0e d2 8b 90 79 58 83 82 77 b2 50 9b
       -2.1639772e-22 -5.5149473e-29 -1.92995e-37 -1.7263022e-22
000290 7b 40 c1 9a b0 f7 e6 82 c5 1b 8e ac 64 90 fa 02
       -7.99271e-23 -3.3937628e-37 -4.0389658e-12 3.6817075e-37
0002a0 09 a0 22 27 5f ce dd 9f ca af 1a 01 9c 94 81 83
       2.2568771e-15 -9.393855e-20 2.8411455e-38 -7.616058e-37
0002b0 9b 2f 5f 8b 09 9a 8c 16 57 04 5d aa 1d 98 12 25
       -4.2984052e-32 2.271543e-25 -1.9630249e-13 1.271502e-16
0002c0 35 32 6b 25 a8 3f 16 03 8b 18 76 03 af 04 cd 25
       2.0400012e-16 4.415411e-37 7.2321077e-37 3.5565005e-16
0002d0 c5 9e 49 ad 30 64 07 17 83 4d 59 2e e9 61 36 82
       -1.1460781e-11 4.3747307e-25 4.9408932e-11 -1.3399347e-37
0002e0 48 fa 0e 29 d1 70 af 8a 31 79 8f 91 36 65 c5 10
       3.1747418e-14 -1.6894324e-32 -2.2636112e-28 7.785874e-29
0002f0 86 2b b5 2c 56 50 14 b1 6c 83 16 af 3f 84 f1 2f
       5.1491615e-12 -2.15825e-09 -1.3689111e-10 4.393161e-10
000300 fc 8c 86 01 75 5d 5f 29 4a 06 56 20 50 5b 1b 07
       4.942613e-38 4.9597008e-14 1.8128586e-19 1.1687738e-34
000310 29 d6 6f 0e 23 9d 6b a8 ac a9 17 2e 13 66 8a 08
       2.9562139e-30 -1.3079194e-14 3.4484124e-11 8.32957e-34
000320 9a d3 b0 02 22 6c cc 11 5c 44 bd a8 42 a4 fe 02
       2.598233e-37 3.2252167e-28 -2.1012861e-14 3.7416225e-37
000330 71 ed a3 1f 70 6e 12 2d 1f 68 9e a0 bd f9 50 06
       6.9426e-20 8.323661e-12 -2.6835143e-19 3.930393e-35
000340 3e 73 2b 07 3a 48 8a 01 0f 06 f2 a8 c9 07 02 2f
       1.2898477e-34 5.0796834e-38 -2.6870025e-14 1.1826197e-10
000350 8e 38 02 86 6e db 70 9f b5 e8 68 ab db 9c 6f b0
       -2.4491832e-35 -5.1003485e-20 -8.2745903e-13 -8.71706e-10
000360 68 7b 9b ae 16 5c e5 1a 2a 8a 1b 02 7c 23 eb 26
       -7.070505e-11 9.486095e-23 1.1427253e-37 1.6316019e-15
000370 30 88 a3 8a e3 df 84 87 a6 08 37 09 0c f6 79 aa
       -1.5747557e-32 -1.9992741e-34 2.203189e-33 -2.2201007e-13
000380 97 fd 9d 1a 17 23 fa 85 20 16 d9 19 47 ee 07 03
       6.5343375e-23 -2.3522777e-35 2.244621e-23 3.9946463e-37
000390 8f ce 75 98 fc 36 37 2a 44 60 32 25 1b 0d cd 9a
       -3.1769793e-24 1.6272742e-13 1.5471655e-16 -8.4807186e-23
0003a0 8a 61 10 ac e9 95 58 2b d1 73 e7 03 8d e4 0a ac
       -2.0517776e-12 7.694666e-13 1.360355e-36 -1.973785e-12
0003b0 f9 02 3a 9a a3 d2 73 9f ea 87 94 13 60 a6 85 82
       -3.84663e-23 -5.1631486e-20 3.7494474e-27 -1.9638088e-37
0003c0 26 94 5c 87 3c 36 14 0f c9 0d ac 02 81 a5 6c 1f
       -1.6594497e-34 7.3074085e-30 2.528104e-37 5.0111846e-20
0003d0 1a 18 12 03 d9 5f 58 91 49 a3 66 11 42 6d 8d 03
       4.293321e-37 -1.7068931e-28 1.8194117e-28 8.3123195e-37
0003e0 9f 6e 86 11 8b c8 c8 1a a3 6c b6 07 f7 e5 98 03
       2.1209648e-28 8.3042056e-23 2.7448167e-34 8.986554e-37
0003f0 2b 96 b3 83 6a 50 2e a7 ec 86 6e 91 bc f5 91 25
       -1.0555151e-36 -2.4190943e-15 -1.8816466e-28 2.5320006e-16

lstm.bias_ih_l1 f4 [256]
000000 fc 04 be 3e 8e bd a5 3e ef 4c b8 3e 83 38 a1 3e
       0.37113178 0.3237118 0.35996196 0.31488428
000010 3e 4c 5d 3e b2 38 bb 3e a2 c7 81 3e cd 6e 30 3e
       0.21611115 0.36566693 0.2534762 0.17229767
000020 6d f0 93 3e 4e 4e 8b 3e a6 3d b1 3e ea 25 94 3e
       0.28894368 0.2720818 0.34617347 0.28935176
000030 77 c1 9c 3e 74 e6 a4 3e 7f d1 7c 3e 11 f8 c8 3e
       0.30616352 0.32207072 0.24689291 0.3925176
000040 a5 5f cc 3e 50 ff 92 3e 28 84 28 3e 78 a4 b8 3e
       0.3991672 0.28710413 0.16456664 0.3606298
000050 38 28 b6 3e 25 fe 57 3e 37 a0 d0 3e 3c 36 5b 3e
       0.3557756 0.21093042 0.40747234 0.21407408
000060 21 48 da 3e 9c 0f 31 3e 21 83 b5 3e b9 70 94 3e
       0.42633155 0.17291111 0.35451606 0.2899225
000070 10 ec 84 3e e4 ba 57 3e 4e 07 92 3e 4e 49 67 3e
       0.2596135 0.21067387 0.28521198 0.22586557
000080 04 0e 85 3e 14 56 ce 3e 49 be 17 3e 1c 81 80 3e
       0.25987256 0.40300047 0.14818682 0.25098503
000090 6a 7f c2 3e c4 24 ad 3e 82 4d 3b 3e 6d 57 d0 3e
       0.37987834 0.33817112 0.18291286 0.406917
0000a0 85 34 b2 3e c4 26 ab 3e e7 93 5c 3e 8a 13 9e 3e
       0.34805694 0.33428013 0.21540795 0.30874282
0000b0 1a 8b 6a 3e e3 e0 75 3e 40 46 ac 3e 02 af ba 3e
       0.22904626 0.24011569 0.33647346 0.36461645
0000c0 02 54 c4 3e 51 53 a5 3e 22 67 48 3e 83 49 87 3e
       0.38345343 0.32290128 0.19570592 0.26423272
0000d0 2b 04 d2 3e dc 76 9d 3e fd 60 8b 3e ce dd 9e 3e
       0.41018805 0.30754745 0.27222434 0.310286
0000e0 4b c8 bc 3e f3 67 bc 3e 7d 47 c8 3e 8b 5f 15 3e
       0.3687156 0.36798057 0.3911704 0.14587228
0000f0 f8 6e b9 3e 33 ad 47 3e 05 9c 46 3e 48 3b 63 3e
       0.36217475 0.19499664 0.19395454 0.22190583
000100 f6 98 57 0b 8a 94 fe a8 df 81 01 13 09 55 8d b0
       4.152257e-32 -2.8264083e-14 1.634612e-27 -1.0283269e-09
000110 34 e4 03 2f ba 95 fa 8e 56 f6 fb 96 6d 2d 95 26
       1.1995455e-10 -6.177394e-30 -4.0706697e-25 1.0351265e-15
000120 7f 94 13 31 79 73 71 82 54 7e 9f 1e 13 29 8e 0b
       2.1475726e-09 -1.7739023e-37 1.6887028e-20 5.475821e-32
000130 0e 97 ef 97 d0 c4 24 02 fc 68 4a 82 19 1f e6 06
       -1.5483145e-24 1.21053e-37 -1.4870745e-37 8.656208e-35
000140 e9 5b 61 2f 98 4c e7 2f 7b 6e 0e ac 28 ef 42 ab
       2.0496284e-10 4.2073078e-10 -2.0240743e-12 -6.925454e-13
000150 6e ac 84 2e 7b 06 b7 91 06 3e 74 16 25 65 d9 24
       6.033295e-11 -2.8876303e-28 1.9729734e-25 9.4280094e-17
000160 89 14 98 96 60 df cc b0 77 48 29 18 b0 78 31 00
       -2.4569884e-25 -1.490644e-09 2.1879323e-24 4.543234e-39
000170 19 0a c7 82 88 e6 12 a0 07 d5 c4 2e b3 98 85 29
       -2.9246218e-37 -1.2442957e-19 8.950889e-11 5.9328756e-14
000180 44 68 e2 96 1e 3f 07 8c 53 51 35 a6 1e 03 a7 83
       -3.657807e-25 -1.0419015e-31 -6.2907205e-16 -9.8160935e-37
000190 b0 32 4e 2e 53 93 8a 30 2e bf 87 15 e5 c7 c1 99
       4.6883997e-11 1.0082694e-09 5.4827694e-26 -2.0036469e-23
0001a0 79 2d 9c 30 63 96 5b a0 47 94 4e af c2 f8 ab a8
       1.1363418e-09 -1.859978e-19 -1.878827e-10 -1.9092695e-14
0001b0 61 d1 25 27 c4 03 d6 17 c7 80 a6 82 0f d4 0e 84
       2.3011854e-15 1.3830376e-24 -2.4465422e-37 -1.6789392e-36
0001c0 ca 90 bd 82 5c 5d 82 83 38 94 22 97 dd d9 8f 83
       -2.785416e-37 -7.6621475e-37 -5.25321e-25 -8.454804e-37
0001d0 b3 ac 9a ad df 14 18 ac 4f 96 b2 91 3e 31 22 08
       -1.7584467e-11 -2.1612085e-12 -2.8176083e-28 4.8807986e-34
0001e0 b2 12 d7 83 95 ac 19 03 00 dd 87 83 6b 19 ef 02
       -1.26408565e-36 4.5160773e-37 -7.985326e-37 3.5132483e-37
0001f0 cc cd 3a 19 31 aa 36 82 83 bd 7e 23 91 08 b5 02
       9.657535e-24 -1.3420091e-37 1.3809498e-17 2.6600477e-37
000200 4d c8 88 3e 25 af 89 bd e4 50 4e be 57 c5 34 3e
       0.26715317 -0.06722859 -0.20148045 0.17653404
000210 fb 9c 78 be 73 75 9e bd b9 2d 91 3e 97 1c e1 bd
       -0.24278633 -0.077372454 0.28355196 -0.10991781
000220 69 e5 04 be aa ef 7a be 66 d6 91 3e 5b fc eb bd
       -0.12978138 -0.24505487 0.28483886 -0.11522742
000230 c1 c3 74 3e f3 9b 65 be b6 b3 49 be 7e 71 72 3e
       0.23902799 -0.22422771 -0.1969746 0.23676106
000240 e5 bd 1f 3e 1f 88 b3 3d 1b 7a 00 be 01 f0 eb 3d
       0.15599783 0.087661974 -0.1254658 0.115203865
000250 53 eb 3b 3e d1 31 96 3e a0 24 1e 3e 87 c1 5d 3e
       0.18351488 0.29334882 0.15443659 0.21655856
000260 58 a8 21 3e 28 7b 99 bd be 02 7e 3e 47 75 2d 3e
       0.15786874 -0.07494193 0.24805734 0.16939269
000270 f6 94 80 3e 6d 39 23 be f3 af 8a 3e de 5a 06 be
       0.25113648 -0.15939875 0.27087364 -0.131206
000280 7d 14 90 3e ca 63 36 3e b3 0b 3e 3e b5 94 09 be
       0.2814063 0.17811504 0.1855915 -0.13435633
000290 f0 e0 4d bd 47 08 36 3e 9f 58 82 3e d7 3c e9 bd
       -0.050263345 0.17776595 0.25458238 -0.113885574
0002a0 a4 f8 b6 bd a6 af 41 bd 00 01 c8 bd fd 69 27 3e
       -0.08934143 -0.047286652 -0.09765816 0.16349025
0002b0 92 00 0f 3e 16 2e a9 bd 80 a8 f3 bd 7d ba 8e bd
       0.13965061 -0.08260743 -0.11897373 -0.069691636
0002c0 02 23 8e 3d 09 9e 05 be e2 31 84 3e 40 3e 34 3e
       0.06940271 -0.13048567 0.25819308 0.17601871
0002d0 62 7a b2 bd 6a 84 f5 bd 75 5b 3c 3e d9 42 26 3e
       -0.08714749 -0.119881466 0.18394263 0.16236438
0002e0 0f fb 1d 3e 1d cb 69 be d6 ed 60 be 70 cd 1f 3d
       0.15427803 -0.22831388 -0.21965727 0.03901428
0002f0 4d 2d b0 bd 7c d7 80 be 25 0e 7a bd 75 7f 39 3e
       -0.086023904 -0.25164402 -0.061048646 0.18115027
000300 e9 89 38 3e 9d f0 41 3e 22 d1 60 3e 7e db ca 3e
       0.18021359 0.18939443 0.21954778 0.39620584
000310 0b 65 62 3e 85 a6 9a 3e af 8b 9e 3e d2 8c 87 3e
       0.22108857 0.3020517 0.30965945 0.26474625
000320 76 a1 bd 3e ae 23 9c 3e df 1b 43 3e ec 38 87 3e
       0.37037247 0.3049597 0.190536 0.26410615
000330 77 54 9c 3e bd 5b 7e 3e 98 2b 41 3e 76 b9 bb 3e
       0.30533192 0.24839683 0.18864286 0.36664933
000340 ee 7e a3 3e 54 68 8e 3e 0d 05 d3 3e 79 78 53 3e
       0.31932777 0.2781397 0.4121479 0.20651425
000350 96 bb 71 3e 11 39 8a 3e 82 68 af 3e 2d 96 4c 3e
       0.23606715 0.26996663 0.3425942 0.19979163
000360 dc d2 c7 3e eb 9a 35 3e e1 8e 83 3e b1 13 41 3e
       0.3902806 0.17734878 0.25694945 0.18855168
000370 7f d7 ce 3e 3c 94 a9 3e f2 c2 af 3e 6a ea a2 3e
       0.40398785 0.33120906 0.3432842 0.3181947
000380 80 78 e3 3e 18 b2 8c 3e 44 50 24 3e e3 7a 4a 3e
       0.44427872 0.27479625 0.16046244 0.1977344
000390 6f 29 c0 3e cc aa 9a 3e 2a f0 df 3e 34 05 b3 3e
       0.3753161 0.30208433 0.43737918 0.34964907
0003a0 91 b1 9c 3e e6 33 d9 3e 02 55 cc 3e 08 44 9e 3e
       0.30604222 0.42422408 0.39908606 0.3091128
0003b0 57 bf ae 3e ed 3b 9b 3e b5 ad ad 3e 00 61 d6 3e
       0.34130356 0.30319157 0.3392159 0.4187088
0003c0 26 f2 84 3e 8b fe ad 3e a4 da 46 3e cb 9b 77 3e
       0.25965995 0.33983263 0.19419342 0.24180524
0003d0 22 79 a9 3e 7d c0 79 3e db df 6a 3e c0 64 d2 3e
       0.3310023 0.24389835 0.22936957 0.4109249
0003e0 8f 70 b9 3e d6 6d 89 3e ad 59 a2 3e 92 32 77 3e
       0.36218688 0.2684161 0.31709042 0.24140385
0003f0 ce 9d 6a 3e 56 62 c9 3e c7 e9 bc 3e 41 9d af 3e
       0.2291176 0.39332837 0.36897108 0.34299663
