model_checkpoints/model_epoch_40.pth (torch, 233370 bytes, 9 tensors)

lstm.weight_ih_l0 f4 [256, 28]
0	0xbea0d917	-0.31415626
1	0x3e1d1944	0.1534167
2	0xbe659667	-0.22420655
3	0x3dc548d7	0.09633034
4	0x3e8837d5	0.26605096
5	0xbdf16244	-0.11786321
6	0xbcca1a00	-0.0246706
7	0x3a736a84	0.00092855864
8	0xbde84046	-0.11340384
9	0xbd250a37	-0.040292945
10	0xbea0281b	-0.31280598
11	0xbe7ae605	-0.24501808
12	0xbe616059	-0.2200941
13	0xbe7c7c1a	-0.24656716
14	0xbe556400	-0.20838928
15	0xbe6b3080	-0.2296772
16	0xbe8a0bb8	-0.26962066
17	0xbe06ea23	-0.13175254
18	0xbe70ecd3	-0.23527841
19	0xbe1aea99	-0.15128554
20	0x3de03f36	0.109495565
21	0xbcc6b7c0	-0.02425754
22	0x3e2cf09e	0.16888663
23	0x3e075ce6	0.13219032
24	0xbd9a3387	-0.07529359
25	0xbe33db3a	-0.17564097
26	0x3d253405	0.040332813
27	0xbe7f746e	-0.24946758
28	0xbe294681	-0.16530801
29	0x3e57c072	0.21069506
30	0xbe79ad1a	-0.2438244
31	0x3d934b11	0.07192052
32	0x3eab85ce	0.33500522
33	0xbd9b8a31	-0.07594717
34	0xbd4194a6	-0.047260903
35	0xbe0e8ae5	-0.13920172
36	0xbd0e5b63	-0.034755122
37	0xbe0d4586	-0.13796052
38	0xbe089113	-0.13336591
39	0xbe4d3996	-0.20041499
40	0xbe6afdc2	-0.22948363
41	0xbe53072c	-0.20608205
42	0xbe2f09e6	-0.1709362
43	0xbe4fbead	-0.20287581
44	0xbe8e05b7	-0.27738735
45	0xbe2e9faa	-0.17053095
46	0xbea0ddbb	-0.31419167
47	0xbe798ecb	-0.24370877
48	0x3dc3fe7f	0.09570026
49	0x3e4a776f	0.19772123
50	0xbdadeee7	-0.08492833
51	0x3c1486cf	0.009065344
52	0xbd912409	-0.07086951
53	0xbcdf3dcd	-0.027251149
54	0xbd7500e8	-0.059815317
55	0xbec7c707	-0.39019033
56	0x3e5887fc	0.21145624
57	0xbd8da40b	-0.06916054
58	0xbd86d448	-0.06583458
59	0x3d234ae9	0.03986636
60	0xbe7595ad	-0.23982878
61	0x3c16ea01	0.009211064
62	0xbe1f8b6e	-0.15580532
63	0xbd1f25b0	-0.0388543
64	0x3db08db8	0.08620781
65	0xbda4c47e	-0.080452904
66	0x3e83f4ef	0.25772807
67	0x3ea78579	0.3271902
68	0x3df73b66	0.12071876
69	0x3e346578	0.17616832
70	0x3e109532	0.14119413
71	0x3e1132b3	0.14179496
72	0x3e3943fc	0.1809234
73	0x3e3efc7a	0.18651
74	0x3ea361f5	0.31910673
75	0x3ea6a54d	0.3254799
76	0xbe080810	-0.13284326
77	0xbdfeded9	-0.124448486
78	0x3c97cf45	0.018531451
79	0x3db21f63	0.08697393
80	0xbcff2430	-0.031145185
81	0x3e4c2b4f	0.19938396
82	0x3e9ee727	0.3103573
83	0x3e05799f	0.13034676
84	0xbe980c84	-0.2969705
85	0x3e01c76d	0.12673731
86	0xbea1b186	-0.31580752
87	0x3e2820ee	0.16418812
88	0x3e35e8b9	0.17764558
89	0xbd009805	-0.031394977
90	0xbd0a1c06	-0.03371813
91	0x3dc795aa	0.09745343
92	0xbd7f247c	-0.062290654
93	0xbd1389ab	-0.036019962
94	0xbe8679b0	-0.26264715
95	0xbe8bc8f7	-0.27301762
96	0xbea0e832	-0.3142715
97	0xbe7db364	-0.24775463
98	0xbe072398	-0.13197172
99	0xbe6b8ad7	-0.23002182
100	0xbe9c8965	-0.30573574
101	0xbe13017a	-0.14356032
102	0xbdd63096	-0.10458486
103	0xbe7c6f7c	-0.24651903
104	0x3e0d9034	0.1382454
105	0x3d2017cc	0.039085194
106	0xbc6c04e2	-0.014405461
107	0xbdf773b6	-0.12082617
108	0xbe0cc251	-0.13746001
109	0x3c8df235	0.017327407
110	0xbda7f8f7	-0.08201783
111	0xbed482c7	-0.41506025
112	0x3e26b695	0.16280587
113	0xbe4f7f5f	-0.20263432
114	0xbac12e58	-0.0014738543
115	0xbe3c3248	-0.18378556
116	0xbd00c95f	-0.031442042
117	0xbd946b3a	-0.07247014
118	0x3d747707	0.059683826
119	0x3d280ecc	0.041029736
120	0xbd9c09a1	-0.07619024
121	0x3c8c2cf8	0.017111287
122	0x3e49cdb6	0.19707379
123	0x3e51bcc5	0.20482166
124	0x3eacfa49	0.33784702
125	0x3e37431a	0.17896691
126	0x3e34fc16	0.17674288
127	0x3eaa2bcb	0.33236536
128	0x3e21d23f	0.15802859
129	0x3e7a2397	0.24427639
130	0x3ea12f89	0.3148158
131	0x3e9dbe88	0.30809426
132	0x3dc5ddbc	0.09661433
133	0x3dbb95e7	0.09159451
134	0xbdfc174c	-0.12309131
135	0xbdd3684a	-0.10322626
136	0xbe18cd31	-0.14922024
137	0x3e5dec15	0.2167209
138	0xbc3f46a9	-0.011674562
139	0xbd4d0e31	-0.050062362
140	0x3e859114	0.26087248
141	0xbc58520c	-0.013203155
142	0xbc69ab24	-0.0142619945
143	0x3cf7aee1	0.030234756
144	0xbd582dad	-0.052777935
145	0xbdf180f8	-0.11792177
146	0xbe001c16	-0.12510714
147	0xbd1ba9cc	-0.038003728
148	0x3d682e4c	0.056684777
149	0xbd47923a	-0.048723437
150	0x3e4f21be	0.20227715
151	0x3e77e743	0.24209313
152	0x3e5bd8f0	0.21469474
153	0x3e371808	0.17880261
154	0x3e19a7ca	0.15005413
155	0x3e6d4a2c	0.23172826
156	0x3e2c4401	0.16822816
157	0x3e26341a	0.16230813
158	0x3e2c281b	0.16812174
159	0x3ded9097	0.11599844
160	0x3d033399	0.03203163
161	0xbe046fe3	-0.12933306
162	0x3d563273	0.052294206
163	0xbd31d1ce	-0.043412976
164	0x3ce8bde4	0.02841086
165	0x3e480880	0.19534492
166	0x3e82306c	0.25427568
167	0x3d7234b8	0.059132308
168	0x3e713ac7	0.23557578
169	0xbc091c48	-0.008368559
170	0x3d2725b6	0.04080745
171	0xbc673520	-0.014111787
172	0xbe68f723	-0.22750525
173	0xbc3ec07c	-0.011642572
174	0xbd8beade	-0.06831907
175	0x3cdd7984	0.027035482
176	0xbd0f577d	-0.034995545
177	0x3d4c9eee	0.049956255
178	0x3ea363ba	0.31912023
179	0x3ea55af4	0.32295954
180	0x3e693e99	0.22777785
181	0x3ea54ca5	0.32285038
182	0x3e82ca6e	0.25545067
183	0x3e6e4d76	0.23271737
184	0x3e08cd52	0.13359573
185	0x3eabbb03	0.33541116
186	0x3e22dd8e	0.15904829
187	0x3e7b8bab	0.24564998
188	0xbd8986a5	-0.067151345
189	0xbbeec0ce	-0.0072861677
190	0xbdad2b64	-0.08455542
191	0x3c599f30	0.013282582
192	0x3d6ec652	0.0582946
193	0x3eb55d46	0.35422724
194	0x3e8a905e	0.27063268
195	0x3e226647	0.15859328
196	0x3def1604	0.11674121
197	0xbd442d7f	-0.04789495
198	0x3d13ab40	0.03605199
199	0x3e211c25	0.15733393
200	0xbe883e84	-0.26610196
201	0xbd75bb90	-0.059993327
202	0xbdcf6f3d	-0.10128639
203	0xbdfcc09d	-0.123414256
204	0xbd2a8594	-0.041631296
205	0xbd9b1e8d	-0.075741865
206	0x3e65ba11	0.2243426
207	0x3e4c97ae	0.19979736
208	0x3e18bb82	0.14915279
209	0x3e5f59fc	0.2181167
210	0x3e2d6ba9	0.169356
211	0x3e7ef2c1	0.24897291
212	0x3e7da4a2	0.24769834
213	0x3e641942	0.2227526
214	0x3ea12a69	0.3147767
215	0x3da9dd10	0.082941175
216	0xbdf4f5aa	-0.11960919
217	0xbe687304	-0.22700125
218	0x3d65e9cc	0.05613117
219	0x3d1184fa	0.035527207
220	0xbcddf9f7	-0.027096732
221	0x3ebe3873	0.37152442
222	0x3eade981	0.33967212
223	0x3e2bfacc	0.1679489
224	0xbde1568e	-0.11002837
225	0x3e53844d	0.20655937
226	0xbe35195d	-0.17685457
227	0x3d150b2a	0.0363876
228	0x3e960ae5	0.29305187
229	0xbe22a9c8	-0.15885079
230	0x3c281fba	0.01026147
231	0x3c255564	0.0100911595
232	0x3d4a3648	0.049368173
233	0xbd6e0059	-0.0581058
234	0xbe88a9ed	-0.26692143
235	0xbe4f2d11	-0.20232035
236	0xbdbbdea9	-0.091733284
237	0xbe8022c1	-0.25026515
238	0xbe832a49	-0.256182
239	0xbe5c2fc3	-0.21502595
240	0xbe1e6871	-0.15469529
241	0xbe9ec2f4	-0.31008112
242	0xbe0f1c84	-0.13975722
243	0xbddd29f2	-0.10799016
244	0xbae6d339	-0.0017610557
245	0x3e755676	0.23958763
246	0xbc94a9d6	-0.01814739
247	0x3b957ca5	0.004561978
248	0xbe37fded	-0.17967959
249	0xbd12011c	-0.03564559
250	0xbe0441b6	-0.12915692
251	0xbedbc3b3	-0.42922744
252	0x3e80fa86	0.25191134
253	0xbd0b2902	-0.033974655
254	0xbcd0d010	-0.025489837
255	0x3e1d079a	0.15334931

lstm.weight_hh_l0 f4 [256, 64]
0	0x9557a0ec	-4.354585e-26
1	0x913bd132	-1.4816162e-28
2	0x94fdca96	-2.5626378e-26
3	0x8fac27da	-1.697586e-29
4	0x28712d31	1.3387987e-14
5	0x223df412	2.5743486e-18
6	0xa59d5ccd	-2.7298043e-16
7	0x0ee7b3a6	5.711889e-30
8	0xaf30ddb7	-1.6085876e-10
9	0x12f3db64	1.538954e-27
10	0x12377641	5.7890377e-28
11	0xa64c4982	-7.087634e-16
12	0xa151de1f	-7.110593e-19
13	0x10d41f23	8.366723e-29
14	0x328ae15f	1.6167801e-08
15	0x0fa86911	1.6606549e-29
16	0x9655601b	-1.7236329e-25
17	0x92dd8764	-1.3980437e-27
18	0x322276b7	9.456634e-09
19	0x929d17c0	-9.913948e-28
20	0xa9910488	-6.4400796e-14
21	0xafe8b98c	-4.2332393e-10
22	0x175f01ab	7.205729e-25
23	0x31cb848b	5.923146e-09
24	0xa021ef1b	-1.3716344e-19
25	0x3257d487	1.256297e-08
26	0x17c0e796	1.246617e-24
27	0x108cb994	5.550619e-29
28	0xb1beca30	-5.552714e-09
29	0x158057d9	5.183739e-26
30	0x9e7c9f48	-1.33737075e-20
31	0x2d5debbc	1.2614739e-11
32	0x1cad427c	1.1465365e-21
33	0x1085e576	5.281279e-29
34	0x11d39e74	3.3387584e-28
35	0x904b57fe	-4.0102478e-29
36	0x1b23a847	1.3537417e-22
37	0x11923e37	2.3073081e-28
38	0x9258dd76	-6.8430554e-28
39	0x1099f489	6.0724625e-29
40	0xa78cbc7b	-3.9062157e-15
41	0x3207cf3c	7.905154e-09
42	0xa8e58856	-2.5483234e-14
43	0x94d13704	-2.1125307e-26
44	0x2301c293	7.034307e-18
45	0x97200afe	-5.171266e-25
46	0x17a88735	1.0890877e-24
47	0xb1a1fb6c	-4.7143e-09
48	0x9567039f	-4.6652935e-26
49	0x14499d4a	1.01789265e-26
50	0x9098a612	-6.02093e-29
51	0x2f59c32b	1.9805373e-10
52	0xa8ff8291	-2.8367311e-14
53	0x20d34a8c	3.5794121e-19
54	0x11ba0b41	2.9352561e-28
55	0x9f6f45b7	-5.0667885e-20
56	0x172395d7	5.2857265e-25
57	0x910d7f63	-1.1162193e-28
58	0x11c986e9	3.1795353e-28
59	0xa2f33bd0	-6.592861e-18
60	0x172d007d	5.589993e-25
61	0x11efc737	3.7830327e-28
62	0x974a7fd3	-6.5431057e-25
63	0x237a11c9	1.3556293e-17
64	0x0fb5485d	1.7875851e-29
65	0x2f209185	1.4603614e-10
66	0xa3081320	-7.376625e-18
67	0x8fe2b1d4	-2.2353817e-29
68	0x31cb76ef	5.9215988e-09
69	0x2f15a8a0	1.3611379e-10
70	0x9a46456f	-4.1001528e-23
71	0x121781a7	4.7807008e-28
72	0x9b43c2d0	-1.6192969e-22
73	0x91389dd1	-1.4563672e-28
74	0x1764d897	7.394415e-25
75	0xa37f21fa	-1.38307725e-17
76	0x2b21b6ca	5.745236e-13
77	0x328290b9	1.5199804e-08
78	0x32cf689d	2.4145544e-08
79	0x2fe91aa4	4.2401382e-10
80	0xa9c6045a	-8.793721e-14
81	0xaf488b98	-1.8239488e-10
82	0x2f11cffb	1.3261563e-10
83	0xb183454c	-3.82048e-09
84	0x91a29428	-2.5650402e-28
85	0x14d26f28	2.1248425e-26
86	0x2ef02322	1.0920177e-10
87	0x1dbf8deb	5.070402e-21
88	0x0e9d004c	3.8703774e-30
89	0x11148a17	1.1717694e-28
90	0x91c6b0cb	-3.134785e-28
91	0x1130b134	1.3938557e-28
92	0x1b889370	2.2594592e-22
93	0x9f4b51a5	-4.3054457e-20
94	0xa2646ef4	-3.09585e-18
95	0x1c60823c	7.4283707e-22
96	0x224b6b5b	2.7568464e-18
97	0x2b7034dc	8.5338485e-13
98	0x9f70f3b1	-5.1023554e-20
99	0x91936b53	-2.3258654e-28
100	0x9561fb0e	-4.5636435e-26
101	0x28d7679e	2.3914732e-14
102	0x0eb7a183	4.5268513e-30
103	0x100cfc38	2.7804434e-29
104	0x23767f86	1.3362691e-17
105	0x9f70eb7a	-5.101676e-20
106	0x90599d36	-4.2916815e-29
107	0xa2e9885a	-6.3299144e-18
108	0xa92c4883	-3.8254566e-14
109	0x131aaef0	1.9523784e-27
110	0x22fbe9e7	6.828134e-18
111	0x27a23087	4.5016646e-15
112	0xb098865c	-1.1097643e-09
113	0xb11a5460	-2.245791e-09
114	0x90aa682e	-6.721369e-29
115	0x28602ae7	1.2443801e-14
116	0x2c5ba77f	3.121475e-12
117	0x9225b2e3	-5.2285315e-28
118	0x16f9b8d2	4.0344758e-25
119	0x0c501770	1.603079e-31
120	0x91b7672b	-2.8935891e-28
121	0x2db121d0	2.0137586e-11
122	0x9c86ec39	-8.928438e-22
123	0x32a6d3b0	1.9421208e-08
124	0x3281e793	1.5122884e-08
125	0xabc031f0	-1.3656281e-12
126	0x91e024c6	-3.5363632e-28
127	0x1539da8e	3.7532862e-26
128	0x11a65821	2.6244496e-28
129	0x920351ff	-4.143738e-28
130	0x2c1e2d34	2.2478243e-12
131	0x918f1523	-2.2574448e-28
132	0x1d35b1d4	2.4047086e-21
133	0x9c1b92d8	-5.147499e-22
134	0x280c649e	7.793379e-15
135	0x9c45696e	-6.5318097e-22
136	0x16e0de9b	3.6329636e-25
137	0x3016da53	5.487994e-10
138	0x1246609f	6.259688e-28
139	0x9683b590	-2.1278774e-25
140	0x9e1ad828	-8.197392e-21
141	0x22f2b99c	6.5790753e-18
142	0xb0403751	-6.99278e-10
143	0x90f7f577	-9.780252e-29
144	0x1b398aed	1.5347731e-22
145	0x2d3b3ebc	1.0643649e-11
146	0x1255688c	6.7339813e-28
147	0xa991d43d	-6.476111e-14
148	0x122eb1e8	5.5124005e-28
149	0x9188aab0	-2.156221e-28
150	0xacada239	-4.934966e-12
151	0x9eaafcf6	-1.8104072e-20
152	0x32800672	1.4904092e-08
153	0x10458cda	3.8959908e-29
154	0x9184af84	-2.0934098e-28
155	0xb01264f1	-5.3257937e-10
156	0x91f2fed5	-3.833792e-28
157	0x322cf02d	1.0066327e-08
158	0x2f6204a0	2.0556223e-10
159	0x1256f870	6.7832716e-28
160	0x2f590818	1.973891e-10
161	0x9cc78db3	-1.3205344e-21
162	0x9c44b602	-6.50862e-22
163	0x125c3793	6.948826e-28
164	0x95135cb0	-2.975953e-26
165	0x1239b76f	5.8601806e-28
166	0xb277ca8c	-1.4423346e-08
167	0x2928fdd3	3.752365e-14
168	0xac61ea3f	-3.2104456e-12
169	0x9266ed99	-7.2868065e-28
170	0x8fd2c7ea	-2.0784603e-29
171	0xa2b47aa5	-4.8918953e-18
172	0x1f828cdc	5.5290174e-20
173	0x2c2513d5	2.345892e-12
174	0x1924f0ea	8.5272535e-24
175	0x259f23c0	2.7606328e-16
176	0xa5c9761e	-3.494798e-16
177	0x90f5d0ea	-9.6957344e-29
178	0x17cd913a	1.3284475e-24
179	0x2ed8332d	9.8316334e-11
180	0x1bab963d	2.8386666e-22
181	0x97c84ed4	-1.2944596e-24
182	0x90dd2498	-8.722551e-29
183	0x9534078b	-3.635666e-26
184	0x1455b91a	1.0790257e-26
185	0x0c816740	1.9937738e-31
186	0x11d5720f	3.3675769e-28
187	0x118ea396	2.2504467e-28
188	0x8f0d5b17	-6.96938e-30
189	0x21c159fa	1.3102005e-18
190	0xa104c9f6	-4.4990633e-19
191	0x90905cbd	-5.694087e-29
192	0x928e6ae4	-8.98781e-28
193	0x91749e54	-1.9296995e-28
194	0x32883b7c	1.5859534e-08
195	0xb293fb02	-1.7227197e-08
196	0x1f5c50f7	4.6653785e-20
197	0x32732179	1.4152072e-08
198	0x918f64e4	-2.26236e-28
199	0x3272eb60	1.4139772e-08
200	0x924562d1	-6.228404e-28
201	0xb03954bc	-6.742302e-10
202	0x91657272	-1.8100181e-28
203	0x1024db26	3.2512123e-29
204	0x29897fbd	6.106181e-14
205	0x15979c3c	6.123491e-26
206	0x9cbca594	-1.2483597e-21
207	0x989cba32	-4.0513064e-24
208	0x972ca037	-5.5778417e-25
209	0x91664ec8	-1.8168077e-28
210	0x95ef4300	-9.663704e-26
211	0x12164d27	4.742675e-28
212	0xb207a5c1	-7.895722e-09
213	0x1b5ca4ab	1.825118e-22
214	0x2385d4c3	1.4509997e-17
215	0x11eb51b9	3.7126828e-28
216	0x1e9f4315	1.6862524e-20
217	0x31941306	4.3095296e-09
218	0x128b3e10	8.787433e-28
219	0x11eb7ab0	3.7152075e-28
220	0x98ac92ee	-4.460932e-24
221	0xad815a3e	-1.4705678e-11
222	0x9150ab78	-1.6461145e-28
223	0x1203538a	4.143928e-28
224	0xaf246f09	-1.4955161e-10
225	0x1f2d4c70	3.6697403e-20
226	0x24a85a4f	7.3011375e-17
227	0x90346bd5	-3.5581812e-29
228	0xb0269a37	-6.06096e-10
229	0xa1099a0d	-4.662129e-19
230	0x2974db7b	5.4369253e-14
231	0x13055f65	1.6833993e-27
232	0x1188124c	2.1468293e-28
233	0x3157a8d4	3.1382585e-09
234	0x162fe246	1.4207787e-25
235	0x22bfe862	5.20167e-18
236	0x31210cc1	2.3435833e-09
237	0x1b6b2a03	1.9452319e-22
238	0xa9520995	-4.6637678e-14
239	0x96031354	-1.0588195e-25
240	0x9ccf1f4b	-1.37062e-21
241	0x1b5b84af	1.8158128e-22
242	0x1007f7d5	2.6814978e-29
243	0x1457111e	1.0858102e-26
244	0x11ec94e0	3.7325986e-28
245	0xa2ffde77	-6.9353432e-18
246	0x29960d47	6.6636414e-14
247	0x920d11db	-4.4513764e-28
248	0x13443dd0	2.4769154e-27
249	0x1e094452	7.266848e-21
250	0x8f2b1de2	-8.436706e-30
251	0x91b90e33	-2.9196604e-28
252	0x182736c0	2.1611886e-24
253	0xa59139dd	-2.51927e-16
254	0x1bb5fb61	3.0106388e-22
255	0x96273cf5	-1.3509387e-25

lstm.bias_ih_l0 f4 [256]
0	0x3e9920be	0.29907793
1	0x3ebd569c	0.3698014
2	0x3e692488	0.22767842
3	0x3eb80ce7	0.35947344
4	0x3ee3707b	0.44421753
5	0x3ed90529	0.4238675
6	0x3e77331a	0.24140587
7	0x3e713dd3	0.2355874
8	0x3ecfd4e1	0.405921
9	0x3ee30dac	0.44346368
10	0x3ed7f10f	0.421761
11	0x3e855c49	0.2604697
12	0x3eae77da	0.34075814
13	0x3ead5b16	0.33858556
14	0x3ec61ebc	0.38695323
15	0x3eded8cc	0.43524778
16	0x3e97ad7f	0.29624555
17	0x3eda5d31	0.42649224
18	0x3ea9afdf	0.33141991
19	0x3ec5ab64	0.38607323
20	0x3e8441a2	0.25831324
21	0x3ea6c9e1	0.32575896
22	0x3ee7c7dc	0.45269668
23	0x3e8d2dec	0.27574098
24	0x3e83440a	0.25637847
25	0x3ebacc88	0.3648417
26	0x3e88348f	0.266026
27	0x3eab3de3	0.33445653
28	0x3ec51630	0.3849349
29	0x3ee6c69f	0.4507341
30	0x3eb3166d	0.34978047
31	0x3e983957	0.29731247
32	0x3ed7d127	0.42151758
33	0x3ec38ccd	0.3819336
34	0x3eeae9cc	0.45881498
35	0x3e92f485	0.2870218
36	0x3e7c8b14	0.24662429
37	0x3ed193b9	0.40933016
38	0x3ea97bf1	0.33102372
39	0x3e891720	0.26775455
40	0x3edebcf8	0.43503547
41	0x3ed94f2c	0.42443216
42	0x3eb0b5a3	0.34513578
43	0x3e94e26a	0.2907899
44	0x3ec41fe3	0.38305578
45	0x3e8c3d66	0.27390593
46	0x3e852245	0.26002708
47	0x3ea8376d	0.32854787
48	0x3ec4249a	0.38309175
49	0x3e75a5f8	0.23989093
50	0x3ea1d368	0.31606603
51	0x3eda0ddd	0.42588702
52	0x3eefc51d	0.46830073
53	0x3efa004a	0.48828346
54	0x3ed0c2e0	0.40773678
55	0x3ec819cd	0.39082184
56	0x3eee5faa	0.4655736
57	0x3eae23d1	0.340117
58	0x3e774319	0.2414669
59	0x3edefb52	0.43551117
60	0x3ea2d4c8	0.31802964
61	0x3ea20098	0.31641078
62	0x3e6f71f0	0.23383307
63	0x3ed3e19a	0.41383058
64	0x1302dbff	1.6516773e-27
65	0x96c273bd	-3.1415432e-25
66	0x9330074d	-2.2217923e-27
67	0x978eca1d	-9.227555e-25
68	0x315638af	3.117332e-09
69	0x179ee184	1.0267439e-24
70	0xb1519fdc	-3.0504372e-09
71	0x90a8ec4a	-6.6628377e-29
72	0x92110da4	-4.5770746e-28
73	0x28452d2e	1.09454936e-14
74	0x9a6a11ef	-4.8404552e-23
75	0x2f38bbf4	1.6801477e-10
76	0x1a6fbe58	4.95778e-23
77	0xafb269a8	-3.2453085e-10
78	0x25439130	1.6962745e-16
79	0x1f3a9995	3.9514072e-20
80	0x1ef4ab20	2.590528e-20
81	0x32d0cc96	2.4307422e-08
82	0xb1186add	-2.2179656e-09
83	0x2f8d60d7	2.571656e-10
84	0x1bc6542e	3.2810752e-22
85	0x1353b51d	2.672124e-27
86	0x960834c4	-1.1002642e-25
87	0x10a19fac	6.3749316e-29
88	0xa80faebf	-7.975987e-15
89	0x30e75a36	1.6833102e-09
90	0x96c16ca5	-3.1249396e-25
91	0xb0c6de8d	-1.4469649e-09
92	0x8f1eeeda	-7.8360026e-30
93	0x1cbbf323	1.2437471e-21
94	0x2f0cffad	1.282376e-10
95	0x31556b37	3.1056524e-09
96	0x322bf28f	1.00086615e-08
97	0x12a70ac1	1.0541833e-27
98	0x102dfccc	3.4312982e-29
99	0xaef7d462	-1.1269986e-10
100	0xad102d08	-8.195451e-12
101	0x91e43090	-3.6001986e-28
102	0x2c45cad7	2.8107983e-12
103	0x290d2757	3.134241e-14
104	0xad8676e6	-1.5286838e-11
105	0x320e8dcb	8.297728e-09
106	0xb26abe2a	-1.3663831e-08
107	0x32c7c435	2.3255874e-08
108	0x932a635d	-2.1506007e-27
109	0x174be349	6.587971e-25
110	0x308c8011	1.0222739e-09
111	0x16a485a1	2.657996e-25
112	0x299de165	7.0113e-14
113	0x956730a3	-4.6688446e-26
114	0x22fdc087	6.8779634e-18
115	0x9c930a14	-9.730249e-22
116	0x302f70f4	6.3825145e-10
117	0x1e7744f3	1.30903295e-20
118	0x1250ab2e	6.5844223e-28
119	0x17258b71	5.3490375e-25
120	0x171333ce	4.756365e-25
121	0x130f9948	1.8124711e-27
122	0x120214af	4.104626e-28
123	0x9194f152	-2.3499008e-28
124	0x9d72905c	-3.2103065e-21
125	0x9be9be53	-3.866961e-22
126	0x2f7f4cb6	2.3219368e-10
127	0x1004b0e8	2.6168693e-29
128	0x3ee37d0c	0.4443134
129	0x3ea9a1e9	0.3313134
130	0x3ed221e9	0.41041496
131	0xbe9baa6d	-0.30403462
132	0xbea9349e	-0.33047956
133	0x3ee14408	0.43997216
134	0xbebc55ed	-0.36784306
135	0x3ea3d28a	0.31996566
136	0xbed7a398	-0.42117
137	0xbeccfb8c	-0.40035665
138	0xbe983114	-0.29724944
139	0x3eb6091e	0.3555383
140	0xbeb81f5d	-0.35961428
141	0x3e82eb7f	0.25570294
142	0x3eb3cda0	0.35117817
143	0x3ed7023d	0.41993895
144	0x3ed6e57f	0.41971967
145	0xbe93b7f0	-0.2885127
146	0x3ede24ae	0.4338736
147	0xbed1ad43	-0.409525
148	0x3ebe69c0	0.37190056
149	0xbe8d73ea	-0.27627498
150	0xbecb7b8b	-0.39742693
151	0x3ed45142	0.41468245
152	0xbe88ebda	-0.2674244
153	0x3edb9e00	0.42893982
154	0x3ed34fc8	0.41271806
155	0xbe9e3df7	-0.3090665
156	0xbe808935	-0.2510468
157	0xbe8f661a	-0.28007585
158	0xbed7388b	-0.42035326
159	0x3ebd0f0f	0.3692555
160	0x3eab7bfd	0.33493033
161	0x3e9e67cf	0.30938575
162	0x3ed906f2	0.4238811
163	0x3e776f86	0.24163637
164	0xbed0d3bf	-0.4078655
165	0x3eb71682	0.3575936
166	0x3e93040d	0.28714028
167	0xbeb52c49	-0.3538535
168	0x3eb7df45	0.3591253
169	0x3edab980	0.4271965
170	0x3ed7075f	0.4199781
171	0xbe8a3a1e	-0.26997465
172	0xbebd0713	-0.3691946
173	0x3ea0f3c2	0.31435972
174	0xbea6311d	-0.32459345
175	0x3e9bef18	0.30455852
176	0xbede33a4	-0.43398774
177	0x3ed28f8d	0.41125146
178	0xbed5a8b9	-0.41730288
179	0xbed58ea4	-0.4171039
180	0x3ecf9395	0.40542284
181	0x3ede514b	0.43421397
182	0xbe9a3130	-0.30115652
183	0x3e844ec2	0.25841337
184	0x3ed23864	0.41058648
185	0xbebea236	-0.37233132
186	0xbecf9d2a	-0.40549594
187	0x3eb5376f	0.35393855
188	0x3edb1cfa	0.42795545
189	0x3eaa851a	0.33304673
190	0xbeb6988d	-0.35663262
191	0xbeb29a2f	-0.34883258
192	0x3ea751d8	0.3267963
193	0x3ebb15e5	0.36540142
194	0x3e708f67	0.23492204
195	0x3ef19b08	0.47188592
196	0x3ee2326b	0.4417909
197	0x3ee53c23	0.44772443
198	0x3ee22461	0.4416838
199	0x3e9ba4cd	0.3039917
200	0x3eb75a17	0.3581092
201	0x3e8b8027	0.2724621
202	0x3e73ae80	0.23797035
203	0x3e94c251	0.29054502
204	0x3ea7521d	0.32679835
205	0x3e3e1c95	0.1856559
206	0x3ee73b5c	0.45162475
207	0x3e903ee8	0.28172994
208	0x3ec7d0bd	0.39026442
209	0x3e95e669	0.29277351
210	0x3ecaf154	0.39637244
211	0x3ed1b9e3	0.40962133
212	0x3e713d36	0.23558506
213	0x3eda8da4	0.42686188
214	0x3ed564c2	0.41678435
215	0x3ec5571b	0.3854302
216	0x3eae9536	0.34098214
217	0x3efd97a3	0.49529752
218	0x3ec1630d	0.37770882
219	0x3eeb09ad	0.4590582
220	0x3edc5c59	0.43039206
221	0x3e7a039f	0.24415444
222	0x3e9e0251	0.30861142
223	0x3ecf633d	0.405054
224	0x3e9f98b4	0.3117119
225	0x3e9124ef	0.2834849
226	0x3ebf905e	0.3741483
227	0x3ec2d10d	0.38050118
228	0x3e7c1883	0.24618725
229	0x3f00c90b	0.5030677
230	0x3e9e6dd8	0.3094318
231	0x3eb5d34c	0.3551277
232	0x3e8c510c	0.27405584
233	0x3eca20fc	0.3947829
234	0x3efaf5a9	0.4901555
235	0x3eac1df1	0.33616593
236	0x3ebf785f	0.37396523
237	0x3e82fdfb	0.25584397
238	0x3e795c46	0.24351606
239	0x3edce798	0.43145442
240	0x3e812686	0.25224704
241	0x3ec22ad4	0.379233
242	0x3ebd8ad8	0.37019992
243	0x3ee7e000	0.45288086
244	0x3ed878cb	0.42279658
245	0x3e94ba3c	0.29048336
246	0x3e98cce4	0.2984382
247	0x3ebf63aa	0.37380725
248	0x3ee009f1	0.43757585
249	0x3e91ec38	0.28500533
250	0x3e810547	0.2519934
251	0x3ec7a4ba	0.38992864
252	0x3eb4bc73	0.35300025
253	0x3ed3f2bc	0.4139613
254	0x3ebe904d	0.37219468
255	0x3ebbb233	0.36659393

lstm.bias_hh_l0 f4 [256]
0	0x3e9afb08	0.30269647
1	0x3eabb867	0.33539125
2	0x3e842d76	0.25815934
3	0x3e98f08e	0.2987103
4	0x3ef43ab3	0.47701034
5	0x3e9987e3	0.29986486
6	0x3eaeea89	0.3416331
7	0x3edb7a64	0.42866814
8	0x3ece96a3	0.40349302
9	0x3eb70f48	0.35753846
10	0x3ec2cbe3	0.38046178
11	0x3e5b7845	0.21432598
12	0x3e80bd9f	0.2514467
13	0x3ec09fb5	0.37621847
14	0x3ee0ce25	0.43907276
15	0x3e64509c	0.22296375
16	0x3ee001f1	0.4375148
17	0x3e89a4dd	0.26883593
18	0x3eb33920	0.3500452
19	0x3eb15845	0.34637657
20	0x3ed74be5	0.4205009
21	0x3ea1e573	0.31620368
22	0x3e8d3844	0.2758199
23	0x3ebbec03	0.367035
24	0x3e872d8f	0.26401946
25	0x3ebcc416	0.36868352
26	0x3e9a204c	0.30102766
27	0x3ecbeba5	0.3982822
28	0x3ebf5e65	0.37376705
29	0x3ea8f6be	0.3300075
30	0x3eb4f90d	0.3534626
31	0x3ea6ac2b	0.3255323
32	0x3ec8b4d5	0.39200464
33	0x3e8e10ac	0.27747095
34	0x3eecd2d3	0.46254596
35	0x3ef0cced	0.47031346
36	0x3ed0f3b0	0.4081092
37	0x3ecf0885	0.40436187
38	0x3e748674	0.23879415
39	0x3ee5db20	0.44893742
40	0x3ed128c2	0.40851408
41	0x3eb831fd	0.35975638
42	0x3ebe669f	0.3718767
43	0x3ecedddb	0.40403637
44	0x3e884fe1	0.26623443
45	0x3eba72bd	0.36415663
46	0x3ed94ddc	0.42442214
47	0x3ee00ed6	0.4376132
48	0x3ea3c48f	0.319859
49	0x3ecac57c	0.39603794
50	0x3ea88eff	0.32921597
51	0x3eaa671d	0.33281794
52	0x3eb12c1b	0.34603962
53	0x3ea6276b	0.3245195
54	0x3ef43b17	0.47701332
55	0x3ea8b099	0.32947233
56	0x3ef343dc	0.4751271
57	0x3eb683f5	0.3564755
58	0x3ea6d3e5	0.32583538
59	0x3f0128c8	0.5045285
60	0x3e9d9580	0.30778122
61	0x3edd21e9	0.43189934
62	0x3eb3db90	0.3512845
63	0x3edf54cc	0.43619382
64	0x256e8fc3	2.0691918e-16
65	0x9b767954	-2.0387846e-22
66	0x32aaad43	1.9869395e-08
67	0xa0acab37	-2.9251234e-19
68	0x91e3ea5a	-3.5958715e-28
69	0x28c7c9e1	2.218099e-14
70	0x947500b5	-1.23694784e-26
71	0x95d641be	-8.6537635e-26
72	0x31a19f12	4.703801e-09
73	0x140afa58	7.016591e-27
74	0x22e543de	6.214243e-18
75	0x96b0b769	-2.8550082e-25
76	0x9ce0829d	-1.4856839e-21
77	0x97cecae6	-1.3363657e-24
78	0x96a3a779	-2.643976e-25
79	0xb0daac15	-1.5910496e-09
80	0xa1afa523	-1.1902173e-18
81	0x11012c74	1.0190004e-28
82	0x1274d03e	7.7249503e-28
83	0x92294f24	-5.3424546e-28
84	0x1200e9a6	4.067767e-28
85	0x9eadc873	-1.8399991e-20
86	0x169bbf2e	2.5162252e-25
87	0x31a7a1ab	4.878719e-09
88	0x95e03c7a	-9.0568295e-26
89	0x972f06dc	-5.6554207e-25
90	0x128f537a	9.045147e-28
91	0x2db8a3d7	2.0991138e-11
92	0x1720ac91	5.19166e-25
93	0x297ab867	5.5671095e-14
94	0x9b06c23e	-1.1146983e-22
95	0x1298ef51	9.651545e-28
96	0x2eb5182e	8.235222e-11
97	0x1eb415db	1.906728e-20
98	0xa46bf97c	-5.1168824e-17
99	0x9137f45c	-1.4511454e-28
100	0x12fd79d0	1.5996574e-27
101	0x9610cb3b	-1.1696356e-25
102	0xa28d58dd	-3.8312214e-18
103	0x90d83d1f	-8.529115e-29
104	0xa21b9ade	-2.1088403e-18
105	0x9251031c	-6.5952604e-28
106	0x0f6f3ffe	1.1795934e-29
107	0x307139ea	8.775759e-10
108	0x1105b80d	1.0548565e-28
109	0x1a26f878	3.4528707e-23
110	0x96cbca40	-3.2924057e-25
111	0x2b06faa2	4.7954186e-13
112	0x2541197d	1.6748717e-16
113	0x130853a0	1.7206844e-27
114	0xa832b5bc	-9.920392e-15
115	0x904238d2	-3.8303527e-29
116	0x10113856	2.8639607e-29
117	0x0e422e24	2.3934562e-30
118	0x985e7982	-2.8754173e-24
119	0x32a0722e	1.8678374e-08
120	0x94e2a2f5	-2.2884443e-26
121	0x296da130	5.276438e-14
122	0xac3ba006	-2.666313e-12
123	0x1699cc93	2.4847588e-25
124	0x31a49e08	4.7909943e-09
125	0xa6602dad	-7.7777514e-16
126	0xa2fe0417	-6.885117e-18
127	0x3246f768	1.15813705e-08
128	0x3e95ece4	0.29282296
129	0x3eaf9814	0.34295714
130	0x3ed453f1	0.41470292
131	0xbee92e8f	-0.45543334
132	0xbedc2662	-0.42998034
133	0x3ee0f5ee	0.4393763
134	0xbe8352fd	-0.25649253
135	0x3eb28d32	0.34873348
136	0xbeaf8fd5	-0.34289423
137	0xbec2693a	-0.37970906
138	0xbee1fdb7	-0.44138882
139	0x3eb76200	0.35816956
140	0xbe9182a6	-0.2841999
141	0x3e8e93c9	0.27847126
142	0x3eb62130	0.35572195
143	0x3eac452e	0.3364653
144	0x3ea27b0f	0.3173451
145	0xbee26e3c	-0.44224727
146	0x3eaba304	0.3352281
147	0xbea9c511	-0.33158162
148	0x3eb99a3e	0.3625049
149	0xbef3cf7d	-0.47619238
150	0xbebaae23	-0.3646098
151	0x3e6550ef	0.22394155
152	0xbead87ff	-0.3389282
153	0x3e91f043	0.28503618
154	0x3ed16fe7	0.40905687
155	0xbedbd07c	-0.42932498
156	0xbed61dcf	-0.41819617
157	0xbedb15b5	-0.4279
158	0xbe98b9cf	-0.2982926
159	0x3ed792eb	0.42104277
160	0x3e855cb3	0.26047286
161	0x3ede7753	0.43450412
162	0x3e8e09ef	0.27741954
163	0x3ec4a315	0.38405672
164	0xbeda6349	-0.42653874
165	0x3eedbcac	0.46433008
166	0x3ed70396	0.41994923
167	0xbeba5f61	-0.36400893
168	0x3ec72b69	0.38900307
169	0x3ebb6f4d	0.36608353
170	0x3ea40d81	0.32041553
171	0xbecd0c32	-0.40048367
172	0xbec953d1	-0.3932176
173	0x3ecca962	0.3997298
174	0xbec058e0	-0.37567806
175	0x3ecd2219	0.40065077
176	0xbea4480d	-0.3208622
177	0x3edd00ac	0.43164575
178	0xbe8ca6b8	-0.27470946
179	0xbeab45e4	-0.3345176
180	0x3ebe8c4b	0.3721641
181	0x3eb6d944	0.35712636
182	0xbede8117	-0.43457863
183	0x3eaf197b	0.34199128
184	0x3e928410	0.2861638
185	0xbeccc50b	-0.39994082
186	0xbea14750	-0.3149972
187	0x3ed7a107	0.42115042
188	0x3e631982	0.22177699
189	0x3ecf964a	0.4054435
190	0xbea9fd4d	-0.33201066
191	0xbeb48a5a	-0.35261804
192	0x3eeea89a	0.46613008
193	0x3e9881fd	0.29786673
194	0x3e84ead4	0.2596041
195	0x3ea05e13	0.31321773
196	0x3ea69d6f	0.32541987
197	0x3ef5ae95	0.47984758
198	0x3e70e89d	0.23526235
199	0x3ec0712c	0.37586343
200	0x3eced0d5	0.403937
201	0x3e61271f	0.2198758
202	0x3eb54b25	0.35408893
203	0x3ebea60f	0.37236068
204	0x3ec8b6ba	0.3920191
205	0x3e86742d	0.2626051
206	0x3eaabe97	0.33348534
207	0x3eb0a146	0.34498042
208	0x3eb19b5d	0.34688845
209	0x3ef802ab	0.48439535
210	0x3ef055a9	0.46940354
211	0x3ea8bf20	0.32958317
212	0x3ee87e04	0.45408642
213	0x3e88a5dc	0.2668904
214	0x3e849b1e	0.25899595
215	0x3e5032b4	0.20331842
216	0x3e6045b5	0.21901591
217	0x3ec68b27	0.3877804
218	0x3ec695a9	0.38786057
219	0x3eac747d	0.33682624
220	0x3ebdd1d5	0.37074152
221	0x3e8c28df	0.27374932
222	0x3ecc4a79	0.39900568
223	0x3e9f6851	0.31134275
224	0x3ebf31cc	0.3734268
225	0x3ed2cfbf	0.41174123
226	0x3eae4140	0.34034157
227	0x3e9c048a	0.30472213
228	0x3eda860a	0.4268039
229	0x3ebbb23e	0.36659425
230	0x3e97ab40	0.2962284
231	0x3ede0f2f	0.4337096
232	0x3ea62983	0.32453546
233	0x3e82b60e	0.25529522
234	0x3e8db9f1	0.27680925
235	0x3e88b334	0.2669922
236	0x3ed5bd45	0.41745964
237	0x3ebabcf3	0.36472282
238	0x3ec916a6	0.39275092
239	0x3e9b1d08	0.30295587
240	0x3ec25289	0.37953594
241	0x3ee0a312	0.43874413
242	0x3e84e7ae	0.25958008
243	0x3eea9f26	0.45824546
244	0x3eeb28dd	0.45929614
245	0x3edc59d5	0.43037286
246	0x3ec0db9f	0.37667558
247	0x3ed82567	0.42216036
248	0x3e92087c	0.28522098
249	0x3ec0d0f8	0.3765943
250	0x3ea22e6d	0.31676045
251	0x3eb2de24	0.34935105
252	0x3e730d5a	0.23735562
253	0x3ee73766	0.45159453
254	0x3ec9f35e	0.39443487
255	0x3f0002ef	0.50004476

lstm.weight_ih_l1 f4 [256, 64]
0	0x3eaad150	0.33362818
1	0x3ed132e2	0.40859133
2	0x3eada82d	0.3391737
3	0xbeced72f	-0.40398547
4	0xbea11f38	-0.3146913
5	0x3e85f7c7	0.26165602
6	0xbe716514	-0.23573714
7	0x3e7e63ef	0.24842809
8	0xbe5d5aff	-0.21616744
9	0xbebfcb20	-0.3745966
10	0xbe98da03	-0.2985383
11	0x3e8e0084	0.27734768
12	0xbe2d0594	-0.16896659
13	0x3e88a4b4	0.2668816
14	0x3e8b0f51	0.27160123
15	0x3e202896	0.15640482
16	0x3e857949	0.26069096
17	0xbe3da5c6	-0.18520269
18	0x3e4154c9	0.18879999
19	0xbec22fd6	-0.3792712
20	0x3ebeb558	0.3724773
21	0xbecd1a06	-0.40058917
22	0xbecada3e	-0.3961963
23	0x3e52cd31	0.20586087
24	0xbec16743	-0.37774095
25	0x3e85d2b3	0.26137313
26	0x3e62401e	0.22094771
27	0xbed0dc7f	-0.40793225
28	0xbea611da	-0.32435495
29	0xbe859f4b	-0.26098093
30	0xbe92d5c7	-0.28678724
31	0x3ed6e1d8	0.4196918
32	0x3ea9a60a	0.3313449
33	0x3e6deb7d	0.23234363
34	0x3e1ca133	0.15295868
35	0x3eb11465	0.34585872
36	0xbe281f23	-0.16418128
37	0x3e9a30f4	0.30115473
38	0x3e91b53b	0.2845858
39	0xbeaf074a	-0.3418525
40	0x3ec159a3	0.377637
41	0x3e61425a	0.21997967
42	0x3ed9ba79	0.4252508
43	0xbe421c79	-0.18956174
44	0xbed44f59	-0.41466787
45	0x3e9d9ef1	0.30785325
46	0xbe5895bc	-0.21150869
47	0x3e89a7ce	0.26885837
48	0xbedabd52	-0.42722565
49	0x3e8b0b73	0.27157173
50	0xbe960ca2	-0.29306513
51	0xbebc89c7	-0.36823866
52	0x3e704a60	0.23465872
53	0x3e89094b	0.26764902
54	0xbec3cb40	-0.38241005
55	0x3eb7e027	0.35913202
56	0x3eab98a4	0.33514893
57	0xbea6b094	-0.32556593
58	0xbe365e6e	-0.1780946
59	0x3ec1bcf4	0.37839472
60	0x3e617923	0.22018866
61	0x3eaf5c80	0.3425026
62	0xbe8ef5a9	-0.279218
63	0xbee63a5e	-0.44966406
64	0x3e8e27f0	0.27764845
65	0x3ea05ea2	0.313222
66	0x3e0f68f6	0.14004883
67	0xbeae26c9	-0.34013966
68	0xbec9253e	-0.39286226
69	0x3e672883	0.22574048
70	0xbe903ad6	-0.28169888
71	0x3eb395b3	0.3507515
72	0xbeccbde2	-0.3998862
73	0xbec4a70c	-0.38408697
74	0xbe93032a	-0.2871335
75	0x3ecde2e9	0.4021218
76	0xbea1a0c3	-0.31567964
77	0x3e9e46c9	0.3091338
78	0x3ec37266	0.38173217
79	0x3e08a081	0.13342477
80	0x3ec09ba4	0.37618744
81	0xbea7af42	-0.327509
82	0x3e8cb573	0.27482185
83	0xbe9874df	-0.29776666
84	0x3ebc0d80	0.3672905
85	0xbe3be1d4	-0.18347865
86	0xbe9d45ef	-0.30717418
87	0x3e102d7f	0.14079855
88	0xbeb28381	-0.34865955
89	0x3ed2b7eb	0.41155943
90	0x3eb6ce9e	0.3570451
91	0xbe46b40a	-0.19404617
92	0xbe90cbd6	-0.28280514
93	0xbe8e2f59	-0.27770498
94	0xbeeaa8fe	-0.45832056
95	0x3e88b346	0.26699275
96	0x3eb70800	0.3574829
97	0x3e82467c	0.254444
98	0x3e69dc9b	0.2283806
99	0x3ea718fd	0.32636252
100	0xbe5b6709	-0.21426024
101	0x3e14b6b9	0.14522828
102	0x3e383720	0.17989779
103	0xbe925e3f	-0.2858753
104	0x3e951c79	0.29123285
105	0x3e9c6dd1	0.30552533
106	0x3ecb7103	0.3973466
107	0xbecb862a	-0.39750797
108	0xbe2a91f6	-0.16657242
109	0x3eca6046	0.39526576
110	0xbe30d7a7	-0.17269765
111	0x3e6e6690	0.23281312
112	0xbeeb3d22	-0.45945078
113	0x3e65db87	0.22447024
114	0xbeb752f9	-0.3580549
115	0xbe7b48cf	-0.24539493
116	0x3e24a1d2	0.16077355
117	0x3e8ee701	0.27910617
118	0xbea5bb8f	-0.32369658
119	0x3eb320d0	0.3498597
120	0x3ebbbac5	0.3666593
121	0xbe698613	-0.22805052
122	0xbea771a9	-0.32703903
123	0x3e567f15	0.20946915
124	0x3ec37da4	0.38181794
125	0x3ed49327	0.41518518
126	0xbe57ca7b	-0.21073334
127	0xbec39ebb	-0.3820704
128	0x3e89f78b	0.26946673
129	0x3e75abf3	0.23991375
130	0x3e8c4519	0.27396467
131	0xbe5fcc60	-0.21855307
132	0xbea3bf81	-0.31982043
133	0x3e2b3756	0.16720328
134	0xbeb57b0f	-0.3544545
135	0x3e3060e6	0.17224464
136	0xbed50f60	-0.41613293
137	0xbea88f4c	-0.32921827
138	0xbe9a4044	-0.30127156
139	0x3ecab24a	0.3958915
140	0xbe6b7785	-0.22994812
141	0x3e8106ff	0.2520065
142	0x3e37cd5a	0.17949429
143	0x3ebafbbe	0.3652019
144	0x3ec8a74d	0.3919014
145	0xbea4fac8	-0.3222258
146	0x3e88fece	0.267569
147	0xbea98cbd	-0.33115187
148	0x3ee54178	0.4477651
149	0xbec9a553	-0.39383945
150	0xbeb09dda	-0.3449543
151	0x3e4f96b1	0.20272328
152	0xbea44bd8	-0.32089114
153	0x3e8fba2e	0.2807173
154	0x3e73dcab	0.23814647
155	0xbe8b1bc9	-0.27169636
156	0xbeafe21f	-0.34352204
157	0xbe817a90	-0.2528882
158	0xbe8a5f47	-0.27025816
159	0x3ea306fc	0.31841266
160	0x3ec4ccc9	0.3843749
161	0x3eb42b1a	0.35189134
162	0x3e375b26	0.17905864
163	0x3ecf0118	0.40430522
164	0xbecbcff4	-0.39807093
165	0x3eb71a7e	0.357624
166	0x3e69804c	0.22802848
167	0xbeb09882	-0.34491354
168	0x3eb69c75	0.35666242
169	0x3ebfe77a	0.3748129
170	0x3e5b5f0d	0.21422978
171	0xbe91d2d1	-0.28481153
172	0xbe7a9830	-0.24472117
173	0x3e977882	0.29584128
174	0xbe7e6946	-0.24844846
175	0x3e243722	0.16036656
176	0xbeca5154	-0.39515173
177	0x3ea30e3c	0.31846797
178	0xbe67becd	-0.22631378
179	0xbe88982f	-0.26678607
180	0x3e578c09	0.21049513
181	0x3e83bfd2	0.25732285
182	0xbe36f143	-0.17865472
183	0x3e9e700d	0.30944863
184	0x3e908b3e	0.28231233
185	0xbed0bcf2	-0.40769154
186	0xbe90dc0e	-0.28292888
187	0x3ec7ca56	0.39021558
188	0x3e517ad1	0.20457007
189	0x3ebb859f	0.36625382
190	0xbe70f40d	-0.23530598
191	0xbe6312d7	-0.22175156
192	0x3e70fdbb	0.2353429
193	0x3eba2af3	0.36360893
194	0x3e81f316	0.25380772
195	0xbe953148	-0.2913916
196	0xbe67b3e7	-0.22627221
197	0x3e861183	0.26185235
198	0xbe18ff99	-0.14941253
199	0x3ea3a9c0	0.31965446
200	0xbea8c4e1	-0.32962707
201	0xbe5a0bc5	-0.21293552
202	0xbe82a18f	-0.25513884
203	0x3ec2f3e1	0.3807669
204	0xbea62f2e	-0.3245787
205	0x3ea2327a	0.31679136
206	0x3ebf4a64	0.37361443
207	0x3e8eda34	0.2790085
208	0x3e506016	0.20349154
209	0xbea9af57	-0.33141586
210	0x3eb9138f	0.36147735
211	0xbe89a182	-0.26881033
212	0x3eb59b4b	0.35470042
213	0xbe3c45a0	-0.18385935
214	0xbe8b86a2	-0.27251154
215	0x3ec02a8f	0.3753247
216	0xbe91a0e0	-0.2844305
217	0x3e2fafcb	0.17156903
218	0x3e905b63	0.28194723
219	0xbea394d8	-0.31949496
220	0xbeb2cd64	-0.34922326
221	0xbe95289d	-0.29132548
222	0xbeaf6bea	-0.3426202
223	0x3e3ad577	0.18245493
224	0x3ed87378	0.42275596
225	0x3eb9e98c	0.36310995
226	0x3e2ad27e	0.16681859
227	0x3e889780	0.26678085
228	0xbea28b81	-0.31747058
229	0x3e3e1904	0.1856423
230	0x3e8ac577	0.2710378
231	0xbea83ad7	-0.3285739
232	0x3eba768f	0.36418578
233	0x3eb97bad	0.3622717
234	0x3ebdce55	0.3707148
235	0xbeb8fef5	-0.36132017
236	0xbea8da24	-0.32978928
237	0x3eb8e68a	0.36113387
238	0xbe554631	-0.20827557
239	0x3e8f0d3f	0.27939793
240	0xbeacf3b7	-0.3377969
241	0x3e89fd6f	0.26951167
242	0xbe5df966	-0.21677169
243	0xbec892da	-0.3917454
244	0x3e9e2bfd	0.30892935
245	0x3e51b449	0.2047893
246	0xbeb5fa2d	-0.3554243
247	0x3ebfbf96	0.37450856
248	0x3e8606f2	0.26177174
249	0xbeaf5552	-0.34244782
250	0xbe15a680	-0.14614296
251	0x3e81d63c	0.2535876
252	0x3ea02f6a	0.31286174
253	0x3ea297d1	0.31756452
254	0xbea2c2da	-0.31789285
255	0xbedaaaa1	-0.42708305

lstm.weight_hh_l1 f4 [256, 64]
0	0x13284251	2.1237278e-27
1	0x9131a374	-1.4013206e-28
2	0x30107bba	5.256272e-10
3	0xae9fa7bc	-7.2602785e-11
4	0x161b33cb	1.2537143e-25
5	0xab8fc7e5	-1.0216243e-12
6	0x919cd4fc	-2.4743722e-28
7	0x298d18a4	6.265932e-14
8	0x8e9fe76e	-3.9419385e-30
9	0x27bc9fde	5.235381e-15
10	0x20297571	1.4353715e-19
11	0x930aefdb	-1.7536307e-27
12	0x2e6cc6df	5.383682e-11
13	0x9300ee93	-1.6273498e-27
14	0xa2026420	-1.7671291e-18
15	0xb1240aa6	-2.3871194e-09
16	0x9aaec5d1	-7.22843e-23
17	0x9e24c35f	-8.7224895e-21
18	0x21fb8b9d	1.7045377e-18
19	0x131a625e	1.9486031e-27
20	0x22c68ffb	5.3820453e-18
21	0xaac61927	-3.5189318e-13
22	0x31216d18	2.3490596e-09
23	0x12e2d224	1.4314409e-27
24	0x91ef07fd	-3.7712474e-28
25	0x9601d508	-1.0487758e-25
26	0x119c5545	2.4665012e-28
27	0x1294feba	9.402908e-28
28	0x9f22d5e6	-3.4481767e-20
29	0x1f8131fc	5.471632e-20
30	0x91a0ac95	-2.534991e-28
31	0x91fcb832	-3.9872109e-28
32	0x161b73c4	1.255733e-25
33	0x2306c837	7.306552e-18
34	0x92f73f6d	-1.5603527e-27
35	0x188890e6	3.5301486e-24
36	0x0f631579	1.11960996e-29
37	0x9a12e61c	-3.0377973e-23
38	0x916e9ec4	-1.8823813e-28
39	0x18d9ca09	5.629719e-24
40	0x0ec2fd48	4.8068593e-30
41	0x175c56f4	7.1195584e-25
42	0x11a0c37b	2.5364023e-28
43	0x97cef0d0	-1.3373228e-24
44	0xabb2919d	-1.2688077e-12
45	0xac413513	-2.7456412e-12
46	0x190541ed	6.8892524e-24
47	0x91bb76fa	-2.9576723e-28
48	0x299d1200	6.975323e-14
49	0x2ae5edb6	4.0843517e-13
50	0x970857ec	-4.4054943e-25
51	0x27032b61	1.8203418e-15
52	0x172db364	5.612574e-25
53	0x91b36a01	-2.830655e-28
54	0xb2038db5	-7.657424e-09
55	0xa3878b4b	-1.4695722e-17
56	0x12ca0c7d	1.2751071e-27
57	0xb0dc2d97	-1.6020064e-09
58	0xa9c465c0	-8.721799e-14
59	0xafb18c9d	-3.2296024e-10
60	0xb073bafc	-8.8668606e-10
61	0xa2fa8b0b	-6.7909853e-18
62	0x102ede78	3.4486833e-29
63	0x9c92372b	-9.67573e-22
64	0xb2b15d99	-2.0648075e-08
65	0x90e524a7	-9.0381046e-29
66	0xb1b137db	-5.157728e-09
67	0x316322b6	3.3052578e-09
68	0x1bc80126	3.3087967e-22
69	0x10912572	5.725011e-29
70	0x95d32786	-8.528458e-26
71	0x292fb38a	3.901353e-14
72	0x2be595fd	1.6313059e-12
73	0x942f6f0a	-8.857141e-27
74	0xaf6361ef	-2.0680323e-10
75	0x1307e9b9	1.715463e-27
76	0x9f5e81f0	-4.711781e-20
77	0x2cf3f511	6.9336832e-12
78	0x8e17602a	-1.8658488e-30
79	0x8e46d7a3	-2.450921e-30
80	0xa5ebc2a8	-4.0897906e-16
81	0x30d501cc	1.54983e-09
82	0x105e53f0	4.3846443e-29
83	0x0f13a74d	7.2798805e-30
84	0x13251813	2.0837797e-27
85	0xa7a2a7c3	-4.514592e-15
86	0xad5ebc84	-1.2661098e-11
87	0x2ba8d38e	1.1995836e-12
88	0x11007af2	1.0135305e-28
89	0x0d13bde8	4.5526464e-31
90	0x1c39c59a	6.146676e-22
91	0x29ab07f3	7.5953045e-14
92	0x901a7ed0	-3.0468838e-29
93	0x10dcd9f4	8.711051e-29
94	0x92b4dabb	-1.1413518e-27
95	0xae26abc3	-3.7896585e-11
96	0x97a70715	-1.079391e-24
97	0x9258189a	-6.8187906e-28
98	0x1205f1b9	4.2265346e-28
99	0x2a423098	1.7247521e-13
100	0x91f04a83	-3.7911245e-28
101	0x166186d7	1.8217903e-25
102	0x172fbaf6	5.678153e-25
103	0xa77f8b24	-3.5463787e-15
104	0xb247ddfd	-1.1633799e-08
105	0x31632a63	3.3056942e-09
106	0x1b0ab4ae	1.1473473e-22
107	0x94882534	-1.3747165e-26
108	0xaf164212	-1.3665893e-10
109	0x1cdcc101	1.4608269e-21
110	0xaae76446	-4.1103422e-13
111	0x946e5350	-1.203236e-26
112	0x103a071e	3.6687515e-29
113	0x931d32f1	-1.9841302e-27
114	0x9220f92b	-5.079422e-28
115	0x1f8646ff	5.686866e-20
116	0x17c0876b	1.2441893e-24
117	0x1235cfc9	5.7369645e-28
118	0x1626c58e	1.347171e-25
119	0xaeb7feaa	-8.367114e-11
120	0x2eabf842	7.820279e-11
121	0x153ce5c6	3.8147557e-26
122	0x22bbe131	5.0924882e-18
123	0x95fb9210	-1.0160854e-25
124	0x1ce0cb64	1.4875652e-21
125	0xae54d75c	-4.8394497e-11
126	0x2d55b0a5	1.2146871e-11
127	0xacf62c43	-6.9966546e-12
128	0x2f574a4c	1.9580532e-10
129	0xafa8b483	-3.0687283e-10
130	0xb0802c92	-9.325893e-10
131	0x94444f72	-9.911139e-27
132	0x1ee6a8bc	2.4421984e-20
133	0x1399f2f3	3.8862196e-27
134	0x945c278f	-1.1114963e-26
135	0xa6826a8c	-9.049442e-16
136	0x30582841	7.8637546e-10
137	0x13f270d1	6.1200634e-27
138	0x1111ef41	1.1512209e-28
139	0x12a2b474	1.0268122e-27
140	0x174b4473	6.5679233e-25
141	0x22aeda43	4.739389e-18
142	0x155a4eb3	4.4086832e-26
143	0xb14ca850	-2.9781582e-09
144	0xad1425dc	-8.4212325e-12
145	0x162bac68	1.3867672e-25
146	0x11ff3e2b	4.027022e-28
147	0x157ac975	5.064602e-26
148	0x11dcd660	3.4841999e-28
149	0x2e5fd616	5.0894476e-11
150	0x1cc22bfc	1.2849213e-21
151	0x22c73579	5.3995674e-18
152	0x11d859a7	3.4134044e-28
153	0x9317f418	-1.9179227e-27
154	0x9f7ee59c	-5.397652e-20
155	0x132eb7eb	2.2052566e-27
156	0x9c01580b	-4.279631e-22
157	0x127e9b42	8.033964e-28
158	0x16230818	1.3169589e-25
159	0x919b1d6e	-2.4472826e-28
160	0x9f839f89	-5.574459e-20
161	0x96ea44ec	-3.7848235e-25
162	0x0faaf69e	1.6858288e-29
163	0x9f60aa52	-4.757473e-20
164	0x9e9d8a29	-1.6680163e-20
165	0x8fc390ba	-1.9284231e-29
166	0xaeb4322d	-8.194365e-11
167	0x119ad363	2.4427193e-28
168	0x29c02b11	8.5339837e-14
169	0xa3168432	-8.15951e-18
170	0x91a7ac38	-2.6454092e-28
171	0x109a5297	6.086954e-29
172	0x94114fbe	-7.3363556e-27
173	0x1b6aaf1e	1.941261e-22
174	0xacb394a8	-5.10399e-12
175	0x27f456a9	6.781756e-15
176	0x27f33d9b	6.751284e-15
177	0x8fc028e2	-1.8948409e-29
178	0x109489d4	5.8588065e-29
179	0x289b53ff	1.7244884e-14
180	0xaf68414c	-2.1123475e-10
181	0x1b56bfd7	1.7763652e-22
182	0x30594964	7.9048434e-10
183	0x9233a4b1	-5.668544e-28
184	0x2b82bdcb	9.289734e-13
185	0x9401a415	-6.545195e-27
186	0x978a00bf	-8.918229e-25
187	0x1757bf38	6.97116e-25
188	0x2ee0bd36	1.0219951e-10
189	0xb2c76554	-2.3212728e-08
190	0xb107c56d	-1.975731e-09
191	0x31c0e27c	5.6136837e-09
192	0x9012cbec	-2.895052e-29
193	0x2bc702b4	1.4140551e-12
194	0x238908cd	1.4857297e-17
195	0x8e6d512a	-2.9251584e-30
196	0x15975aa8	6.1131445e-26
197	0xaae148a3	-4.001843e-13
198	0x301d233d	5.7166344e-10
199	0x937088f6	-3.0359786e-27
200	0x9179fb5d	-1.9720094e-28
201	0x177c25ca	8.147329e-25
202	0xab30eb71	-6.28545e-13
203	0x11ecd306	3.7364288e-28
204	0x2308431d	7.3867866e-18
205	0x2f2dcd7e	1.5807264e-10
206	0xa3b74dcc	-1.9873848e-17
207	0x12f1a656	1.5250243e-27
208	0x12b47bf1	1.1390151e-27
209	0x914ba22c	-1.606385e-28
210	0xab5f57b6	-7.934724e-13
211	0x30ee21c4	1.7326376e-09
212	0x929a49d5	-9.736967e-28
213	0xa2db3fbc	-5.942755e-18
214	0xada94244	-1.9242503e-11
215	0xb231d408	-1.0350966e-08
216	0xb095ff00	-1.0913652e-09
217	0x1f094137	2.9064823e-20
218	0x121c7764	4.937208e-28
219	0x29945bb9	6.5884317e-14
220	0x9545e89c	-3.996733e-26
221	0x12d85920	1.3653487e-27
222	0x944e5360	-1.0416785e-26
223	0xacc94733	-5.7206683e-12
224	0x1e5dd707	1.1744109e-20
225	0x92624c1b	-7.1406833e-28
226	0x1da8b044	4.4651484e-21
227	0x0f032728	6.46634e-30
228	0x9ce0039c	-1.482401e-21
229	0x2c96e3d6	4.2885513e-12
230	0x2812215d	8.111863e-15
231	0x9ef94244	-2.6391307e-20
232	0xae425cba	-4.419285e-11
233	0x2d9e55b1	1.8000575e-11
234	0x125004d4	6.563918e-28
235	0xae3b9a69	-4.265602e-11
236	0x9e019480	-6.859912e-21
237	0xa2dd6ec1	-6.0019435e-18
238	0x19094f90	7.0988015e-24
239	0x10de6e30	8.773333e-29
240	0x1309b37b	1.7380322e-27
241	0x164f30a2	1.6736673e-25
242	0x90827f1a	-5.147179e-29
243	0x22b4218a	4.882461e-18
244	0x114e61a3	1.6280621e-28
245	0x978bf7dd	-9.045234e-25
246	0x17579ac4	6.966559e-25
247	0x0e8cd1ab	3.4714568e-30
248	0x171ab332	4.998626e-25
249	0x1e970ff5	1.5994347e-20
250	0x1238f8f0	5.8367e-28
251	0x0d82ff3c	8.073314e-31
252	0x8f4a3360	-9.9692634e-30
253	0xa9c69ec8	-8.8205105e-14
254	0x970fde36	-4.648626e-25
255	0x28649a1c	1.268996e-14

lstm.bias_ih_l1 f4 [256]
0	0x3eba700d	0.36413613
1	0x3ea2ce80	0.31798172
2	0x3eb547c7	0.35406324
3	0x3e9deb1f	0.30843446
4	0x3e55afd6	0.20867857
5	0x3eb79c2c	0.35861337
6	0x3e7af9e7	0.24509393
7	0x3e2989e6	0.1655651
8	0x3e90e4a0	0.28299427
9	0x3e88262e	0.2659163
10	0x3eae0e6e	0.33995384
11	0x3e9079fe	0.28218073
12	0x3e995bb2	0.2995277
13	0x3ea0fc8f	0.31442687
14	0x3e76e130	0.2410934
15	0x3ec4f490	0.38467836
16	0x3ec91d84	0.3928033
17	0x3e8f014d	0.2793068
18	0x3e226899	0.15860213
19	0x3eb558f5	0.3541943
20	0x3eb31dd0	0.34983683
21	0x3e51b6ae	0.20479843
22	0x3eccdd3f	0.40012547
23	0x3e54daa5	0.20786531
24	0x3ed710c0	0.42004967
25	0x3e2af175	0.16693671
26	0x3eb270ae	0.34851593
27	0x3e916a59	0.2840145
28	0x3e8210a9	0.25403336
29	0x3e50d5b1	0.20394017
30	0x3e8eba13	0.27876338
31	0x3e600430	0.21876597
32	0x3e8180c1	0.25293544
33	0x3ecac584	0.39603817
34	0x3e11f056	0.14251837
35	0x3e7a0297	0.2441505
36	0x3ebf5ebd	0.37376967
37	0x3ea9da41	0.33174327
38	0x3e350967	0.17679368
39	0x3ecc610a	0.39917785
40	0x3eae43da	0.34036142
41	0x3ea833df	0.32852075
42	0x3e56b562	0.2096763
43	0x3e9a208a	0.3010295
44	0x3e6475f1	0.22310616
45	0x3e6ee45a	0.23329297
46	0x3ea8b951	0.32953885
47	0x3eb7504b	0.35803446
48	0x3ec0acba	0.3763178
49	0x3ea21f3e	0.3166446
50	0x3e41fc2c	0.18943852
51	0x3e839aed	0.25704136
52	0x3ecef693	0.40422496
53	0x3e99c7d7	0.30035278
54	0x3e883281	0.2660103
55	0x3e9b9573	0.30387458
56	0x3eb989ea	0.36238033
57	0x3eb98f5e	0.36242193
58	0x3ec5040f	0.3847966
59	0x3e0deaf9	0.13859166
60	0x3eb657fa	0.35613996
61	0x3e4133f0	0.18867469
62	0x3e3f8a22	0.18705037
63	0x3e5d4113	0.21606855
64	0x1580e05e	5.205278e-26
65	0xab6a49c2	-8.323586e-13
66	0x182f6279	2.2667936e-24
67	0xb24e0fbf	-1.1994358e-08
68	0x30f1306b	1.7548819e-09
69	0x96022b2a	-1.0514937e-25
70	0x9ba307bb	-2.6971084e-22
71	0x2948b3cb	4.4564867e-14
72	0x32c68485	2.3110497e-08
73	0x0c9ed402	2.4471352e-31
74	0x2227e01f	2.275137e-18
75	0x1577dc7c	5.0055184e-26
76	0x9c3b84a1	-6.204453e-22
77	0x11807bc9	2.0271128e-28
78	0x1204161b	4.1679103e-28
79	0x9303fb5a	-1.665845e-27
80	0x3142fbe2	2.8373894e-09
81	0x31b992e7	5.4009095e-09
82	0xae3ff6cc	-4.364757e-11
83	0xad8fbb50	-1.6340401e-11
84	0x30820bd6	9.462109e-10
85	0x978f399f	-9.255704e-25
86	0x1b501cf2	1.721471e-22
87	0x27b9cefd	5.157223e-15
88	0x9b7ab923	-2.0739336e-22
89	0xb28f6eb0	-1.6697726e-08
90	0x1c839b78	8.709041e-22
91	0x0fdaa623	2.1560453e-29
92	0x1093cd04	5.8297153e-29
93	0xa343ede9	-1.0621351e-17
94	0x30b96b3f	1.3491003e-09
95	0x2beb730e	1.6729688e-12
96	0x9bacb922	-2.8574652e-22
97	0x950f8bb9	-2.8988842e-26
98	0xa9015fdb	-2.8726895e-14
99	0x1032c083	3.5252616e-29
100	0x304f427f	7.540066e-10
101	0x324a7958	1.1785538e-08
102	0x1a84eace	5.497327e-23
103	0x9e082fa0	-7.209629e-21
104	0x32614008	1.3111283e-08
105	0xa38ba5ca	-1.5140625e-17
106	0xb1345b45	-2.6245328e-09
107	0xab21872e	-5.738629e-13
108	0x29b7d29f	8.1633695e-14
109	0x1c5f1e0b	7.382334e-22
110	0x91a1f947	-2.555495e-28
111	0x929d033b	-9.908889e-28
112	0x913b8da6	-1.4795348e-28
113	0x8e9a5496	-3.8045384e-30
114	0x9b82b9fa	-2.162688e-22
115	0x109f94d0	6.2943724e-29
116	0xafab13c0	-3.1118752e-10
117	0xae4bce7e	-4.6340258e-11
118	0x97cb28ac	-1.3128835e-24
119	0x92be4cd7	-1.2009628e-27
120	0x91c7f509	-3.1547679e-28
121	0x12796e9d	7.8706888e-28
122	0x91729344	-1.9135814e-28
123	0x10e34c88	8.965363e-29
124	0x1d00c7c1	1.704393e-21
125	0x8eaba606	-4.231463e-30
126	0x267a6eea	8.688649e-16
127	0x11fb1eda	3.961983e-28
128	0x3e8796bb	0.26482186
129	0xbd8664af	-0.065621726
130	0xbe4cac52	-0.1998761
131	0x3e32f1d9	0.1747507
132	0xbe75eb49	-0.24015535
133	0xbd9b3230	-0.07577932
134	0x3e8fb0dd	0.28064623
135	0xbddd2eb4	-0.107999235
136	0xbe039490	-0.12849641
137	0xbe78c5e4	-0.2429424
138	0x3e90e407	0.2829897
139	0xbde85a45	-0.113453425
140	0x3e72e539	0.23720254
141	0xbe6333b4	-0.22187692
142	0xbe483eaa	-0.19555154
143	0x3e6f9972	0.23398378
144	0x3e1df71e	0.15426299
145	0x3daf385a	0.0855567
146	0xbdfda8e0	-0.12385726
147	0x3de7cda1	0.113185175
148	0x3e3a6014	0.18200713
149	0x3e9546a7	0.29155466
150	0x3e1c3b80	0.15257072
151	0x3e5c0bb4	0.2148884
152	0x3e1fe3eb	0.15614288
153	0xbd966140	-0.07342768
154	0x3e7c6e59	0.2465147
155	0x3e2c00df	0.16797207
156	0x3e7fbfd4	0.2497552
157	0xbe2149ff	-0.15750884
158	0x3e89abbf	0.26888844
159	0xbe0489d5	-0.12943204
160	0x3e8ef675	0.27922407
161	0x3e345d43	0.17613702
162	0x3e3cb9bc	0.18430227
163	0xbe07b062	-0.13250878
164	0xbd47fd94	-0.048825815
165	0x3e3461a7	0.17615376
166	0x3e816b84	0.2527734
167	0xbde44c96	-0.1114742
168	0xbdb38db8	-0.08767265
169	0xbd3b34c3	-0.045704614
170	0xbdc4d895	-0.09611622
171	0x3e24e7a3	0.16103987
172	0x3e0d7f6b	0.13818137
173	0xbda59c80	-0.08086491
174	0xbdf04b74	-0.117331415
175	0xbd8b1038	-0.06790203
176	0x3d8ab368	0.067725
177	0xbe03fa83	-0.12888531
178	0x3e8358af	0.25653598
179	0x3e324827	0.17410336
180	0xbdaedfc5	-0.085387744
181	0xbdf22486	-0.118233725
182	0x3e3aa7c8	0.18228066
183	0x3e2467e7	0.1605526
184	0x3e1c603b	0.15271084
185	0xbe6868be	-0.22696206
186	0xbe5f0866	-0.21780547
187	0x3d189f6f	0.037261423
188	0xbdad0ffb	-0.08450314
189	0xbe7fcb01	-0.24979784
190	0xbd7347ed	-0.059394766
191	0x3e380326	0.17969951
192	0x3e310177	0.17285715
193	0x3e3b7f4b	0.18310277
194	0x3e5a1abf	0.21299265
195	0x3ec7194f	0.38886496
196	0x3e5a60b1	0.21325947
197	0x3e96c9eb	0.29450926
198	0x3e9a211e	0.3010339
199	0x3e840383	0.2578393
200	0x3eba4f6d	0.36388722
201	0x3e988d33	0.29795226
202	0x3e3c9b2f	0.18418573
203	0x3e838823	0.25689802
204	0x3e987763	0.29778585
205	0x3e7682ca	0.2407333
206	0x3e3b1f98	0.18273771
207	0x3eb7bef1	0.35887864
208	0x3ea0158c	0.3126644
209	0x3e8a83ab	0.2705358
210	0x3ecfa922	0.40558726
211	0x3e4cb489	0.19990744
212	0x3e6b6d10	0.22990823
213	0x3e86b49d	0.26309672
214	0x3eab88b7	0.33502743
215	0x3e45d3db	0.19319098
216	0x3ec45a57	0.38350174
217	0x3e2f3e63	0.17113642
218	0x3e801ef2	0.2502361
219	0x3e3ac596	0.18239436
220	0x3ecbba4e	0.39790577
221	0x3ea5e6d6	0.32402676
222	0x3eac1bc9	0.33614948
223	0x3e9fa4fe	0.31180567
224	0x3edfe2be	0.43727678
225	0x3e88e8a2	0.26739985
226	0x3e1e4087	0.15454303
227	0x3e4348f4	0.19070798
228	0x3ebcd846	0.36883754
229	0x3e971b6d	0.29513112
230	0x3edc9e76	0.43089646
231	0x3eaf2c64	0.34213555
232	0x3e98aebe	0.29820818
233	0x3ed5f127	0.41785547
234	0x3ec9322b	0.39296088
235	0x3e9a1c32	0.30099636
236	0x3eab7468	0.33487248
237	0x3e97db84	0.29659665
238	0x3eaa2058	0.332278
239	0x3ed2e428	0.41189694
240	0x3e813377	0.25234577
241	0x3eaa7616	0.33293217
242	0x3e3fe9ca	0.18741527
243	0x3e6ff85f	0.2343459
244	0x3ea66965	0.32502285
245	0x3e71eab3	0.23624687
246	0x3e643e98	0.22289503
247	0x3ecedb31	0.40401605
248	0x3eb614cc	0.35562742
249	0x3e8655aa	0.26237231
250	0x3e9ef13c	0.31043422
251	0x3e6f5223	0.23371176
252	0x3e640a76	0.22269616
253	0x3ec5c4e2	0.38626772
254	0x3eb94d66	0.36191863
255	0x3eac9702	0.3370896
