model_checkpoints/model_epoch_180.pth (torch, 233384 bytes, 9 tensors)

lstm.weight_ih_l0 f4 [256, 28]
-0.3156013 0.15645482 -0.22999732 0.09650209 0.27355054 -0.12130558 -0.027027873 0.00036588212
-0.11399231 -0.041521344 -0.31466144 -0.2470738 -0.22211652 -0.24858925 -0.21038994 -0.23165932
-0.27158314 -0.13382646 -0.23768894 -0.15390068 0.11227406 -0.024461893 0.17494331 0.14025302
-0.07231266 -0.17763567 0.038526002 -0.25948644 -0.16822837 0.21639143 -0.24958405 0.07176136
0.34190872 -0.08046276 -0.05038804 -0.13852304 -0.03730957 -0.13897443 -0.13648385 -0.20376284
-0.23292387 -0.20961654 -0.17453015 -0.20646848 -0.2809126 -0.17415883 -0.31813192 -0.24787712
0.09848654 0.19919243 -0.084092095 0.0077718985 -0.07639498 -0.02878484 -0.061313145 -0.39769417
0.21592622 -0.06854987 -0.06676846 0.041726623 -0.23858224 0.008011882 -0.15821864 -0.03718242
0.08700271 -0.08043006 0.26215112 0.3315374 0.12500718 0.18051648 0.14553283 0.14594732
0.18498935 0.19048198 0.3228938 0.32919663 -0.13089725 -0.12461171 0.020631082 0.08740249
-0.031116141 0.2041169 0.31509596 0.1260265 -0.29877576 0.12766057 -0.3220112 0.16317531
0.18416391 -0.03168053 -0.033136174 0.09801585 -0.061247665 -0.034586936 -0.26466948 -0.27515027
-0.316433 -0.2500552 -0.13431737 -0.23235983 -0.3081376 -0.14613332 -0.10752277 -0.24961008
0.14109278 0.04106913 -0.016681353 -0.11982099 -0.13986473 0.015119199 -0.08402456 -0.42595875
0.16952099 -0.20281713 -0.0022611143 -0.18590212 -0.02671056 -0.07596706 0.05797624 0.03853772
-0.079274416 0.012673817 0.2034349 0.21098377 0.34387985 0.18484184 0.18255319 0.3381443
0.16369756 0.24965894 0.319801 0.31286845 0.10083595 0.09086054 -0.12013153 -0.09924148
-0.14841086 0.21544302 -0.012999407 -0.053668853 0.26408684 -0.014109872 -0.014267233 0.03217638
-0.05082917 -0.12089996 -0.12766054 -0.03738287 0.056044992 -0.049895026 0.20541805 0.24519052
0.21777575 0.18188573 0.15314873 0.2347364 0.17121251 0.16513284 0.17072438 0.11851224
0.033918325 -0.12920628 0.05307597 -0.04139396 0.026265873 0.19903712 0.25801307 0.054470297
0.2414171 -0.0097423885 0.039473355 -0.0141221285 -0.22827858 -0.011406331 -0.07015527 0.027732508
-0.035886545 0.05083856 0.32485974 0.3286616 0.23340581 0.32848614 0.26112795 0.23827974
0.13913481 0.34092322 0.16446617 0.25099844 -0.06252784 -0.005586667 -0.08312562 0.014646974
0.056391567 0.35872865 0.27519864 0.15589003 0.12100403 -0.047262717 0.03387213 0.15859048
-0.26655418 -0.06293636 -0.103202835 -0.12475714 -0.042692415 -0.07602472 0.22853638 0.20389198
0.15314563 0.2221781 0.17348576 0.25294352 0.25161788 0.22664277 0.31847468 0.08659713
-0.1208045 -0.22876811 0.056413863 0.035747256 -0.026834358 0.37638134 0.34455717 0.16498707
-0.11262278 0.20943794 -0.18212998 0.037318647 0.2988752 -0.1599154 0.009918368 0.011963559
0.050246842 -0.056973234 -0.26959807 -0.20505777 -0.094449535 -0.253025 -0.2589531 -0.217815
-0.15750402 -0.31299555 -0.14291455 -0.11126577 0.0020464852 0.24128248 -0.018612131 0.0035985007
-0.17930564 -0.035384007 -0.1287784 -0.43911302 0.25617766 -0.03381656 -0.024790993 0.15436259
00000000: 7e96 a1be b135 203e 6b84 6bbe e3a2 c53d
00000010: d10e 8c3e 0f6f f8bd 8f69 ddbc ded3 bf39
00000020: cd74 e9bd 4912 2abd 4e1b a1be ea00 7dbe
00000030: 8372 63be 2e8e 7ebe 7670 57be 1a38 6dbe
00000040: f20c 8bbe ce09 09be bb64 73be 2498 1dbe
00000050: f1ef e53d 4f64 c8bc 5724 333e 7d9e 0f3e
00000060: a918 94bd 20e6 35be 71cd 1d3d 68db 84be
00000070: 0f44 2cbe b795 5d3e f692 7fbe 9ff7 923d
00000080: a90e af3e a9c9 a4bd b063 4ebd fcd8 0dbe
00000090: ebd1 18bd 504f 0ebe 6cc2 0bbe 35a7 50be
000000a0: 9883 6ebe b8a5 56be 08b8 32be 796c 53be
000000b0: c7d3 8fbe b156 32be 30e2 a2be 80d3 7dbe
000000c0: 50b3 c93d 1af9 4b3e 7a38 acbd 69ab fe3b
000000d0: f974 9cbd 2fce ebbc 7e23 7bbd 929e cbbe
000000e0: c31b 5d3e e063 8cbd e7bd 88bd 89e9 2a3d
000000f0: e74e 74be 4544 033c 1104 22be 984c 18bd
00000100: 7a2e b23d 84b8 a4bd ac38 863e 45bf a93e
00000110: e201 003e 50d9 383e 8f06 153e 3773 153e
00000120: d96d 3d3e b50d 433e 5652 a53e 768c a83e
00000130: ee09 06be 6d34 ffbd 8402 a93c 1400 b33d
00000140: 47e7 febc 0504 513e 4254 a13e 170d 013e
00000150: 23f9 98be 74b9 023e a7de a4be 6e17 273e
00000160: 7795 3c3e 72c3 01bd ccb9 07bd 89bc c83d
00000170: d5de 7abd 08ab 0dbd c282 87be 7fe0 8cbe
00000180: 8203 a2be 3c07 80be 7e8a 09be bcef 6dbe
00000190: 36c4 9dbe f9a3 15be e634 dcbd c999 7fbe
000001a0: a07a 103e 1b38 283d 55a7 88bc b564 f5bd
000001b0: b338 0fbe 84b6 773c 1215 acbd 4417 dabe
000001c0: e996 2d3e 4baf 4fbe 342f 14bb 205d 3ebe
000001d0: 1bd0 dabc 9e94 9bbd 7e78 6d3d bad9 1d3d
000001e0: a05a a2bd d7a5 4f3c 3d51 503e 210c 583e
000001f0: 0511 b03e 2e47 3d3e 39ef 3a3e 4021 ad3e
00000200: 55a0 273e 98a6 7f3e f5bc a33e 4b30 a03e
00000210: 1483 ce3d 1715 ba3d 8507 f6bd 1e3f cbbd
00000220: 04f9 17be 189d 5c3e 77fb 54bc dfd3 5bbd
00000230: 6436 873e 182d 67bc 1dc1 69bc 61cb 033d
00000240: 3f32 50bd 669a f7bd 72b9 02be c81e 19bd
00000250: 6f8f 653d ba5e 4cbd 1c59 523e 3913 7b3e
00000260: 9b00 5f3e 4140 3a3e 05d3 1c3e bd5e 703e
00000270: 5552 2f3e 9518 293e 5fd2 2e3e 8cb6 f23d
00000280: f1ed 0a3d a74e 04be 3066 593d b78c 29bd
00000290: 872b d73c 63d0 4b3e 4a1a 843e 3f1c 5f3d
000002a0: 0b36 773e 8a9e 1fbc d0ae 213d 8060 67bc
000002b0: dcc1 69be 9fe1 3abc 91ad 8fbd 492f e33c
000002c0: c5fd 12bd 183c 503d 0454 a63e 5546 a83e
000002d0: ef01 6f3e 562f a83e 90b2 853e 9bff 733e
000002e0: 5b79 0e3e 7d8d ae3e d269 283e de82 803e
000002f0: 990e 80bd 5c10 b7bb c43d aabd ddf9 6f3c
00000300: d8fa 663d 48ab b73e d6e6 8c3e a3a1 1f3e
00000310: f6d0 f73d 8d96 41bd 81bd 0a3d 8b65 223e
00000320: ca79 88be c7e4 80bd 025c d3bd ac80 ffbd
00000330: 3ede 2ebd d9b2 9bbd 7105 6a3e 0fc9 503e
00000340: 35d2 1c3e a882 633e 40a6 313e d081 813e
00000350: 0fd4 803e 0b15 683e 1d0f a33e d659 b13d
00000360: 5a68 f7bd 3042 6abe 3912 673d b76b 123d
00000370: bad3 dbbc 0eb5 c03e cc69 b03e 5ff2 283e
00000380: c6a6 e6bd e676 563e 4880 3abe 70db 183d
00000390: 2c06 993e ddc0 23be a780 223c ce02 443c
000003a0: a2cf 4d3d c45c 69bd c208 8abe aafa 51be
000003b0: c26e c1bd 7e8c 81be 8095 84be e50a 5fbe
000003c0: bc48 21be f440 a0be 3158 12be 4fdf e3bd
000003d0: 531e 063b c112 773e 7878 98bc d3d4 6b3b
000003e0: e69b 37be d2ee 10bd 7cde 03be 6cd3 e0be
000003f0: b829 833e 3c83 0abd 7b16 cbbc 3a11 1e3e

lstm.weight_hh_l0 f4 [256, 64]
-2.7956936e-34 7.240951e-37 -6.753936e-34 -3.871665e-38 2.8815452e-17 1.2940334e-21 -3.7365374e-19 7.4024e-37
-1.4999863e-12 -5.9027757e-36 1.8694184e-37 -1.0549298e-18 -2.9919285e-22 1.4816252e-37 3.3742567e-10 6.3044727e-37
-4.009131e-31 3.9448425e-36 1.7835508e-10 7.8568926e-36 -1.8897277e-16 -4.613985e-12 1.0388684e-30 1.0242093e-10
-5.025649e-23 2.4993882e-10 9.092345e-30 -3.5370914e-38 -9.488175e-11 2.1472298e-34 -3.8562294e-24 8.131625e-14
8.3898476e-26 3.1365885e-37 9.154724e-38 -1.4299881e-36 4.3225452e-27 -7.65641e-37 3.9626787e-36 -2.0844073e-37
-7.048529e-18 1.4419162e-10 -6.11711e-17 -3.3259988e-34 5.166804e-21 -9.686133e-31 9.498456e-30 -7.817668e-11
-2.4885668e-32 -1.74296e-35 -2.898107e-37 1.9085588e-12 -6.9455616e-17 3.0914664e-22 -2.2943106e-37 -1.13470455e-23
2.3682335e-30 -4.7716997e-37 4.6620765e-37 -4.1818726e-21 1.0260426e-30 -2.387913e-37 -1.2115902e-29 1.4689059e-20
-5.2983126e-37 1.3412762e-12 -5.092957e-21 -6.269854e-37 1.0238892e-10 1.2364997e-12 -1.0937837e-27 -3.2526361e-37
-5.368123e-27 9.649376e-37 6.329111e-30 -1.4944016e-20 2.6522308e-15 3.1351696e-10 5.442075e-10 4.622753e-12
-2.9448464e-16 -1.7348502e-12 1.199846e-12 -6.097814e-11 6.7353405e-38 1.0340925e-32 9.587655e-13 1.4155235e-24
-7.331266e-37 1.8277352e-36 -1.9194928e-37 -7.0536226e-37 8.153579e-27 -7.1894306e-24 -3.52553e-21 7.0073836e-26
2.2781338e-21 4.0720842e-15 -1.1395438e-23 -3.8294832e-37 -6.0604033e-33 5.675124e-17 -4.136521e-37 -5.6645355e-38
1.3326319e-20 -9.167098e-24 5.0738995e-37 -4.8150228e-21 -9.931561e-17 -3.9897903e-36 4.4053826e-21 8.275128e-18
-1.4233768e-11 -3.2586628e-11 -4.4858243e-38 4.9004472e-17 1.6967176e-14 -1.735547e-36 8.18023e-30 -8.5162455e-37
3.9844233e-36 1.3821492e-13 -6.201084e-26 4.1977585e-10 3.1163036e-10 -6.806625e-15 -1.0113561e-37 6.821575e-35
1.7049796e-36 1.3240376e-37 1.1787931e-14 -2.8866123e-37 2.5825447e-25 -4.9339355e-26 1.5455266e-17 -4.325462e-26
7.093699e-30 6.2453233e-12 -5.0572193e-36 -1.0643278e-30 -9.848796e-25 4.953855e-21 -8.288662e-12 -1.7334108e-36
8.173606e-27 6.710773e-14 3.669629e-37 -1.9033017e-16 3.973918e-36 6.801269e-36 -2.8281398e-14 -5.7167744e-24
3.06271e-10 -4.0642252e-38 -5.6912403e-38 -6.0303984e-12 -1.678808e-36 1.920889e-10 1.9926836e-12 3.8942492e-37
1.9011403e-12 -1.0075244e-25 -4.3080896e-26 -1.8552444e-36 -7.269197e-34 3.9924162e-36 -2.9455366e-10 9.7033725e-17
-1.7505923e-14 3.9756268e-36 -8.338466e-37 -2.813614e-21 1.1822836e-23 1.2358501e-14 1.1692211e-28 3.7820859e-19
-4.8804804e-19 -1.3750399e-37 4.568376e-30 8.494104e-13 1.3883202e-26 -7.6572026e-30 6.332848e-38 -3.993789e-33
-1.7415937e-35 -9.251836e-37 3.760662e-36 -4.927655e-37 3.0322108e-37 5.9391366e-22 -1.806657e-22 9.951962e-38
-1.7241795e-36 -1.9019147e-37 3.2978129e-10 -3.6391365e-10 1.0729718e-23 2.8797453e-10 -1.0844315e-36 2.8767744e-10
-1.8255369e-37 -7.942648e-12 -2.6113217e-37 -6.1685705e-37 1.7658226e-16 8.351484e-33 -1.1181237e-25 -4.0382986e-29
-6.855035e-31 2.6523217e-37 -7.1908575e-32 -2.3569958e-38 -1.4398786e-10 1.8165437e-26 1.5540102e-20 -1.0841492e-37
4.378781e-24 7.030478e-11 1.6809671e-36 3.793112e-36 -7.362318e-29 -9.673756e-14 8.407975e-37 -4.812891e-37
-1.3786898e-12 5.8191405e-24 9.162732e-20 -2.0546358e-37 -7.0130915e-12 -1.8784929e-22 2.224437e-16 -3.999534e-36
-7.4664175e-38 4.83421e-11 5.9450944e-32 4.74425e-21 3.4264206e-11 1.01464414e-26 -1.2633258e-16 -6.321885e-32
-1.2008247e-25 9.536998e-27 -6.9892115e-38 -1.7409622e-35 1.6824575e-36 -4.5132465e-21 2.74129e-16 -1.6912335e-36
-8.476627e-36 1.946849e-24 -7.724788e-37 -5.007898e-36 4.718693e-29 -3.4268428e-19 2.923406e-26 -5.7035344e-32
00000000: 43ce b987 9465 7603 2270 6088 22cb 5281
00000010: 48e3 0424 7e8c c31c f590 dca0 00e4 7b03
00000020: b41a d3ab 8913 fb84 b973 7e02 1fae 9ba1
00000030: dad9 b49b 1aab 4902 7180 b92f b487 5603
00000040: 8f1a 028d 88cb a704 7e1a 442f fe18 2705
00000050: ebde 59a5 1557 a2ac e890 a80d dc39 e12e
00000060: 8506 739a c367 892f 286a 380f dc93 4081
00000070: ada5 d0ae 39b5 8e07 3f2e 9598 a01b b729
00000080: fab8 cf15 1477 d502 1d37 f901 c44c f383
00000090: d13b ab13 5e44 8283 c08d a804 7fdb 8d82
000000a0: bd05 02a3 558a 1e2f 0b0d 8da4 f00c dd87
000000b0: 4332 c31d 9f2a 9d8d cea6 400f 8fe9 abae
000000c0: ba36 018b e257 b985 253c c582 8a4d 062c
000000d0: 5c27 a0a4 20de ba1b 8724 9c82 d97b 5b99
000000e0: 4922 400e 5e5f 2283 6aa4 1e03 97fc 9d9d
000000f0: 247c a60d 5083 a282 5cbd 758f f7bb 8a1e
00000100: d04a 3483 91c4 bc2b 0f68 c09d 225a 5583
00000110: d627 e12e 9905 ae2b 2351 ad92 ea5c dd82
00000120: 3ca7 d493 f62c a403 a05e 000f 6a24 8d9e
00000130: 061d 3f27 975b ac2f 3397 1530 0fa6 a22c
00000140: 43c2 a9a5 9128 f4ab 02dd a82b a417 86ae
00000150: 795a b701 cac5 560a 2bef 862b aa0a db17
00000160: 5678 7983 8c7c 1b04 48a2 8282 b805 7083
00000170: 8f7f 2114 5610 0b99 d530 859d 927e ad15
00000180: 8421 2c1d 59b6 9227 7a6b 5c99 814f 0283
00000190: 43bd fb89 05dc 8224 2ec2 0c83 0d34 9a81
000001a0: 20ba 7b1e 4551 3199 e6a7 2c03 0be8 b59d
000001b0: 9701 e5a4 f8b4 a984 3f6e a61d 30a6 1823
000001c0: 3167 7aad 4851 0fae 443b 7481 45fe 6124
000001d0: a5d3 9828 dea4 1384 2fea 250f 7be5 9083
000001e0: 877a a904 bd9d 1b2a 0a88 9995 33c6 e62f
000001f0: 1352 ab2f 093c f5a7 9ea8 0982 3c59 b506
00000200: 2b0b 1104 fa37 3402 3d5a 5428 e173 c482
00000210: 0eda 9f16 1051 7495 b78c 8e23 bf2f 5695
00000220: 97e0 0f0f dfbc db2c 3e1c d784 72b2 ac8d
00000230: 1a67 9897 bf26 bb1d d1d0 11ad 5876 1384
00000240: 1be5 2114 f91c 9729 f4bd f902 8d6f 5ba5
00000250: 2308 a904 a1a5 1005 77bc fea8 3128 dd98
00000260: d05f a82f 0847 5d81 28ee 9a81 002d d4ac
00000270: 33d1 0e84 3834 532f ff38 0c2c b283 0403
00000280: e6c7 052c 7273 f995 8653 5595 a5d3 1d84
00000290: 7d8f 7188 90d1 a904 beee a1af 9abe df24
000002a0: e9ad 9da8 be1a a904 24df 8d83 3697 549d
000002b0: d9af 6419 87a1 5e28 6537 1411 4441 df20
000002c0: de0b 10a1 2629 3b82 bb50 b90e 7816 6f2b
000002d0: 197e 8914 784e 1b8f 8265 ac01 40e5 a589
000002e0: b132 b985 6e69 9d83 fcf5 9f04 eead 2783
000002f0: 905c ce02 d87f 331c 5369 5a9b 8775 0702
00000300: 4ead 1284 0770 8182 974c b52f 4b10 c8af
00000310: fd8a 4f19 d050 9e2f a781 b883 0027 9e2f
00000320: ad7a 7882 82ba 0bad a4b7 b182 d4e7 5183
00000330: e295 4b25 1b74 2d0a c16a 0a96 1dc4 4c90
00000340: 6775 5e8d f681 b402 72af ba8b ba53 0081
00000350: fb50 1eaf dbe6 b314 a9c5 921e 1691 1382
00000360: 5965 a918 139a 9a2e 3900 0f04 5557 a104
00000370: 2da8 ba90 68d5 d9a9 e50d 8f03 32c6 2383
00000380: 8908 c2ab fa1d e118 5159 d81f ced4 8b82
00000390: 50c0 f6ac 8a18 639b e53a 8025 121f aa84
000003a0: 5641 cb81 5e9c 542e ee57 9a0b 923b b31d
000003b0: 11b2 162e 92f8 4814 cca6 11a5 2220 a48b
000003c0: a7a7 1496 53e6 3c14 b243 be81 8021 b985
000003d0: ae20 0f04 7181 aa9d 4d06 9e25 cedf 0f84
000003e0: 2647 3485 51a1 1618 326e 8383 2e03 d584
000003f0: 2344 6f10 fc48 caa0 93c2 1015 7d12 948b

lstm.bias_ih_l0 f4 [256]
0.31351888 0.3829927 0.24151666 0.37190965 0.46058485 0.43797535 0.25724977 0.24888875
0.41948715 0.4574461 0.43533286 0.27545086 0.35858563 0.35235748 0.4022407 0.44842732
0.31004605 0.44182763 0.34599987 0.40858823 0.2719013 0.34094733 0.4662559 0.28821295
0.27085555 0.37919202 0.27833223 0.3514353 0.401648 0.46403095 0.36524516 0.31003898
0.43561506 0.3952008 0.47316882 0.30130014 0.26304603 0.42431197 0.34760335 0.28205916
0.4478571 0.43820795 0.35885543 0.30644944 0.3978822 0.2865973 0.27399322 0.34346262
0.39817572 0.25492612 0.33167592 0.44167808 0.48624346 0.50538594 0.4228581 0.40642092
0.48403376 0.35400265 0.2557437 0.45141438 0.332873 0.33222368 0.24766959 0.42830646
-4.0207747e-36 -2.6233594e-30 8.474785e-36 -2.6004239e-30 4.7961916e-11 2.9860252e-30 -4.675023e-11 -3.6949496e-37
3.3065317e-37 2.2830397e-17 -1.3171468e-27 1.5774795e-12 2.754868e-27 -3.386249e-12 2.241379e-19 6.40923e-24
8.847986e-24 5.485608e-10 -3.211184e-11 2.5840027e-12 1.43533e-26 -8.4856415e-36 -6.64834e-32 -9.954155e-37
-1.587042e-17 2.3213279e-11 -9.894447e-32 -1.9432725e-11 5.6389376e-37 1.1147544e-25 1.154203e-12 4.775003e-11
1.9078265e-10 1.6550624e-36 -4.8700166e-37 -9.942905e-13 -4.997672e-14 -9.267068e-37 1.5101573e-14 7.820736e-17
-1.0108213e-13 1.5272411e-10 -2.7619582e-10 5.2037347e-10 8.444797e-36 8.777863e-31 1.2927531e-11 5.2828826e-32
2.1097636e-16 -2.7048538e-34 4.454966e-21 -6.867189e-26 7.449626e-12 1.6769863e-24 1.7140844e-36 1.361507e-30
2.468179e-30 -8.258948e-36 -3.6195732e-37 -3.557371e-37 -3.5182782e-25 -2.4209254e-26 2.2950966e-12 -1.1542266e-38
0.4543217 0.3427514 0.4207722 -0.3136862 -0.34152895 0.45149827 -0.37964693 0.3302998
-0.43205023 -0.4110332 -0.3066697 0.36597833 -0.3717876 0.2667096 0.36198115 0.4302973
0.42947963 -0.29971886 0.44457448 -0.42635584 0.3813952 -0.288128 -0.40728837 0.42546818
-0.27766195 0.43889138 0.42251793 -0.32021147 -0.26374596 -0.2905999 -0.43052134 0.37903553
0.34503523 0.31895813 0.43396422 0.2528442 -0.41937166 0.36847234 0.2987143 -0.36392227
0.3690374 0.43764022 0.43077588 -0.28088412 -0.38021335 0.32360178 -0.33587238 0.31515634
-0.44397497 0.42235813 -0.42842212 -0.42851663 0.4170493 0.44560575 -0.31239823 0.27021497
0.42335373 -0.38276893 -0.41598305 0.36509776 0.43898743 0.34478027 -0.3661574 -0.35831648
0.34137523 0.37983584 0.24810702 0.48501986 0.45899278 0.4637741 0.45736545 0.31679058
0.37281734 0.2865384 0.25092164 0.3062357 0.34672 0.19990063 0.46701542 0.29547432
0.40342045 0.30897826 0.41159275 0.43301255 0.24932909 0.4405015 0.4306001 0.39869356
0.35496286 0.51021993 0.39037937 0.47532415 0.44631675 0.25802577 0.32485744 0.41838765
0.32708684 0.29695898 0.38769227 0.39624152 0.2619021 0.51962465 0.32569447 0.3699538
0.28931397 0.4086747 0.5046359 0.35223255 0.38852388 0.2692394 0.25710896 0.44676632
0.26736364 0.3951054 0.38598055 0.46855542 0.44061708 0.30669117 0.31427178 0.39049554
0.4572677 0.30095688 0.2659814 0.4067699 0.3669106 0.43079975 0.38598874 0.38128173
00000000: 8c85 a03e 9f17 c43e 2550 773e f16a be3e
00000010: c7d1 eb3e 4e3e e03e 3eb6 833e b1dc 7e3e
00000020: 05c7 d63e 6036 ea3e f3e3 de3e e507 8d3e
00000030: 8998 b73e 3368 b43e 7ef2 cd3e 4498 e53e
00000040: 5bbe 9e3e 3b37 e23e e526 b13e 7a32 d13e
00000050: a636 8b3e a690 ae3e 18b9 ee3e a690 933e
00000060: 94ad 8a3e 7525 c23e 9081 8e3e 54ef b33e
00000070: cfa4 cd3e 7795 ed3e 6a01 bb3e 6ebd 9e3e
00000080: f008 df3e c257 ca3e 2f43 f23e 0344 9a3e
00000090: f8ad 863e 6b3f d93e 11f9 b13e 0f6a 903e
000000a0: 874d e53e cb5c e03e e6bb b73e f1e6 9c3e
000000b0: 37b7 cb3e e2bc 923e d748 8c3e 55da af3e
000000c0: b0dd cb3e ad85 823e 6dd1 a93e a123 e23e
000000d0: e7f4 f83e f960 013f db80 d83e 6716 d03e
000000e0: 46d3 f73e d63f b53e d7f0 823e c91f e73e
000000f0: 546e aa3e 3919 aa3e 199d 7d3e fc4a db3e
00000100: 5c06 ab84 0bd5 548e 1e3d 3405 b1f8 528e
00000110: 51f0 522e 5141 720e 149c 4dae 1a77 fb82
00000120: e807 e102 c092 d223 d2b5 d092 b002 de2b
00000130: 5c43 5a13 3d49 6eac c34e 8420 f1f1 f718
00000140: 1b25 2b19 89c9 1630 b83a 0dae 41d5 352c
00000150: f025 8e14 3a78 3485 cc99 ac8b 765c a983
00000160: f860 92a3 a82f cc2d f16f 008c 9bee aaad
00000170: 13e2 3f03 faff 0916 8c70 a22b c101 522e
00000180: 8bc4 512f 11cc 0c04 d4b7 2583 17ef 8bab
00000190: 3c13 61a9 c6ab 9d83 db05 8828 7a55 b424
000001a0: e19d e3a9 04ec 272f 1bd7 97af 070a 0f30
000001b0: d999 3305 d16d 8e0d 6c6c 632d c726 890b
000001c0: 3b3d 7325 b4c4 b387 ca4d a81d fb05 aa95
000001d0: 220e 032d 23c0 0118 74d1 1104 caea dc0d
000001e0: 133e 480e fda5 2f85 dc55 f682 251a f282
000001f0: 58c5 d996 c0c1 ef94 c980 212c 24af 7d80
00000200: db9c e83e 1d7d af3e 746f d73e 7a9b a0be
00000210: e2dc aebe c82a e73e 1561 c2be 0e1d a93e
00000220: b035 ddbe f272 d2be d003 9dbe 8361 bb3e
00000230: f25a bebe 298e 883e 9855 b93e ed4f dc3e
00000240: c1e4 db3e c074 99be 449f e33e 504b dabe
00000250: 3b46 c33e 8385 93be 1a88 d0be f7d6 d93e
00000260: b529 8ebe 5fb6 e03e 4554 d83e c2f2 a3be
00000270: b609 87be 83c9 94be 4b6d dcbe f210 c23e
00000280: 75a8 b03e 7b4e a33e 8f30 de3e cc74 813e
00000290: e2b7 d6be 68a8 bc3e 15f1 983e 0554 babe
000002a0: 78f2 bc3e 6112 e03e a88e dc3e 0bd0 8fbe
000002b0: 53ab c2be 22af a53e 77f7 abbe 2c5c a13e
000002c0: b050 e3be 533f d83e 255a dbbe 8866 dbbe
000002d0: 7c87 d53e 7026 e43e a9f2 9fbe 9e59 8a3e
000002e0: d2c1 d83e 4afa c3be bbfb d4be 18ee ba3e
000002f0: f6c2 e03e 0a87 b03e fc78 bbbe 4275 b7be
00000300: bcc8 ae3e d879 c23e c40f 7e3e 8654 f83e
00000310: 1a01 eb3e cd73 ed3e ce2b ea3e 6032 a23e
00000320: eae1 be3e 29b5 923e cd78 803e edca 9c3e
00000330: 4985 b13e c0b2 4c3e a51c ef3e 6948 973e
00000340: 208d ce3e 6632 9e3e 49bc d23e d2b3 dd3e
00000350: 2050 7f3e 6a89 e13e 9e77 dc3e 9021 cc3e
00000360: b1bd b53e c69d 023f cedf c73e b05d f33e
00000370: a183 e43e f41b 843e b753 a63e e836 d63e
00000380: ed77 a73e 020b 983e 9a7f c63e 2be0 ca3e
00000390: 0818 863e 1f06 053f 6dc1 a63e 966a bd3e
000003a0: f620 943e cf3d d13e d12f 013f d357 b43e
000003b0: 9aec c63e bfd9 893e c9a3 833e 8ebe e43e
000003c0: e3e3 883e 414b ca3e 3e9f c53e 7fe6 ef3e
000003d0: 9098 e13e a006 9d3e 3be8 a03e 08ef c73e
000003e0: fe1e ea3e 0517 9a3e b72e 883e 2544 d03e
000003f0: b5db bb3e c991 dc3e 51a0 c53e 5c37 c33e

lstm.bias_hh_l0 f4 [256]
0.31713742 0.34858257 0.27199867 0.3111465 0.49337766 0.3139727 0.35747695 0.44196966
0.41705915 0.37152088 0.39403364 0.22930689 0.26927418 0.3899904 0.45436022 0.23614354
0.4513153 0.2841713 0.36462516 0.36889157 0.43408898 0.33139205 0.28937912 0.37950698
0.27849653 0.38303384 0.3133339 0.41526097 0.39048016 0.34330434 0.3689273 0.3382588
0.40610212 0.29073814 0.4768998 0.4845918 0.4245307 0.41934368 0.255374 0.46324202
0.42133573 0.37353218 0.38559633 0.4196959 0.28106084 0.376848 0.4383883 0.45252794
0.33494297 0.41107342 0.34482586 0.348609 0.36398235 0.3416295 0.49213463 0.3450714
0.49358726 0.37036115 0.34011227 0.52042276 0.32262456 0.44771224 0.36512092 0.4506697
2.7732153e-19 -7.1472154e-27 4.3134546e-10 -1.1309991e-22 4.0470648e-36 5.1938042e-17 -1.7734265e-34 -7.8418216e-32
7.797119e-11 9.505343e-35 3.8473947e-21 -5.9321146e-32 -1.2417235e-25 -9.604012e-30 -6.294114e-31 -2.1725248e-11
-5.3269856e-22 4.0048685e-36 -1.726601e-36 -1.7298043e-36 -3.5034311e-37 -2.494756e-24 5.1646347e-30 8.14117e-11
-5.4502516e-33 -6.988633e-31 6.8214716e-37 1.4489569e-13 9.715394e-31 1.5721219e-16 -3.431799e-27 1.7106257e-36
6.9257534e-13 2.6021468e-24 -6.310213e-20 -3.657705e-37 1.9978823e-36 -7.2372807e-32 -3.1066155e-21 2.4064214e-37
-1.025218e-21 -1.8351137e-37 7.79239e-37 1.0811317e-11 -5.016138e-37 9.035823e-28 -7.807788e-32 2.1831165e-15
2.2111474e-19 -3.9626895e-36 -2.0385777e-17 6.893868e-37 3.1521731e-37 9.749157e-37 -4.9667166e-29 4.0071627e-10
-6.3778962e-34 1.470687e-16 -1.4242607e-14 8.9583995e-32 7.9683184e-11 -1.1681884e-18 -5.1052852e-21 2.2690165e-10
0.30283126 0.35439515 0.42506015 -0.4650849 -0.44102973 0.4509024 -0.2682964 0.35906762
-0.35377446 -0.39038563 -0.45080912 0.36860958 -0.29637322 0.2894779 0.36652493 0.34682363
0.32710508 -0.45345342 0.34592897 -0.34841245 0.37199953 -0.4880454 -0.37447125 0.23472613
-0.34916574 0.29498774 0.41885674 -0.44046995 -0.43089533 -0.43842405 -0.30846068 0.4308228
0.27057776 0.4440765 0.28750265 0.3952647 -0.4380449 0.47520882 0.43152326 -0.3740777
0.39891517 0.37652725 0.3312133 -0.41139314 -0.40423635 0.40897185 -0.386957 0.4112486
-0.33084944 0.44275242 -0.2858287 -0.34593034 0.38379055 0.36851814 -0.44582033 0.35379288
0.29893106 -0.41037843 -0.3254843 0.43230963 0.23280835 0.41717702 -0.34153545 -0.36210194
0.48070902 0.31230116 0.2727887 0.32635167 0.34262174 0.49589726 0.25094333 0.3886623
0.41864514 0.23395155 0.36704037 0.38805136 0.41194075 0.27684918 0.348876 0.3587248
0.36004448 0.50059086 0.48462385 0.35297439 0.46783057 0.28053004 0.2728117 0.21658218
0.23299728 0.4027127 0.4005311 0.3530922 0.3866662 0.28762063 0.4152517 0.3246764
0.38880172 0.4252153 0.35388553 0.32046247 0.44251862 0.38315994 0.3124911 0.4485357
0.3397936 0.269187 0.29129562 0.28305882 0.43201828 0.37811825 0.40634364 0.31826776
0.39465255 0.45461652 0.2753607 0.47392002 0.47711664 0.4465807 0.39250916 0.43884864
0.30491284 0.39254585 0.33074847 0.3661923 0.25126624 0.468433 0.40822893 0.51472515
00000000: d65f a23e 6a79 b23e 6943 8b3e 984e 9f3e
00000010: ff9b fc3e 08c1 a03e 3807 b73e d949 e23e
00000020: c788 d53e fc37 be3e c7be c93e 6dcf 6a3e
00000030: 4ede 893e d2ac c73e e7a1 e83e 9dcf 713e
00000040: cd12 e73e e77e 913e 26b0 ba3e 5bdf bc3e
00000050: e940 de3e 38ac a93e 8029 943e bd4e c23e
00000060: 1997 8e3e 031d c43e 4d6d a03e 169d d43e
00000070: 04ed c73e 96c5 af3e 0ae4 bc3e 4230 ad3e
00000080: 9eec cf3e a1db 943e 362c f43e 6b1c f83e
00000090: 175c d93e 37b4 d63e 62c0 823e 0f2e ed3e
000000a0: 51b9 d73e 9c3f bf3e e26c c53e 62e2 d63e
000000b0: 35e7 8f3e 39f2 c03e 6e74 e03e beb1 e73e
000000c0: a57d ab3e 3778 d23e 048d b03e e17c b23e
000000d0: e55b ba3e 10ea ae3e 12f9 fb3e 33ad b03e
000000e0: 78b7 fc3e fa9f bd3e 3223 ae3e 6d3a 053f
000000f0: 0c2f a53e 8a3a e53e 21f1 ba3e 2ebe e63e
00000100: a5b3 a320 b090 0d94 7a22 ed2f baba 089b
00000110: a224 ac04 9e85 6f24 94ba 6b87 d895 cb8b
00000120: e175 ab2e 03b2 fc06 b859 911d aa01 9a8b
00000130: cab7 1996 e2ca 428f 7441 4c8d e918 bfad
00000140: 8eff 209c 2859 aa04 0ae2 1284 cd27 1384
00000150: 616e ee82 bc05 4198 a280 d10e b606 b32e
00000160: 0465 e289 4bcb 628d 661f 6803 5723 232a
00000170: 2ba4 9d0d d940 3525 94f2 8793 2186 1104
00000180: 50f1 422b d454 4918 e6fe 949f 35ee f882
00000190: 06f6 2904 fbe3 bb8b afba 6a9d c6c5 a302
000001a0: 33ed 9a9c 61c8 7982 a594 8403 d831 3e2d
000001b0: bab0 2a83 a72d 8f12 a7b3 ca8b 644f 1d27
000001c0: ea85 8220 de8d a884 8e06 bca3 0f96 6a03
000001d0: 9a86 d602 91df a503 abd7 7b90 cd4b dc2f
000001e0: 24f1 5388 058f 2925 3749 80a8 c792 e80b
000001f0: a539 af2e e964 aca1 4adf c09d 237b 792f
00000200: b30c 9b3e 4873 b53e 7ca1 d93e 9c1f eebe
00000210: a6ce e1be aedc e63e 255e 89be b6d7 b73e
00000220: ed21 b5be a0e0 c7be 74d0 e6be 65ba bc3e
00000230: 3bbe 97be 7336 943e 28a9 bb3e de92 b13e
00000240: 517a a73e 0c2b e8be 9a1d b13e 1e63 b2be
00000250: b976 be3e 16e1 f9be b2ba bfbe 0c5c 703e
00000260: dac5 b2be a208 973e 6474 d63e 4785 e1be
00000270: 509e dcbe 1e79 e0be 8fee 9dbe ce94 dc3e
00000280: 2b89 8a3e ff5d e33e 8c33 933e 2260 ca3e
00000290: 6c47 e0be 924e f33e 9ef0 dc3e 1d87 bfbe
000002a0: 9c3e cc3e 2ec8 c03e ca94 a93e 1fa2 d2be
000002b0: 11f8 cebe c264 d13e 3a1f c6be 2d8f d23e
000002c0: 1965 a9be 72b0 e23e 2458 92be c81d b1be
000002d0: 3280 c43e 69ae bc3e 9042 e4be 5724 b53e
000002e0: 7e0d 993e 1f1d d2be e1a5 a6be b057 dd3e
000002f0: 5065 6e3e 3a98 d53e bcdd aebe 6d65 b9be
00000300: 7e1f f63e f0e5 9f3e f6aa 8b3e 9117 a73e
00000310: 1e6c af3e 3fe6 fd3e a57b 803e bffe c63e
00000320: a858 d63e ff90 6f3e b7ec bb3e abae c63e
00000330: e6e9 d23e 2dbf 8d3e e09f b23e c7aa b73e
00000340: c057 b83e b926 003f 9e20 f83e 0fb9 b43e
00000350: 7d87 ef3e a2a1 8f3e faad 8b3e b8c7 5d3e
00000360: d796 6e3e 5c30 ce3e 6a12 cd3e 80c8 b43e
00000370: 1df9 c53e 0343 933e df9b d43e fc3b a63e
00000380: 0511 c73e d2b5 d93e 7c30 b53e a813 a43e
00000390: cd91 e23e 8a2d c43e d5fe 9f3e 79a6 e53e
000003a0: 6df9 ad3e e1d2 893e b324 953e 16ed 903e
000003b0: 8031 dd3e b798 c13e 460c d03e fef3 a23e
000003c0: e60f ca3e 7fc3 e83e 14fc 8c3e a5a5 f23e
000003d0: a248 f43e 3aa6 e43e f6f6 c83e c5b0 e03e
000003e0: 891d 9c3e c5fb c83e dd57 a93e 8f7d bb3e
000003f0: f8a5 803e 73d6 ef3e 6203 d13e 07c5 033f

lstm.weight_ih_l1 f4 [256, 64]
0.34720263 0.42200255 0.3507256 -0.41617465 -0.32722414 0.27384284 -0.24935128 0.2595045
-0.22973493 -0.3872557 -0.3117749 0.29101264 -0.18268944 0.27916583 0.28406888 0.16784506
0.27388152 -0.1973235 0.20169142 -0.40093967 0.38602495 -0.41228482 -0.4083875 0.21680991
-0.3906011 0.2749956 0.23191781 -0.42080396 -0.3364263 -0.27405193 -0.30532256 0.43233967
0.34703436 0.24556175 0.16460419 0.3599744 -0.17756179 0.3134591 0.29807162 -0.35559505
0.3914995 0.23332492 0.43884555 -0.20254621 -0.42791298 0.3208791 -0.22322835 0.28042433
-0.44299203 0.28513908 -0.30693763 -0.38039643 0.24769399 0.27977473 -0.39711243 0.37183204
0.35236657 -0.3394579 -0.19109619 0.39228415 0.23314686 0.35775295 -0.29293066 -0.46396914
0.2904311 0.32572758 0.15067215 -0.35127264 -0.4053435 0.23613909 -0.29344448 0.36042085
-0.41207835 -0.39628735 -0.29938266 0.4160331 -0.32914883 0.32090288 0.3932674 0.14336476
0.3883333 -0.33905247 0.28665277 -0.32022244 0.3802905 -0.19435392 -0.31891122 0.15051351
-0.35969505 0.42404115 0.3666739 -0.20651329 -0.29395473 -0.2901407 -0.47732043 0.278837
0.3724645 0.26638234 0.23903625 0.33956546 -0.22779179 0.15638447 0.19238469 -0.2989398
0.30448234 0.31762335 0.41030076 -0.41007572 -0.17888238 0.40787652 -0.18286945 0.24315153
-0.4747999 0.23703037 -0.37103415 -0.25698498 0.17357762 0.29036272 -0.33780625 0.3613836
0.38404718 -0.24121849 -0.3386787 0.22225028 0.39301667 0.4295642 -0.22381808 -0.395885
0.28260115 0.2528884 0.28491688 -0.23027568 -0.33280888 0.17773388 -0.36612567 0.18246348
-0.42888865 -0.34185362 -0.31401658 0.41029418 -0.24415289 0.26427197 0.1914719 0.37531662
0.40449002 -0.33422604 0.27967128 -0.35324493 0.46098378 -0.40477803 -0.35712805 0.21258895
-0.3322389 0.29368648 0.24815995 -0.28454432 -0.35489178 -0.2656764 -0.28934082 0.33064908
0.3997524 0.36427107 0.19015966 0.4179488 -0.4117939 0.3689064 0.24057625 -0.358268
0.37021327 0.38730055 0.22771391 -0.29795542 -0.2574207 0.3088747 -0.258955 0.1712311
-0.41082436 0.33135888 -0.23970103 -0.2784707 0.22355962 0.26894313 -0.19327211 0.32113004
0.299627 -0.42106178 -0.2948419 0.40338096 0.21603619 0.38114604 -0.24864903 -0.23591371
0.24857071 0.37692335 0.26455128 -0.30350932 -0.23910128 0.27237096 -0.1610574 0.3296479
-0.34280413 -0.22524618 -0.26820117 0.3948705 -0.3385112 0.3285709 0.38522565 0.2891783
0.2164887 -0.34319115 0.37316796 -0.2901672 0.36798277 -0.19492304 -0.28448263 0.384822
-0.29556835 0.18491945 0.29178584 -0.33218327 -0.36042488 -0.304356 -0.36149833 0.19504131
0.43792528 0.3759774 0.17764293 0.28071585 -0.33085933 0.19708301 0.28321046 -0.34199068
0.37772673 0.37528494 0.3841914 -0.37414995 -0.34280488 0.37377816 -0.21870224 0.28993028
-0.3532039 0.28273636 -0.22985382 -0.40323958 0.32179844 0.21633609 -0.3698468 0.38568133
0.2785056 -0.35578737 -0.15780911 0.26707348 0.32412097 0.33250406 -0.3313067 -0.4410766
00000000: 8bc4 b13e b810 d83e 4e92 b33e d814 d5be
00000010: ec89 a7be 2135 8c3e f155 7fbe c6dd 843e
00000020: a23f 6bbe 6146 c6be f6a0 9fbe 9cff 943e
00000030: f112 3bbe d3ee 8e3e 7a71 913e 93df 2b3e
00000040: 333a 8c3e 2c0f 4abe 3288 4e3e f747 cdbe
00000050: 10a5 c53e ff16 d3be 2b18 d1be 6b03 5e3e
00000060: defc c7be 39cc 8c3e dd7b 6d3e 9e73 d7be
00000070: 1140 acbe 8950 8cbe 3d53 9cbe a05b dd3e
00000080: 7dae b13e 8a74 7b3e 008e 283e 914e b83e
00000090: c2d2 35be b67d a03e d89c 983e 8e10 b6be
000000a0: 9f72 c83e baec 6e3e 5db0 e03e 4668 4fbe
000000b0: 6917 dbbe 444a a43e f995 64be c793 8f3e
000000c0: dacf e2be c0fd 913e ee26 9dbe 52c3 c2be
000000d0: 7ea3 7d3e a23e 8f3e 5252 cbbe c560 be3e
000000e0: 6469 b43e 6dcd adbe b8ae 43be 78d9 c83e
000000f0: 0dbe 6e3e 652b b73e 02fb 95be 5d8d edbe
00000100: 63b3 943e c4c5 a63e cd49 1a3e 02da b3be
00000110: 2f89 cfbe 72ce 713e 5b3e 96be 1589 b83e
00000120: effb d2be 2de6 cabe af48 99be 4a02 d53e
00000130: 3286 a8be 624d a43e 585a c93e 36ce 123e
00000140: 9fd3 c63e 4998 adbe 27c4 923e 32f4 a3be
00000150: 70b5 c23e b704 47be 5548 a3be 3720 1a3e
00000160: f329 b8be ec1b d93e aebc bb3e 3878 53be
00000170: 3c81 96be 528d 94be 5863 f4be b9c3 8e3e
00000180: abb3 be3e 4463 883e ebc5 743e 86db ad3e
00000190: 4042 69be 4023 203e 7e00 453e a30e 99be
000001a0: 1ce5 9b3e 879f a23e f112 d23e 72f5 d1be
000001b0: f12c 37be 31d5 d03e 2142 3bbe b7fc 783e
000001c0: f918 f3be 17b8 723e 30f8 bdbe 8993 83be
000001d0: 55be 313e 6caa 943e f1f4 acbe 4507 b93e
000001e0: d5a1 c43e fb01 77be 4b67 adbe 9495 633e
000001f0: 7b39 c93e d7ef db3e 9130 65be 70b1 cabe
00000200: 19b1 903e 977a 813e a0e0 913e 63cd 6bbe
00000210: ed65 aabe dfff 353e d374 bbbe b5d7 3a3e
00000220: 4b97 dbbe 7007 afbe c8c6 a0be 1412 d23e
00000230: 3703 7abe a84e 873e 3611 443e 8029 c03e
00000240: 5119 cf3e ad1f abbe 1331 8f3e 85dc b4be
00000250: 1106 ec3e 113f cfbe 7dd9 b6be ebb0 593e
00000260: 381b aabe 135e 963e a41d 7e3e cbaf 91be
00000270: 60b4 b5be bd06 88be 7b24 94be d64a a93e
00000280: 59ac cc3e bd81 ba3e 37b9 423e 63fd d53e
00000290: a6d6 d2be 4de1 bc3e 9f59 763e e76e b7be
000002a0: 988c bd3e 424c c63e d62d 693e 9d8d 98be
000002b0: a5cc 83be d324 9e3e c095 84be 3557 2f3e
000002c0: 9257 d2be dfa7 a93e 3074 75be b693 8ebe
000002d0: d0ec 643e eab2 893e 20e9 45be 286b a43e
000002e0: b668 993e 6995 d7be 84f5 96be f387 ce3e
000002f0: 9738 5d3e 9325 c33e da9d 7ebe 5d93 71be
00000300: 5289 7e3e 19fc c03e 4473 873e 9365 9bbe
00000310: f7d6 74be 3574 8b3e 3bec 24be 9cc7 a83e
00000320: 0684 afbe efa6 66be aa51 89be 772c ca3e
00000330: 5751 adbe 723a a83e 4c3c c53e 2e0f 943e
00000340: 37af 5d3e c0b6 afbe df0f bf3e cc90 94be
00000350: 3d68 bc3e e899 47be b5a7 91be 6407 c53e
00000360: bc54 97be 865b 3d3e f464 953e ed13 aabe
00000370: 9c89 b8be 8dd4 9bbe 4f16 b9be e9b8 473e
00000380: be37 e03e 1c80 c03e 07e8 353e fdb9 8f3e
00000390: 6566 a9be 21d0 493e f600 913e 6719 afbe
000003a0: 6665 c13e 5925 c03e bcb4 c43e 9590 bfbe
000003b0: 1f84 afbe da5f bf3e 7bf3 5fbe be71 943e
000003c0: 24d7 b4be d2c2 903e cd5e 6bbe 6b75 cebe
000003d0: c4c2 a43e 3587 5d3e 8f5c bdbe 0678 c53e
000003e0: 4998 8e3e c329 b6be b698 21be dbbd 883e
000003f0: 2ff3 a53e f93d aa3e 08a1 a9be cbd4 e1be

lstm.weight_hh_l1 f4 [256, 64]
-3.9594537e-36 2.030402e-37 5.9386528e-12 -5.9910226e-13 8.389647e-32 -4.954215e-15 1.3539839e-37 1.8247023e-16
-6.842742e-39 9.8203875e-18 5.2738968e-23 -1.731058e-36 4.249411e-13 -1.7681515e-36 -1.5523909e-21 -3.50151e-11
-2.0755905e-27 -2.3258548e-24 8.019191e-22 -3.9779614e-36 4.216925e-21 -1.5669957e-15 3.4358516e-11 -1.7395828e-36
4.0223284e-36 -7.667316e-32 1.3888675e-37 1.6895105e-36 -5.3716833e-24 1.0295044e-23 2.8776296e-37 3.7745806e-37
8.274368e-32 5.225861e-21 -3.5329526e-35 3.442797e-29 -2.975192e-39 -7.8428904e-28 -3.3963887e-37 8.9636036e-29
8.145759e-37 1.1633259e-30 -1.6877515e-36 -7.984731e-30 -6.27926e-15 -1.4713486e-14 1.0484534e-28 2.431251e-37
2.579645e-16 1.837706e-15 -5.014949e-31 2.9930712e-18 1.0290069e-30 3.6905215e-37 -1.3884922e-10 -1.5689059e-20
3.6595394e-36 -2.1901208e-11 -3.043186e-16 -3.3671859e-12 -1.0942759e-11 -5.0616486e-21 1.3333302e-37 -8.955475e-26
-4.5156873e-10 8.049275e-37 -8.69478e-11 5.139204e-11 3.207429e-26 -2.634402e-37 -7.856236e-33 1.5024088e-16
8.275357e-15 1.5208271e-35 -2.0066479e-12 -8.498607e-36 -8.150562e-24 4.1409045e-14 5.3492154e-37 8.810165e-37
-5.7881984e-19 2.106539e-11 -5.8931143e-37 -4.5575876e-37 -3.9776938e-36 -8.302046e-18 -8.1654044e-14 5.904984e-15
-4.3656344e-37 -1.8219529e-37 4.038821e-26 2.3478644e-16 4.9290886e-38 8.100069e-37 -1.7527296e-36 -2.8423284e-13
-3.194342e-30 3.6622994e-37 1.7184879e-36 7.364256e-16 9.185777e-38 3.754276e-30 4.4562833e-30 -6.3203402e-18
-2.2812155e-10 5.1399888e-11 6.216266e-27 -3.065957e-32 -1.2422172e-12 1.2442481e-25 -1.8502247e-15 -8.480385e-36
-1.7259588e-36 3.9919158e-36 -1.6658148e-36 1.1762464e-23 9.077934e-30 1.7017107e-36 5.690204e-32 -7.053609e-13
6.525653e-13 7.115118e-35 2.9607157e-21 -5.0028974e-31 1.223675e-25 -3.7605864e-13 7.79129e-14 -4.1831976e-14
1.8834732e-12 -3.172951e-12 -1.1609099e-11 1.7379404e-35 6.18133e-24 -8.492079e-36 -1.3322077e-34 -1.379921e-18
9.508337e-12 2.0934716e-34 4.057458e-37 1.7325123e-36 1.1350411e-30 3.771784e-21 2.7858123e-34 -4.5446185e-11
-5.1529795e-14 3.1979343e-31 -4.7258524e-37 2.4016697e-34 8.857626e-37 3.9841264e-13 1.1442833e-25 4.9348537e-21
4.1757573e-37 1.7410857e-36 -1.8877438e-23 -4.031268e-36 -4.3058262e-26 1.6797927e-36 5.582001e-32 -2.067982e-37
-1.0674904e-23 -7.4980976e-31 -1.92995e-37 -8.263999e-24 -4.3340515e-24 -3.3937628e-37 -6.886222e-13 3.6817075e-37
2.7829625e-16 -7.671323e-21 2.8411455e-38 -7.616058e-37 -2.5775887e-34 6.718783e-27 -2.9367642e-14 1.3184554e-17
2.6931664e-17 4.415411e-37 7.2321077e-37 3.867647e-17 -2.0565756e-12 1.767633e-26 9.56647e-12 -1.3399347e-37
4.466258e-15 -8.5334387e-35 -3.7327848e-30 9.686762e-31 8.882074e-13 -5.1922056e-10 -2.8025e-11 9.611637e-11
4.942613e-38 7.072071e-15 1.5225523e-20 4.012178e-36 2.8282556e-32 -1.79797e-15 6.550076e-12 8.440311e-36
2.598233e-37 6.2539865e-30 -2.9226086e-15 3.7416225e-37 5.1453243e-21 1.4699626e-12 -2.3673408e-20 3.0876913e-36
4.000147e-36 5.0796834e-38 -3.762254e-15 2.4014858e-11 -1.7136127e-36 -3.6208757e-21 -1.3125406e-13 -1.9855637e-10
-1.39575e-11 4.3333064e-24 1.1427253e-37 1.9458478e-16 -7.10919e-35 -3.9772938e-36 1.7416563e-35 -3.3370337e-14
3.7926145e-24 -1.684497e-36 1.2438923e-24 3.9946463e-37 -1.2093696e-25 2.417357e-14 1.6180508e-17 -3.847635e-24
-3.3889666e-13 1.216738e-13 1.360355e-36 -3.254361e-13 -2.2406036e-24 -3.6694915e-21 8.104577e-29 -1.9638088e-37
-3.9781734e-36 6.778797e-32 2.528104e-37 3.8729622e-21 4.293321e-37 -2.5357576e-30 3.0310368e-30 8.3123195e-37
4.220609e-30 4.670007e-24 3.9972526e-36 8.986554e-37 -1.0555151e-36 -3.0388998e-16 -3.6790396e-30 2.7083081e-17
00000000: a26a a884 982e 8a02 a1f2 d02c dea1 28ab
00000010: c5ce d90b 917e b2a7 744b 3802 b55f 5225
00000020: c882 4a80 7827 3523 ae07 7f1a 1b43 1384
00000030: 7738 ef2a ee6a 1684 3797 ea9c 7fff 19ae
00000040: fa71 2493 4df4 3398 7c5d 721c 2a34 a984
00000050: 994f 9f1d f0d3 e1a6 401c 172e c2fc 1384
00000060: 4717 ab04 0e0e c78b f80a 3d02 48ba 0f04
00000070: 93ce cf98 9722 4719 61d7 c302 3c71 0003
00000080: 9cd0 d60b 6d6d c51d 0fd8 3b86 0f92 2e10
00000090: a065 2080 168d 7892 7025 e782 1d41 e310
000000a0: c997 8a03 abc2 bc0d f993 0f84 18f3 218f
000000b0: f33b e2a7 fd86 84a8 42e8 0411 5e76 a502
000000c0: d7b4 9425 b16b 0427 91be 228d 84d9 5c22
000000d0: 46f7 a60d f429 fb02 95aa 18af d12d 949e
000000e0: dba8 9b04 23a5 c0ad 806d afa5 d4f1 6cac
000000f0: ce81 40ad 4339 bf9d c77b 3502 11ba dd95
00000100: a640 f8af 8af3 8803 4333 bfae 4b06 622e
00000110: fed2 1e15 c249 b382 ea2a 238a 4837 2d25
00000120: 5913 1528 dab8 a105 8e34 0dac d1be 3485
00000130: a1a7 1d99 617d 3a29 3d06 3603 aee5 9503
00000140: 64d6 2aa1 0b4b b92d 4488 4883 3016 1b83
00000150: 4031 a984 4e25 19a3 5ade b7a9 ddbf d427
00000160: 0a8e 1483 cbfd 7782 23fe 4715 5d58 8725
00000170: bc2e 8601 c7d0 8903 121b 1584 4502 a0aa
00000180: f293 818e 413e f902 5a31 1204 9e42 5426
00000190: 860f fa01 a24a 980e b1c4 b40e ed2d e9a2
000001a0: 82d2 7aaf 210f 622e 6d40 f613 8f31 1f8b
000001b0: 97d3 aeab cc07 1a16 9f52 05a7 9c5b 3485
000001c0: 0ed4 1284 1dcc a904 3cb6 0d84 e784 6319
000001d0: 541f 380f fac3 1004 e4b9 930b 9c8a 46ab
000001e0: 49ae 372b fc26 bd06 92b4 5f1d 725a 228d
000001f0: cf7b 1716 c3b3 d3aa bb71 af29 fc64 3ca9
00000200: a389 042c ce46 5fac bc3a 4cad 3dcf b805
00000210: ed20 ef18 479b 3485 ae14 3187 f1a3 cba1
00000220: be45 272d 9322 8b07 7211 0a03 c762 1304
00000230: c32b b80d 757e 8e1d 2426 b907 dbdf 47ae
00000240: cf11 68a9 cc8e cf0c fbcf 2083 4b9e 9f07
00000250: 67b4 9603 5049 e02a c9a7 0d16 fa6e ba1d
00000260: fa17 0e03 7d1d 1404 4692 b699 9f78 ab84
00000270: d536 5595 a5e6 0e04 c3ea 900b 54bd 8c82
00000280: 907b 4e99 c253 738d 7958 8382 57d9 1f99
00000290: 5eaa a798 b0f7 e682 75d4 41ab 6490 fa02
000002a0: 476d a025 3ee8 109e caaf 1a01 9c94 8183
000002b0: 664f ab87 4714 0514 9642 04a9 4c36 7323
000002c0: 9866 f823 a83f 1603 8b18 7603 1e5d 3224
000002d0: f9b7 10ac d20e af14 8d4b 282d e961 3682
000002e0: f6e9 a027 93db e286 746b 978e 3c2d 9d0d
000002f0: 1702 7a2b e6b8 0eb0 b182 f6ad b55c d32e
00000300: fc8c 8601 58cc fe27 0ecd 8f1e c0a8 aa04
00000310: f7d9 120b b18e 01a7 d775 e62c 6d81 3305
00000320: 9ad3 b002 1cb1 fd0e 9d98 52a7 42a4 fe02
00000330: 8662 c21d fce0 ce2b ca96 df9e fb55 8304
00000340: be25 aa04 3a48 8a01 ab8c 87a7 a73c d32d
00000350: 2ec7 1184 f6ca 889d 68c7 13aa a650 5aaf
00000360: fe8a 75ad fda2 a718 2a8a 1b02 4a57 6025
00000370: a4fe bc86 e52c a984 6534 b905 6149 16a9
00000380: 3cb8 9218 194d 0f84 a77b c017 47ee 0703
00000390: 74b6 1596 75bc d928 253d 9523 22d9 9498
000003a0: 28c8 beaa 16fe 082a d173 e703 4934 b7aa
000003b0: ba5b 2d98 25a1 8a9d b679 cd10 60a6 8582
000003c0: 7936 a984 d5fc af0b c90d ac02 fe50 921d
000003d0: 1a18 1203 a0b9 4d8e 2ce8 750e 426d 8d03
000003e0: 4f35 ab0e 82a9 b418 3a06 aa04 f7e5 9803
000003f0: 2b96 b383 3f2e afa5 553d 958e 1ecc f923

lstm.bias_ih_l1 f4 [256]
0.37487647 0.32682958 0.3631559 0.31836766 0.22004765 0.36946753 0.25788882 0.17591397
0.29218814 0.27543738 0.3495465 0.29324952 0.30976504 0.32613072 0.25006405 0.39667568
0.40260908 0.29119065 0.16783533 0.3640877 0.3590093 0.21424727 0.41141805 0.21740924
0.429726 0.17615728 0.35777068 0.29316023 0.2626703 0.21426389 0.28868386 0.22968672
0.26355636 0.40677947 0.15129729 0.25467598 0.38321108 0.34163126 0.18622278 0.41105044
0.3521957 0.3374261 0.21854302 0.31287113 0.23229605 0.24382913 0.3402348 0.36816275
0.3872592 0.3263272 0.1991479 0.2680646 0.4134335 0.311395 0.275572 0.3137568
0.37215436 0.3710147 0.39458948 0.14976902 0.36546147 0.1984248 0.19766594 0.22509351
1.7761454e-34 -3.9630546e-15 3.9849934e-29 -2.3654903e-10 2.4377809e-11 -6.2647725e-32 -1.3368855e-26 1.1950826e-16
5.164959e-10 -1.7739023e-37 1.1198523e-21 2.4667515e-34 -6.2917863e-26 1.21053e-37 -1.4870745e-37 3.990498e-36
4.292391e-11 9.181908e-11 -3.3411248e-13 -1.09018175e-13 1.1807931e-11 -5.129721e-30 5.786589e-27 9.654074e-18
-7.304018e-27 -3.506348e-10 8.9166926e-26 4.543234e-39 -2.9246218e-37 -1.0246955e-20 1.789876e-11 8.508336e-15
-1.1223471e-26 -5.475867e-34 -7.0502476e-17 -9.8160935e-37 9.052114e-12 2.3166215e-10 1.5201847e-27 -8.530941e-25
2.6296335e-10 -1.567246e-20 -3.9153847e-11 -2.648932e-15 2.9316483e-16 4.9725807e-26 -2.4465422e-37 -1.6789392e-36
-2.785416e-37 -7.6621475e-37 -2.1100114e-26 -8.454804e-37 -3.2248791e-12 -3.5782504e-13 -4.378213e-30 7.711427e-36
-1.26408565e-36 4.5160773e-37 -7.985326e-37 3.5132483e-37 5.6523314e-25 -1.3420091e-37 1.3194772e-18 2.6600477e-37
0.2684316 -0.068118736 -0.20236617 0.17752603 -0.24420507 -0.078264825 0.28514758 -0.11096709
-0.13050255 -0.24623862 0.28584766 -0.11619982 0.24003682 -0.22551587 -0.19776225 0.23828344
0.15694535 0.088820145 -0.12634735 0.116307706 0.1843385 0.2943316 0.15542719 0.21748818
0.158819 -0.0757798 0.24891151 0.17018673 0.2519119 -0.16044697 0.2719663 -0.13219778
0.28255776 0.1792074 0.18630774 -0.13535692 -0.0510668 0.1786497 0.25557983 -0.11522591
-0.09024723 -0.048150502 -0.0985162 0.16485155 0.14046222 -0.08357032 -0.119892225 -0.07067347
0.07032664 -0.13137329 0.25908923 0.17705847 -0.088123135 -0.120804854 0.18485752 0.16335529
0.15512915 -0.22906554 -0.22066604 0.039956182 -0.08687379 -0.25264114 -0.061967302 0.18195543
0.18413717 0.19280432 0.22308643 0.4001599 0.22525297 0.30608866 0.31422713 0.26846662
0.37389767 0.30871937 0.1939689 0.26800665 0.30939585 0.25246912 0.19186673 0.37077123
0.32291153 0.28219503 0.41572604 0.21008588 0.23941907 0.27364734 0.34662643 0.20333552
0.39390865 0.18073429 0.2605615 0.19189982 0.40729994 0.33508226 0.34710085 0.3216598
0.44798064 0.27874303 0.16369213 0.20154369 0.37885806 0.30581266 0.44087416 0.35365602
0.31022727 0.42769137 0.4024155 0.31343585 0.34475142 0.30678204 0.34296018 0.42237204
0.26353142 0.34355122 0.1978478 0.2457671 0.33424726 0.24797249 0.23285851 0.4146517
0.36575004 0.271705 0.32069892 0.2454694 0.2325963 0.39713785 0.3727776 0.34621304
00000000: cfef bf3e 3556 a73e 92ef b93e 1601 a33e
00000010: 2c54 613e d92a bd3e 010a 843e cb22 343e
00000020: af99 953e 2106 8d3e c2f7 b23e cd24 963e
00000030: 8699 9e3e 9bfa a63e 6508 803e 1319 cb3e
00000040: c722 ce3e f116 953e 06dd 2b3e b469 ba3e
00000050: 11d0 b73e a363 5b3e 63a5 d23e 87a0 5e3e
00000060: 0c05 dc3e 9362 343e b82d b73e 1919 963e
00000070: b97c 863e fe67 5b3e 5fce 933e ff32 6b3e
00000080: dcf0 863e 6645 d03e aded 1a3e e464 823e
00000090: 3e34 c43e 4bea ae3e 2fb1 3e3e 3475 d23e
000000a0: ff52 b43e 1dc3 ac3e bec9 5f3e a530 a03e
000000b0: 04df 6d3e 58ae 793e 4133 ae3e d47f bc3e
000000c0: d646 c63e 5c14 a73e 6ded 4b3e c33f 893e
000000d0: 8ead d33e 2a6f 9f3e c617 8d3e bba4 a03e
000000e0: 048b be3e a4f5 bd3e a207 ca3e 0d5d 193e
000000f0: c41d bb3e df2f 4b3e f168 4a3e ea7e 663e
00000100: 1917 6c07 bac8 8ea7 2c10 4a10 510b 82af
00000110: f26d d62d 8ea4 a28b 1366 8494 9dc8 0925
00000120: 2bf9 0d30 7973 7182 303a a91c 9af1 a307
00000130: efc6 9b95 d0c4 2402 fc68 4a82 adbc a904
00000140: 07c8 3c2e 8ce9 c92e af16 bcaa b37c f5a9
00000150: 32ba 4f2d 1216 d08e fc3a e513 1316 3223
00000160: c5ab 1094 76c3 c0af 41c4 dc15 b078 3100
00000170: 190a c782 3c8f 419e 6d70 9d2d c645 1928
00000180: c24d 5e94 86f7 3588 5191 a2a4 1e03 a783
00000190: 193f 1f2d 19b7 7e2f 04e2 f012 8a02 8497
000001a0: cd90 902f af05 949e 5033 2cae 2ce0 3ea7
000001b0: 7eff a825 f33a 7615 c780 a682 0fd4 0e84
000001c0: ca90 bd82 5c5d 8283 25f7 d094 ddd9 8f83
000001d0: 42ee 62ac 0670 c9aa f799 b18e 0101 2405
000001e0: b212 d783 95ac 1903 00dd 8783 6b19 ef02
000001f0: 62ee 2e17 31aa 3682 70b8 c221 9108 b502
00000200: de6f 893e d681 8bbd 1439 4fbe 62c9 353e
00000210: e510 7abe 4f49 a0bd ddfe 913e b742 e3bd
00000220: 76a2 05be fa25 7cbe a05a 923e 2cfa edbd
00000230: 36cc 753e a2ed 66be 3082 4abe 9300 743e
00000240: 48b6 203e 56e7 b53d 3361 01be bc32 ee3d
00000250: 3bc3 3c3e a2b2 963e 4e28 1f3e 39b5 5e3e
00000260: 73a1 223e 7132 9bbd a9e2 7e3e 6e45 2e3e
00000270: 99fa 803e 364c 24be 2b3f 8b3e db5e 07be
00000280: 69ab 903e 2582 373e 75c7 3e3e 019b 0abe
00000290: 6c2b 51bd f2ef 363e 5cdb 823e 90fb ebbd
000002a0: 8ad3 b8bd 7639 45bd ddc2 c9bd d8ce 283e
000002b0: 54d5 0f3e ea26 abbd 0e8a f5bd 41bd 90bd
000002c0: 6a07 903d b886 06be 58a7 843e d14e 353e
000002d0: e779 b4bd 8968 f7bd 4a4b 3d3e 9c46 273e
000002e0: 2dda 1e3e 2890 6abe 47f6 61be 18a9 233d
000002f0: e3ea b1bd 2e5a 81be 6dd1 7dbd 8652 3a3e
00000300: 748e 3c3e 7f6e 453e c570 643e c2e1 cc3e
00000310: b7a8 663e a7b7 9c3e 61e2 a03e 7574 893e
00000320: 846f bf3e 7710 9e3e c99f 463e 2b38 893e
00000330: 2269 9e3e a243 813e b678 443e bad5 bd3e
00000340: a954 a53e de7b 903e 0bda d43e c120 573e
00000350: 462a 753e 811b 8c3e 0579 b13e 3037 503e
00000360: 65ae c93e 6912 393e 5168 853e 6381 443e
00000370: 9e89 d03e e78f ab3e 34b7 b13e 98b0 a43e
00000380: b85d e53e 68b7 8e3e e99e 273e 7861 4e3e
00000390: aff9 c13e 7a93 9c3e 42ba e13e 6712 b53e
000003a0: 1cd6 9e3e 5dfa da3e 6809 ce3e aa7a a03e
000003b0: 4283 b03e 8912 9d3e 7a98 af3e 2641 d83e
000003c0: 97ed 863e f2e5 af3e 9d98 4a3e 5faa 7b3e
000003d0: 7522 ab3e 80ec 7d3e 7672 6e3e 3a4d d43e
000003e0: 9743 bb3e eb1c 8b3e a632 a43e 555c 7b3e
000003f0: b92d 6e3e a755 cb3e b5dc be3e d642 b13e
